models/64_32_1_85.04.onnx (onnx, 319076 bytes, 17 tensors)

before.0.weight f8 [32, 6, 3]
-0.05209636435779072 -0.036222299253301365 0.19486633740540796 0.029541868746161576 -0.05246171674837462 -0.13296314929604233 -0.26291472366927066 -0.2524546400617841
-0.0614469063439605 0.2351429388518578 -0.07045952432956712 -0.027893365038497323 0.1267416970029586 0.06077668906382636 0.043244900585581725 -0.05502791802006176
-0.22438154114358894 0.14324497515325632 -0.018783139142871573 0.03441053737424347 -0.2675635240030799 -0.0452071895448856 0.1796659023528593 0.06909495029241747
-0.0421298510104502 -0.06725715686444207 0.06687801309665833 0.25847506023576794 -0.17263585668689446 0.12001044265969728 -0.09653423793374323 0.06475766274212065
0.24741219449917148 0.19366116255494867 0.11443359279344895 0.08662726163675585 0.2227240968606569 -0.16581502216579352 0.004322039946290804 0.06547439407775353
0.0032391744650901583 -0.17660696514402338 0.020499400930133145 -0.07415604600981786 0.24107096166509195 0.25733352102721935 -0.22720041076983452 -0.203596231740797
0.22842334772290407 0.19648182100389436 -0.019966404952969218 0.2420467863150663 0.18533156801892203 -0.1521282508300949 -0.1956165869837836 0.06009367601885339
0.29306642321762233 0.0005325703300254412 0.15914119029882856 -0.08205721210588614 0.20755308634238523 -0.14145978783509713 -0.031242823533355224 0.019307018600806348
-0.1772538816651922 -0.2935623010122324 0.06360198926427126 -0.06023776855983611 -0.21503545226940307 0.250268395208294 -0.1031116033415351 0.11141170926610561
0.07358752631157224 -0.0807867060500497 -0.19261103390777967 0.24617617924447383 0.0011985366560943525 0.22780556629881 0.01992888505727977 -0.22614459936369508
-0.24342413632211277 0.16004420413345843 -0.008012835768092875 0.1740805363466875 0.1466895925731435 -0.10954861181036436 0.021479665277717625 -0.18967513091176402
0.030654219962973604 -0.04309186172600173 0.1426554271678763 0.177112405552896 -0.1077491514914297 0.08164428194813236 0.12163034879425724 0.22082246674406433
0.15439097432234303 0.047566903318816786 0.20586041100056107 0.028947571535326372 -0.12950326365891732 -0.0328341239374145 0.16493767061939227 0.11293727932241575
-0.041052698214573635 -0.036254864362240034 -0.18716604378543672 -0.08871296268773247 0.10913301003475918 0.2558838835117217 0.10914539215278062 0.08460191079385398
-0.1139679859916181 0.008563199131333693 0.07306896822255164 0.015056700706038609 0.02927076520240616 0.06499813844110097 -0.07354920945431959 -0.12022601059870633
0.19735771033642524 0.20105706641728707 0.003655454912915057 -0.14043418585271222 0.17494684026768592 -0.15345045106529834 -0.1838767717795434 0.08361257974368262
-0.019937754219155848 0.06519153397986088 0.02782601008977788 -0.06405164767345241 -0.31007837000892147 -0.210625058295328 0.2516553709639521 -0.15183333577853486
0.18147257529180497 0.03476970428350521 -0.09843556615204448 -0.07376546431748357 -0.022851618934971535 0.07682375092871252 0.2663835121137312 -0.16691065229345556
-0.2505291196458071 -0.01679366424685661 -0.12020187028254851 -0.20214403389630836 0.10549989278245142 0.016443606178494115 0.26919955888920705 -0.1227620053437601
-0.003227670617082323 0.08468911102853344 -0.13359928334155013 -0.08396755568256672 0.12705892695287663 0.026046386516414322 0.07467978708816302 -0.033068625571050336
0.06569970501289765 -0.08634057548326464 -0.22795027942678728 -0.13154375544099603 0.19587916121789645 -0.08020548044698939 -0.17268158321292573 0.025353687341351273
0.18524348627498693 0.030533573819034075 0.21581142233254855 0.18624785881217937 0.010494340748666167 0.16235862350502803 0.04548297276877544 -0.013968714277434244
-0.12077198772710651 -0.13435054511104833 -0.20175362814325506 0.12632731258456106 -0.24646385092549142 0.09079171588609289 -0.04816880063365061 0.2763763079810333
0.1263094607051993 0.14099746125602872 0.14291663791385598 -0.13873329068749218 -0.08649944601008867 -0.02268337885410642 -0.16307934298107202 0.11190758615832748
-0.12016191706535767 0.03899878162417694 0.19190850310529606 -0.1436146599261438 -0.07995878294771651 -0.19945968674847142 -0.10033511809469364 -0.06710320381781056
0.1062302490959125 -0.03394446439390861 0.10910358079164333 -0.0301212128443326 0.21796635222475216 -0.06710445074988657 -0.09198583456663828 -0.23602828294183564
-0.09388139901634979 0.08700558962934914 0.13697641986530454 0.35286446466839694 0.28900145994275844 0.03353548491164918 0.20238125239995583 0.06273419789670406
0.23399204323566397 0.009047635708172306 0.027205271411392926 -0.19634898774010137 0.02133209664813793 0.17188848540448645 -0.12072570502183658 0.23626129432932058
0.018845356721881368 0.14252115451338773 0.19815872187199265 0.18557271316699822 -0.17341761907271924 -0.2092693387262276 0.11984646242767409 0.1246588177073843
0.09509291813913932 -0.0488916292104641 -0.06209409699473457 -0.061734784140747186 0.15281926491948714 0.12435906320739012 0.06025472705746509 0.10462594171631838
-0.07033760654771969 0.05770019090188822 0.03871024339791055 -0.07458674846440828 0.0752063341809387 -0.1797256109889079 0.32362433277342245 0.2145256567699003
-0.10019081734592739 0.28542549045980503 0.1471072077650015 0.30280322093016276 0.14877815405101813 -0.2517684455318736 -0.11135625821464547 -0.22583083823777939
00000000: fc7d 50ea 5fac aabf d492 5bad ba8b a2bf
00000010: 05af 1f51 61f1 c83f 588c 8240 3940 9e3f
00000020: 8edb 731b 43dc aabf 7f5b e6bc ef04 c1bf
00000030: 21f8 f246 98d3 d0bf ee7b b281 3728 d0bf
00000040: 4918 600a f875 afbf f184 20f0 2919 ce3f
00000050: ceec afa8 a209 b2bf 7183 760a 1490 9cbf
00000060: 6568 d569 1239 c03f 9dce c647 1f1e af3f
00000070: 80ba 7713 3224 a63f 8bb9 8688 9e2c acbf
00000080: 66d6 84ca 88b8 ccbf a9be ccf1 d955 c23f
00000090: 26e3 5621 e33b 93bf ad00 5209 429e a13f
000000a0: fe86 4cc2 c21f d1bf c559 4791 6525 a7bf
000000b0: 09eb 67d3 4aff c63f 241e d3e7 34b0 b13f
000000c0: c1eb 8c38 0b92 a5bf c59b 27d9 c337 b1bf
000000d0: da54 12df ea1e b13f 0cd5 a2fa da8a d03f
000000e0: e227 4b87 ee18 c6bf cfe1 661e 01b9 be3f
000000f0: 4da5 dec2 77b6 b8bf ed8e a44b f593 b03f
00000100: 4bb5 00ea 33ab cf3f 5fe4 d693 e3c9 c83f
00000110: bc94 9c1a 854b bd3f c201 ac47 342d b63f
00000120: a519 0624 3982 cc3f d29c b138 6d39 c5bf
00000130: aa8b 8ac3 fcb3 713f fd13 4a0d eec2 b03f
00000140: 2060 988c 0a89 6a3f cf0a c599 0e9b c6bf
00000150: 827e 5482 cbfd 943f d1af 6900 e4fb b2bf
00000160: 9af4 2ecc 69db ce3f eb7d 3e04 2778 d03f
00000170: 5375 f22e e714 cdbf 1431 75fa 700f cabf
00000180: 406d 0eec f93c cd3f 3931 bcf9 5026 c93f
00000190: 26b2 2ac1 1272 94bf 359d a99b 63fb ce3f
000001a0: b861 c7df f1b8 c73f e674 0e43 f078 c3bf
000001b0: 4043 d3dd f609 c9bf ee10 652a 99c4 ae3f
000001c0: e09f d1ab 99c1 d23f 4659 3c13 8673 413f
000001d0: 6cd6 e30f bd5e c43f a94d 6592 b301 b5bf
000001e0: d41f 037b 1991 ca3f 27b5 39b5 5a1b c2bf
000001f0: 30e9 3d65 1efe 9fbf ad18 e515 38c5 933f
00000200: ada7 6b54 41b0 c6bf 2de8 8b88 b9c9 d2bf
00000210: 25c0 d94f 3848 b03f 83a3 e51b 7cd7 aebf
00000220: ce23 7d1d 4886 cbbf f416 29bb 6504 d03f
00000230: fea4 30a4 8565 babf 747b b04f 7a85 bc3f
00000240: 95d8 e6d2 a1d6 b23f 5ac0 6f04 70ae b4bf
00000250: d4c7 bd75 7aa7 c8bf 4662 7477 b382 cf3f
00000260: a041 6cef 06a3 533f acd1 8c98 bb28 cd3f
00000270: a85c 44d6 3c68 943f 5a90 3765 4ef2 ccbf
00000280: 1fbf 47a8 8528 cfbf 5872 5517 547c c43f
00000290: 07d2 939c 0869 80bf 2f55 3d61 4548 c63f
000002a0: 98f2 617d b9c6 c23f 0137 0cb9 600b bcbf
000002b0: 0559 96ef c3fe 953f b4b5 1052 4647 c8bf
000002c0: 49c5 e6e0 d163 9f3f 4b82 acf1 2210 a6bf
000002d0: 5537 2475 8842 c23f d564 c88a 9eab c63f
000002e0: 1fd3 d3c9 7295 bbbf ca64 dfc0 a3e6 b43f
000002f0: 86bc 45a2 2a23 bf3f 8fa3 711c e943 cc3f
00000300: 7f8a c15c 15c3 c33f f6ab 406c b05a a83f
00000310: 80ee 644a a259 ca3f 28e0 2ba4 6ea4 9d3f
00000320: d9f5 111d 9093 c0bf 140d 0261 a2cf a0bf
00000330: a527 9876 ad1c c53f d361 3021 75e9 bc3f
00000340: 6801 7df8 db04 a5bf 0373 8361 ff8f a2bf
00000350: b675 7d92 0ef5 c7bf cb9e 7989 e4b5 b6bf
00000360: a169 0315 24f0 bb3f 8567 d0cb 6660 d03f
00000370: 5727 ced1 f3f0 bb3f 0ce9 0988 78a8 b53f
00000380: 13ff 9f84 012d bdbf e3e6 be21 9589 813f
00000390: 634a dedc a5b4 b23f 48dc f128 0cd6 8e3f
000003a0: 6ac9 17cd 27f9 9d3f e4c8 e7ce b7a3 b03f
000003b0: c4c1 40f9 1ed4 b2bf f265 a6bf 21c7 bebf
000003c0: d812 c177 0443 c93f 592b 72ea 3cbc c93f
000003d0: cdf3 b169 0bf2 6d3f 0e28 bd55 bff9 c1bf
000003e0: e07e be76 a864 c63f 41e2 70ae 43a4 c3bf
000003f0: cbc2 a428 4689 c7bf ef86 884f a267 b53f
00000400: b4ce 4e09 906a 94bf 4869 6b72 64b0 b03f
00000410: d54a 41ed 6b7e 9c3f 292c 0354 b065 b0bf
00000420: d6a8 98f2 52d8 d3bf 015b 8c0c c3f5 cabf
00000430: 7ac9 0921 1f1b d03f 2842 ce55 466f c3bf
00000440: c9e5 ff4b 7e3a c73f 0d18 94ad 55cd a13f
00000450: f5e2 62c1 1233 b9bf 6a5e d120 4be2 b2bf
00000460: 9807 f22f 6a66 97bf 987c cba9 b8aa b33f
00000470: cf36 2e6e 6d0c d13f 672a 7a08 545d c5bf
00000480: 2dc3 e449 ab08 d0bf 2a8a e1ba 5b32 91bf
00000490: a315 c8bd 8cc5 bebf ba44 550f dbdf c9bf
000004a0: 386d 3b7d 0a02 bb3f 524b 0fbb 97d6 903f
000004b0: 9bb6 61c9 903a d13f 4d90 24ae 546d bfbf
000004c0: 4c9d c377 ea70 6abf 9ce2 3182 2fae b53f
000004d0: 9449 5c04 c819 c1bf 2ee9 94d1 e57e b5bf
000004e0: f2b6 f687 7743 c03f dd61 1169 e7ab 9a3f
000004f0: 6f45 37eb 361e b33f 98e1 b3f2 5eee a0bf
00000500: 5622 6324 b2d1 b03f 8db8 047c 6a1a b6bf
00000510: 3d45 a089 792d cdbf 4b59 ceff 6cd6 c0bf
00000520: 1e0b b37f 9112 c93f 50d3 7aab 5888 b4bf
00000530: bdb0 421c 6e1a c6bf 6a40 db27 51f6 993f
00000540: 568e acfd 0eb6 c73f d956 ee73 3144 9f3f
00000550: d3c1 826c b59f cb3f de2f 4647 f8d6 c73f
00000560: fb03 7892 0e7e 853f f7bd 16d9 2ac8 c43f
00000570: f02c 2251 8b49 a73f e5f4 e817 a19b 8cbf
00000580: f092 8fb9 e9ea bebf 22d2 b90e 6632 c1bf
00000590: 89c0 5c19 10d3 c9bf 8b35 124e 7e2b c03f
000005a0: a583 afa1 208c cfbf 7e7e 7a3a 203e b73f
000005b0: 1372 d1be 94a9 a8bf 9cbc 0a41 26b0 d13f
000005c0: bfbd 738d e82a c03f 27f3 746e 340c c23f
000005d0: ef77 f2a6 174b c23f 4443 2f31 03c2 c1bf
000005e0: 5b46 bce3 d324 b6bf 5e5a 5dc9 4f3a 97bf
000005f0: 2ae1 60ae c8df c4bf f56c b9be f9a5 bc3f
00000600: 5437 0570 eec2 bebf 54c2 51f7 a5f7 a33f
00000610: 08ae 5434 7590 c83f 0ef2 cd15 f761 c2bf
00000620: e7d4 c9c5 2d78 b4bf 5e40 ba1f e587 c9bf
00000630: d064 dbf2 8faf b9bf a1b4 daf1 ac2d b1bf
00000640: 287f b6d5 e731 bb3f 3c76 e738 2b61 a1bf
00000650: fb68 6057 36ee bb3f ec3c 5460 18d8 9ebf
00000660: 6184 3749 52e6 cb3f af05 63dd c12d b1bf
00000670: c4b2 2837 628c b7bf a846 15be 2c36 cebf
00000680: dc5a 7a82 9c08 b8bf f1f9 0692 ff45 b63f
00000690: d183 d27d 7188 c13f c8f6 ead5 5495 d63f
000006a0: 61d3 bcfa ff7e d23f 04ee e625 902b a13f
000006b0: 7bcf 30fe a0e7 c93f 76a0 4e30 590f b03f
000006c0: aa56 9c86 73f3 cd3f 6522 c81b 9187 823f
000006d0: 9983 f6db b2db 9b3f f524 79b0 f621 c9bf
000006e0: 59e0 d5c5 14d8 953f e184 af1f 7100 c63f
000006f0: faf6 da3a e1e7 bebf 7a3f 3a62 cf3d ce3f
00000700: 402e 357b 324c 933f cfc3 cf18 223e c23f
00000710: 3fbe edd6 435d c93f 0987 0abf d8c0 c73f
00000720: 88d7 3b6d 8c32 c6bf a63d f172 56c9 cabf
00000730: 130c abfc 41ae be3f e813 36e9 a3e9 bf3f
00000740: 8f22 7d6d 0258 b83f d3a2 03d9 5208 a9bf
00000750: 41ec bb27 ccca afbf 61fc d19d b39b afbf
00000760: 1b94 83e8 948f c33f 22db 6fdd fed5 bf3f
00000770: d74d 4824 b5d9 ae3f 2b1b fc05 c4c8 ba3f
00000780: af26 cd37 a501 b2bf c90a cb21 e18a ad3f
00000790: 6515 d43a d4d1 a33f e19e 5efd 1d18 b3bf
000007a0: 8859 c2e9 b840 b33f a3b9 b9b2 3f01 c7bf
000007b0: 2be8 5cd5 42b6 d43f ef64 fda3 9375 cb3f
000007c0: 803a dcfb 1aa6 b9bf 4c0e be46 6944 d23f
000007d0: b7a3 2db3 68d4 c23f 4c2f c1c2 2061 d33f
000007e0: 5c12 019d 290b c33f 8c58 ee65 f91c d0bf
000007f0: 21a1 3cff d781 bcbf 706b 5460 06e8 ccbf

before.0.bias f8 [32]
-0.03523474709155891 0.008195945257757633 0.18194619260357095 0.18492305912957144 -0.07787941251760641 0.14430247111617509 0.12310582412439326 0.11110298779503561
-0.015355261010379607 0.20921913107258155 -0.12152797038140806 -0.022281983323574627 0.18240750326326305 -0.13208352199594942 -0.1882313247832535 -0.0969275996135104
-0.1559887599180459 -0.1551749435468546 -0.16947338436910536 0.1710226798838285 -0.09646176720504385 0.16704608634185417 -0.11659340657150159 0.0460664100863666
-0.017218204030062533 -0.14088605929816508 -0.1397266991010566 0.1617704505702653 0.026892095111321183 0.17579149201291275 0.07211385353414412 -0.04044679698192213
00000000: ccd4 e1ec 490a a2bf 2129 bc26 09c9 803f
00000010: 5599 6e49 034a c73f b16f 9e0d 8fab c73f
00000020: d678 cbb9 e7ef b3bf bf85 16dd 8078 c23f
00000030: b5b7 8f00 dd83 bf3f f24b 11d3 3e71 bc3f
00000040: 2795 e33e 9472 8fbf 4abf d346 b1c7 ca3f
00000050: 2060 5602 751c bfbf 93b9 a896 16d1 96bf
00000060: f0c5 870a 2159 c73f a413 a8e3 1ce8 c0bf
00000070: 1a6f 03cc f617 c8bf a178 6b46 3fd0 b8bf
00000080: 0a20 328f 70f7 c3bf 21a0 d8c5 c5dc c3bf
00000090: fe30 b4c9 4db1 c5bf 4dd7 7c38 12e4 c53f
000000a0: 70c4 75e7 b7b1 b8bf d1ab e122 c461 c53f
000000b0: 7561 27c4 10d9 bdbf 23b7 8739 0496 a73f
000000c0: b3e4 d11c a6a1 91bf 8fef 92ec 8d08 c2bf
000000d0: 5f2f 8281 90e2 c1bf e048 54e5 e4b4 c43f
000000e0: 819f 18f4 9989 9b3f 0b25 8eea 5580 c63f
000000f0: e086 84b2 0d76 b23f 53d6 874c 71b5 a4bf

before.2.weight f8 [32, 32, 3]
0.035111229537274274 -0.1231543094704836 -0.024622010699014173 0.007843650568472041 0.08824016080149123 0.10004587966324509 0.09312474872838587 0.12478614534791523
0.015818362581560386 0.008356429769382907 0.09875260694849013 -0.03742225138630202 0.09199807153485436 0.028789784147510166 0.020477995956651354 0.057216032392263735
0.1648120251842404 0.01187075664346055 0.025016276936443593 0.0841911856680043 0.07034092019818543 -0.06716894333502717 -0.028090599840244194 -0.11480160885186153
0.07763173682814517 0.04038604669168622 0.09494564226164139 0.0017137584869955562 0.13722059504025208 -0.020329865219554814 0.01384616088482345 0.11898561571528314
-0.03445710820559003 0.046677340651005914 -0.05314149929117041 0.04187602582729652 -0.00998341728977323 -0.044271123733861904 -0.06440242858546899 -0.09130079332473133
-0.07504546161198189 -0.13608826021557005 -0.007845559185609908 -0.17235379426931147 -0.013188675226609348 0.0003967347988243218 -0.16459561713461615 -0.2064154297818838
-0.07062156055466164 0.011092211504599553 -0.05437491783235008 0.07109031155785765 -0.030768694658971456 -0.020472324851429746 0.08030140600107284 0.020594271199954207
-0.031675173747942854 0.1755628953546654 0.000522803449758556 0.0871143851409023 0.021134315730542502 0.05156900499404659 -0.12210748077672332 0.15175479238010028
0.1150232564804232 -0.041685462765710585 -0.003024454272390704 -0.05976539819205779 -0.020517442745179644 -0.10001378404018134 -0.1329669851097445 0.07433996446289591
0.12621745320305944 0.03751291109405063 0.023953383013049022 0.08937668780117665 -0.051106363142030646 -0.09590259785502048 -0.14232516249839747 -0.07023822224428448
-0.1746606226522304 -0.007168917678904577 0.0931316240176636 0.003905297309938178 0.10828104118131372 0.007319392194851993 -0.03303034093310158 -0.00427981626845425
0.016349378539076885 -0.10664103496120725 -0.09288060379413784 0.05529345460283776 0.12546306785671432 -0.0355382482866217 -0.05836733260225849 0.0064092931063118004
-0.01254274944114422 0.0699378554121686 0.04709121083926492 0.013946935784712984 0.08320765564428008 0.10657986363609577 0.0473137593209671 -0.01939225584179266
-0.0999546944460745 -0.1646981306294959 -0.12912759630442297 -0.056738049655735846 0.08675140414571805 0.03584749902343338 -0.09210173890453269 0.03812422443876164
0.05874283858850795 0.08230620504150611 0.0290318247447321 -0.12083550104279453 0.0011230953696192687 0.008560040628789858 0.0333500051867322 -0.06595594544106344
-0.09514095102764261 0.061021844888502645 0.06395488716954326 -0.05848427319974075 0.0006995130813814928 0.11471778965188305 -0.07065571251688446 0.019936910825322125
0.023680897395765704 -0.13903580250014588 -0.10610882874642633 -0.02592509284694106 0.02985462026131597 0.08950031471302562 0.021377310802502714 0.027532396779246883
-0.04637675170092108 -0.06396764429051942 -0.07118319561612561 0.08117424276855661 0.06613057602417699 -0.10276894394946004 -0.1369617273628507 -0.046703882865199046
-0.020578530909119878 -0.07774344378842057 0.041741053521559136 -0.11920736604481563 -0.031708509279186725 -0.08224498256104665 0.03368278119299879 0.05719983199962816
-0.017779836645767 -0.028350043822056872 0.016646271602933353 0.10171350660695777 0.02787372566201724 -0.054427358367944746 -0.10337972427189335 0.06999202033089506
-0.016529532708380597 0.10688738506144271 -0.029920303329420642 0.09637106192837509 0.03207468313827502 0.10325565614467162 0.031698826469932884 0.06386022515265949
0.071233991696126 0.03294693064452002 0.03808417159252343 0.0011363460095072779 0.13609533775864233 0.18744525320391944 -0.05786850851266506 -0.018186664436980852
0.01814520511008278 0.07322967546638473 0.04866660799395095 0.02761570265233173 0.07798604864251003 0.01957965093847755 -0.05370106610258346 -0.10846703261836264
-0.001344583884175608 0.024072968916566385 0.12304215435522246 0.06371338946619858 0.035593516630599904 -0.024730314773026226 0.04077508194117733 -0.037704026787372544
0.08646362986329013 0.11255095305654174 -0.03992996159071454 0.07295677309235124 -0.0315484868962875 -0.024984389391740514 0.030608335537078653 -0.0338719047424792
-0.036299340009231386 -0.003420574469496493 -0.008904246094232734 0.0355137700274583 -0.009738978657175157 -0.07761746662519264 -0.01484788363390473 -0.04148662012100275
-0.04778716524031887 -0.07307079349978862 0.06117539337068728 0.017475176498946463 0.07618159865781017 0.16646746743862134 0.009226231756812699 -0.027778005567649453
-0.08515741197062152 0.020120316080560165 0.07558706699002919 0.07289921254159532 0.043241667748286174 -0.06119499602014482 -0.1025501688834985 -0.09121137192895372
0.09623727223328014 -0.10246910988059345 0.0106681155990007 -0.018434630781391518 -0.0008091703583528186 0.08625883639753411 0.02712373942893152 -0.10615893353430335
-0.01392825569834395 0.033754330066089445 -0.09852486017372825 0.0972346992403995 -0.09561966781137721 -0.0945995357929607 -0.04457521416667727 -0.06838427249018292
0.09508517793841938 0.018573178460309658 -0.04976239850962581 -0.05668301732387748 -0.10733729568216788 -0.046749570875924976 0.09592918426904008 0.05156120893398942
0.09057275344272349 -0.06077791893586397 0.032949775221418925 0.04542373403322543 0.02941831094970041 0.050640872781154554 -0.13930699186093962 -0.004753155381617419
00000000: 8c7d 2b5d 19fa a13f 4b85 8973 0a87 bfbf
00000010: 262a db2a 8336 99bf 88f9 61f5 5410 803f
00000020: 4910 d63c e896 b63f 01d1 4055 9b9c b93f
00000030: 1b94 3c06 06d7 b73f f960 431d fcf1 bf3f
00000040: b035 db57 b032 903f 4a0a 9104 2d1d 813f
00000050: d30e 3dd1 d947 b93f 5a97 b163 0229 a3bf
00000060: 658a 8984 2f8d b73f f364 7db5 117b 9d3f
00000070: 648d af0b 2ff8 943f 2601 dd77 6b4b ad3f
00000080: 0fb1 1379 8f18 c53f 63df 7ffc b14f 883f
00000090: 2023 3ded dd9d 993f 0738 0eb5 8d8d b53f
000000a0: 5b5e d2cf dc01 b23f 254a eede fb31 b1bf
000000b0: 5e34 8e3e c8c3 9cbf 9003 8c63 a363 bdbf
000000c0: f0fd ce6a acdf b33f b0d3 82db 7aad a43f
000000d0: c955 698c 5b4e b83f d9b0 e929 0614 5c3f
000000e0: a88c 04c8 7190 c13f de13 0029 5ad1 94bf
000000f0: 6a5d 6741 605b 8c3f 630a 3160 d775 be3f
00000100: 042a b7b1 5ca4 a1bf 7ee2 1ea7 17e6 a73f
00000110: 112f 08d3 5c35 abbf 3c52 d442 c670 a53f
00000120: 715d 1896 2f72 84bf b32e 3069 b4aa a6bf
00000130: 92bc 8e74 ad7c b0bf 2bb7 6d21 7d5f b7bf
00000140: 0831 56eb 2d36 b3bf a369 7f11 576b c1bf
00000150: fadc f720 5511 80bf d235 dd6a b00f c6bf
00000160: 2df2 3406 aa02 8bbf fd61 73fc 1a00 3a3f
00000170: 113d 541c 7811 c5bf e5c7 2620 d26b cabf
00000180: 9189 f92c 4114 b2bf a376 386d 83b7 863f
00000190: 2511 a07b 07d7 abbf 4315 3483 f932 b23f
000001a0: 1b1d 3425 d481 9fbf b004 d776 b2f6 94bf
000001b0: e9f0 9808 a28e b43f 2db0 2725 aa16 953f
000001c0: 6560 af76 ba37 a0bf e43c f84e d878 c63f
000001d0: 2485 06dc 9721 413f 98fa 30db 204d b63f
000001e0: 6848 8beb 3ba4 953f ef95 dfab 4067 aa3f
000001f0: 1271 8894 6f42 bfbf 9553 2477 b36c c33f
00000200: efe2 dc04 2a72 bd3f 9c3e 9806 cc57 a5bf
00000210: c273 0586 bdc6 68bf 19a9 55fd 9199 aebf
00000220: a236 5a46 8602 95bf 9f0e 9adb 809a b9bf
00000230: bd3d 3fea 0f05 c1bf 9f68 27a4 f107 b33f
00000240: bc84 d8bc e427 c03f 9f45 a76c e434 a33f
00000250: 96ad ad52 3c87 983f c57f 21ff 63e1 b63f
00000260: cf02 a0fc 9c2a aabf 4c85 6399 128d b8bf
00000270: 610c 2aff b537 c2bf dbe7 77d3 21fb b1bf
00000280: 9d5c 187f 475b c6bf 6a64 a8af 275d 7dbf
00000290: 6f15 615f 79d7 b73f 2861 4687 00fe 6f3f
000002a0: dd8b a66a 4eb8 bb3f f4e1 a761 f0fa 7d3f
000002b0: 97b3 2a54 5ae9 a0bf bf90 7e6e b687 71bf
000002c0: 7681 8a38 e4bd 903f 10ea 91ad d34c bbbf
000002d0: 9e82 baf3 05c7 b7bf f272 6776 6c4f ac3f
000002e0: 0f74 a67e 2c0f c03f b5dc 4bbc 1132 a2bf
000002f0: a4e7 5cb1 52e2 adbf 1d6e 8384 a140 7a3f
00000300: 4e8d 3655 03b0 89bf 6265 bf81 72e7 b13f
00000310: 5fa5 f7d4 561c a83f d118 9908 3690 8c3f
00000320: 05de c4cf 184d b53f f3aa ba64 d148 bb3f
00000330: 9865 de51 8239 a83f b06e 8b42 90db 93bf
00000340: 8e41 ba7f a196 b9bf f80c 620e d414 c5bf
00000350: 39bd 91c9 4087 c0bf 95a0 6b07 c50c adbf
00000360: b21c b00b 5735 b63f 59e8 e577 9a5a a23f
00000370: 42ec 7fc4 fa93 b7bf 83b8 4cb2 0485 a33f
00000380: 3344 3995 8a13 ae3f 6940 e9fa 0412 b53f
00000390: 428d 49c7 84ba 9d3f 0ab1 2c4d 13ef bebf
000003a0: 79db 7f78 9a66 523f 28b7 6c34 ed87 813f
000003b0: 6867 327b 4013 a13f a168 a524 7de2 b0bf
000003c0: 5e8f 2c49 285b b8bf 1781 4658 413e af3f
000003d0: d203 d0f4 585f b03f 5749 7291 a6f1 adbf
000003e0: d453 61e7 f0eb 463f b701 d322 255e bd3f
000003f0: dc1c 8926 7e16 b2bf e27f e96f 576a 943f
00000400: 5842 6b1f ce3f 983f f709 5bd8 eccb c1bf
00000410: 5663 48bd f229 bbbf 5189 b187 1b8c 9abf
00000420: 919d a0a6 3592 9e3f 4595 ac1c 7ee9 b63f
00000430: a0bb 170b efe3 953f 3a4c fdde 7331 9c3f
00000440: 4649 b38f b1be a7bf 7bdd 3afc 2e60 b0bf
00000450: 072f 32d9 0f39 b2bf 9cf0 f7cd d5c7 b43f
00000460: 7c1b 4af5 eeed b03f fab0 4ec5 104f babf
00000470: cfde e93d f687 c1bf 3726 0143 92e9 a7bf
00000480: 2180 04d5 8912 95bf e0b7 8c8c fee6 b3bf
00000490: 3526 8d57 155f a53f 20d3 9aba 5f84 bebf
000004a0: 68d1 b704 193c a0bf ea1a 5cd6 010e b5bf
000004b0: ea12 5397 de3e a13f 8bd9 8cdf 4b49 ad3f
000004c0: 23ea afa3 e034 92bf 243e 393c cb07 9dbf
000004d0: ae2b 8a60 b80b 913f 9838 7078 e509 ba3f
000004e0: 124e 8b10 ee8a 9c3f 8d5f 6518 e7dd abbf
000004f0: 3839 d1f6 1777 babf 735a 4d3e ffea b13f
00000500: d245 9a29 1eed 90bf 82a0 31bf f85c bb3f
00000510: c121 2591 6da3 9ebf 915e 431f c6ab b83f
00000520: 4487 37c6 176c a03f f3b4 4472 f66e ba3f
00000530: f816 051e d43a a03f 14be 8bca 2459 b03f
00000540: 21ca b210 643c b23f be5b 3e8b 6bde a03f
00000550: 5264 f8be c47f a33f b553 a83c 2e9e 523f
00000560: 5bdd 6770 926b c13f 1f90 26c0 34fe c73f
00000570: 9875 0fef f0a0 adbf ceae eb63 869f 92bf
00000580: 82aa 1b1a a894 923f 8a8d 3915 2ebf b23f
00000590: f087 7b63 d4ea a83f e6c5 fd6e 4a47 9c3f
000005a0: 99be 76c8 e4f6 b33f f89a ca21 b00c 943f
000005b0: 2884 57c5 b47e abbf 973f cad5 7ec4 bbbf
000005c0: 92f6 caf3 9707 56bf 7a6b db98 95a6 983f
000005d0: 2f2d fccc b07f bf3f 331b 134c 854f b03f
000005e0: e990 c13b 5039 a23f ff02 ae54 e752 99bf
000005f0: f5af dbb6 78e0 a43f 4663 f533 f14d a3bf
00000600: 5f68 8efe 7a22 b63f 39f0 82a6 23d0 bc3f
00000610: 8747 532e b371 a4bf 2e0e 748a 4bad b23f
00000620: ec69 ea8e 1f27 a0bf 7d68 64fd 8195 99bf
00000630: a28c 77a0 ca57 9f3f c88d 3e86 a857 a1bf
00000640: 2d7d 69bc d395 a2bf e052 5cef 7605 6cbf
00000650: de80 29ae 633c 82bf d6b4 a661 dc2e a23f
00000660: a0cf a196 07f2 83bf 38ea c000 bdde b3bf
00000670: eabe fa34 9168 8ebf 2a56 48f9 bb3d a5bf
00000680: 0c5e c02f 8f77 a8bf 28d6 5f7c c4b4 b2bf
00000690: d8ae b193 6152 af3f 3c1e 383e 03e5 913f
000006a0: a9d3 ca22 a380 b33f ea97 3f54 ce4e c53f
000006b0: c15f 49dd 33e5 823f 693a d865 d671 9cbf
000006c0: 6e02 6d4b e0cc b5bf d76a 348e 6b9a 943f
000006d0: 4305 b98c ac59 b33f b432 c5d5 85a9 b23f
000006e0: 8d55 9b99 c523 a63f e6b5 2b55 f354 afbf
000006f0: 94cc 8d55 ba40 babf 3b49 75e3 a059 b7bf
00000700: 97ef e580 01a3 b83f b191 c963 6a3b babf
00000710: 777a dc3c 2ad9 853f e196 4721 87e0 92bf
00000720: 0928 ee1c d083 4abf 3384 5121 0f15 b63f
00000730: 9b81 2b57 53c6 9b3f 1d44 b55b 3b2d bbbf
00000740: 66bb b7d5 6a86 8cbf a5e8 765f 3f48 a13f
00000750: cc04 4adc ec38 b9bf 171f 468d 5fe4 b83f
00000760: 10b0 1ad2 877a b8bf 7b92 72d8 ac37 b8bf
00000770: fabb 1dfe 8fd2 a6bf 64f5 e7b5 a181 b1bf
00000780: 2d71 9491 8057 b83f 137a 47e8 d804 933f
00000790: 9eb6 5604 757a a9bf 4010 4a73 8e05 adbf
000007a0: 0093 98fe 747a bbbf 4a3c 074c 8fef a7bf
000007b0: 49e0 2aa5 d08e b83f e137 3a14 3b66 aa3f
000007c0: 95f6 f1a5 c62f b73f e604 4c8c 481e afbf
000007d0: 7c1c f9fd cade a03f 5212 4598 c741 a73f
000007e0: 0ae7 ba6d d51f 9e3f 8b35 dfb8 99ed a93f
000007f0: c3cc 12bf cfd4 c1bf 476e ab6e 0b78 73bf

before.2.bias f8 [32]
-0.0257313116282773 0.07037475607225488 -0.025369484269643954 0.021784125766679544 -0.04784112213450669 -0.039979136879822415 0.11637985519552661 0.14269103828951296
0.018786538548747723 0.005809714856155395 0.042838209516895424 -0.009366961215279064 0.000709442797851805 0.09068384628089224 0.035321878854394625 0.0025209513194697024
-0.056599407563743494 -0.0043663563208544455 -0.05744663103235329 0.06667685713417358 0.07384534758618773 0.02203582003511232 0.1056052536799685 0.04469280066819508
0.08885717853908846 -0.08517071174144743 0.006532694121676107 -0.02915071924680889 0.030385033682575134 -0.006140555543734372 -0.014375812909994326 0.12488037040852319
00000000: f1df b417 4f59 9abf 0a58 cb7b 1404 b23f
00000010: 8b9d 0445 75fa 99bf 8198 f5ee 934e 963f
00000020: d77b f1ad a17e a8bf 49a0 d73a 2578 a4bf
00000030: 5f5e faf7 11cb bd3f fe5f 712f b343 c23f
00000040: 6d0a b042 c73c 933f 467e e674 edcb 773f
00000050: afdc c9c9 e3ee a53f 5702 a940 fc2e 83bf
00000060: 9270 bdce 3c3f 473f da4a 0d7a 0e37 b73f
00000070: ae9a 0695 b515 a23f d30d 1a6f d1a6 643f
00000080: 4123 ebf8 98fa acbf e4ae 9cd9 74e2 71bf
00000090: 9542 1913 a569 adbf 3f95 ca08 bc11 b13f
000000a0: 7d2c d858 87e7 b23f cabd 90d9 8e90 963f
000000b0: 0d5c d726 f208 bb3f 671c 798a f9e1 a63f
000000c0: 8718 d713 58bf b63f e9ad 816d bfcd b5bf
000000d0: f2c9 b7b9 06c2 7a3f 9e99 47a7 afd9 9dbf
000000e0: 566d d117 411d 9f3f f471 d5d3 d626 79bf
000000f0: 352b 6af2 1071 8dbf 2925 d1f2 28f8 bf3f

before.4.weight f8 [64, 32, 3]
0.08140905931507783 0.08189006818634116 0.010592356460147593 -0.01288176902841737 -0.09899014866598745 -0.07358136488232762 0.09557487009192632 -0.027847641478966678
-0.05551820652153507 -0.053040807160719135 -0.19822221971493342 -0.1309057574448735 0.041137971439027844 -0.11175432087117311 -0.050944963677977684 -0.06195755494362397
-0.12611987409980238 -0.04302221418202133 0.003298626491382951 0.11397295366007876 -0.029926199179665356 0.023823745206173495 -0.018449692173340287 0.06952107902270462
0.09138389560485832 -0.009092708433111423 -0.09352859164222532 -0.050103273756467025 0.06363891158627907 0.009892400239961314 0.04812716314549031 -0.018828126089430935
0.08434657900857902 0.001763422310358245 0.0024110746826388483 0.07661079165206332 -0.09488711246368674 -0.15102039976636636 -0.048789770435388166 0.011309488906671012
-0.01759374365338366 0.03401911965998017 -0.12127259820927613 -0.04560592545328379 0.017541249485398484 -0.01696958248923744 0.07139915881563758 -0.08808943640685497
-0.05754153743394897 -0.14046376534441454 -0.07913299858086573 -0.0929067371869589 -0.0829662594915704 -0.032232596823978325 0.029672603652666375 0.11234290275197767
-0.07403866607996429 0.04404917045997922 0.008349641904901693 0.002949935932411711 0.10895364165745683 0.06659235084465114 0.06410763521878936 0.022063447255714304
0.054558553752515115 -0.030725804752712863 -0.08580950342449611 -0.09494871765861641 -0.06831286579296449 0.07811352980035022 5.012771614984121e-05 -0.07050488770393215
-0.07985992245959105 0.026853250261903158 -0.0047311587090675886 0.04077478197831332 0.008494812000819214 -0.029707219067041067 -0.011351677135974516 0.062050491546110455
0.11190461640847839 0.12671379661068224 0.07447074812120735 -0.002451694058100096 -0.09793574534198904 0.02400220018095825 0.11439957122707761 0.012350267480721737
0.015053323325546432 0.06528079044033586 0.07865716501620879 0.08732007492446 -0.048860333842921315 -0.0245225556194957 -0.03424915821461282 0.05177741521468815
-0.06895149150843431 0.09160156933038623 0.09165279784064641 0.07917875962343157 -0.07583852616288364 -0.0017990299490429527 0.0511740249182047 -0.0630701156103019
-0.0200107858112729 -0.10970470392922636 -0.12840581205464732 -0.04296392402196016 0.0659358925955037 0.18559579336643664 0.11273381357138004 -0.015980835780013268
0.08798327212500337 0.02092964489517322 0.02539749236065404 -0.05224390719015403 0.03310271081829109 -0.06465410838784372 -0.018984472417862285 -0.00971680526724063
0.06568878944962626 -0.05491044269558329 -0.031063276823267906 0.047917831259315806 -0.014212815047724925 0.14840171366132746 0.05211645551224987 0.06122472391877987
-0.08476793046816747 -0.017270095513935702 0.033083722593146674 0.11351526025187046 -0.10282775944206096 -0.00991087677503881 -0.010880908583857674 0.07020272235456551
-0.08941293604333483 0.09714544457887814 0.010791122843622252 -0.09798319898770852 0.10263237108714922 -0.1062041660321009 -0.05726059700129413 -0.058472973827464324
0.02612073022334077 0.07061119737828114 0.12156190546798153 -0.052588728896858665 -0.012734888670831867 -0.12714180646251655 -0.07660834179398238 -0.024006066682258197
-0.03102543346312198 0.07938820815071866 0.07701896288360309 0.10579489704698886 -0.018311076165194444 -0.07449829942243304 0.07564528360295127 -0.053814104292825723
0.0995315234159314 0.025580472346124154 -0.046110132046103584 -0.004441774113406485 -0.025802170116391084 -0.055540148254630044 -0.009968589165251295 0.037793548924703234
-0.1178574906486807 -0.08345257730563543 -0.07441725307783445 0.08686414008652078 0.08261027843756225 -0.08837602460400112 0.11487385365882319 -0.006597027773819043
0.1448573733068572 0.023086100440964805 0.02207548850784711 -0.025280029708463356 -0.001076362140491236 -0.03260048913104575 0.046065307488551484 -0.07703490093976591
0.008759235792761355 -0.06504997300731868 -0.03743307546787518 0.01023780142639339 0.08162327899019775 -0.07759810199307426 0.007957009714288341 0.07864715428416781
-0.12300586897515114 0.05184739678876599 0.1806140034521848 -0.038955949878123355 0.001251059657185781 -0.015478483667520677 0.009897833687680206 0.0710944958492484
-0.01890415928423427 -0.06368915745117207 0.05549053076501014 0.1079975236101852 -0.04256724960351577 0.17211513844292037 0.1740985148575785 0.15867631932845713
0.03867881011121071 0.16399441248639132 0.00125646689648443 0.015486218682933714 0.10983334655148734 0.0678278347804081 0.09188797436106112 0.1828558164421989
0.13271791154742263 0.052106256538531646 -0.05984003375361565 0.059973005019918466 0.022606206700683768 0.0796323004046189 -0.0858426004732195 -0.040366336399069676
0.04784533000999924 0.02425419086942145 -0.07264762140367298 -0.11701922328146305 -0.09325415366738746 -0.04978042633612912 -0.040058354391247435 0.07348905292955167
-0.04521377816441857 0.08682328701665766 -0.08889967868057193 -0.010002831465555065 -0.03914239152280143 -0.005795404173022058 0.0873278452703157 -0.02467837184537139
0.1051121955133121 0.04198010424292872 0.2043117126214094 0.17768254743258227 0.013546785950160326 -0.008628939162738583 -0.124534583601199 0.025754840739997856
0.04108690936879842 -0.10603257460973184 -0.00768421357101182 0.12784907854621835 0.023525244910816628 -0.07731066952922655 0.14793308886843215 -0.0890293280084756
00000000: f23b 5b5f 39d7 b43f 6940 ba5c bff6 b43f
00000010: 15d8 ab04 72b1 853f a28e 88c5 c161 8abf
00000020: 3187 251b 6b57 b9bf 73bf c373 3ad6 b2bf
00000030: ef40 5d3d 9877 b83f 600b b195 1784 9cbf
00000040: f364 afe2 e16c acbf a1ab 3728 2a28 abbf
00000050: b611 827f 585f c9bf 47bb 8a15 85c1 c0bf
00000060: fda7 e843 0910 a53f a110 5461 ee9b bcbf
00000070: f81f c951 7515 aabf 7e2b 7290 e6b8 afbf
00000080: 5f30 512f b224 c0bf 9e9a d3f5 0107 a6bf
00000090: 69e5 de9c b805 6b3f 583b 99dc 542d bd3f
000000a0: 09bb 143b f9a4 9ebf 2671 1d7a 4065 983f
000000b0: ebe6 05e2 79e4 92bf 75ff c828 22cc b13f
000000c0: 8402 015b ef64 b73f 9676 d1aa 329f 82bf
000000d0: d423 5862 7df1 b7bf 5bc2 69e4 22a7 a9bf
000000e0: 661f 04c4 a34a b03f ca9c 137c 7742 843f
000000f0: a7ad 849f 1fa4 a83f 783f 3227 ae47 93bf
00000100: 490f 5fc6 bc97 b53f d8c8 ba49 54e4 5c3f
00000110: 82ed 1fdd 63c0 633f 7191 aacc c39c b33f
00000120: 9fe9 d794 854a b8bf f73f 03ef a254 c3bf
00000130: 4676 cc08 f9fa a8bf 2ab5 e8e7 6d29 873f
00000140: ac05 6c26 1804 92bf e0b3 c13c f46a a13f
00000150: beb4 3593 b80b bfbf f0bd a6ec a859 a7bf
00000160: 61a9 7b53 55f6 913f a8ae 4567 7960 91bf
00000170: 0438 131c 3747 b23f 5192 7d80 078d b6bf
00000180: 4178 e19a 1576 adbf 11b1 3677 b7fa c1bf
00000190: 8e71 f068 0f42 b4bf 4bca cb65 bcc8 b7bf
000001a0: 0510 30db 463d b5bf 87c2 727a ca80 a0bf
000001b0: 2dfb 19b9 7e62 9e3f 68e8 4125 81c2 bc3f
000001c0: fcf1 73b1 32f4 b2bf bc44 15e5 9c8d a63f
000001d0: 2ca4 51f7 9d19 813f 7030 5ccb 762a 683f
000001e0: d2e9 b2c7 62e4 bb3f 03a2 0a41 320c b13f
000001f0: f747 b0a4 5b69 b03f e2eb 99e1 cc97 963f
00000200: 8810 2b48 19ef ab3f 1188 39da 9576 9fbf
00000210: 00eb e492 9cf7 b5bf b511 2425 8f4e b8bf
00000220: d910 7ab4 f37c b1bf b61c de8f 3fff b33f
00000230: efad 3e36 0748 0a3f b883 e5ba 9b0c b2bf
00000240: 2f9c 392b b371 b4bf 6f2a aa1e 6b7f 9b3f
00000250: 7893 d7be fa60 73bf a35f 32a6 6ee0 a43f
00000260: ea5f d55d ba65 813f f666 64b9 916b 9ebf
00000270: 811a 6e50 8c3f 87bf 6554 c8ff 14c5 af3f
00000280: 59ef beeb c7a5 bc3f 4b8b 325e 2838 c03f
00000290: f871 b0d3 8310 b33f 1a2c 9439 9315 64bf
000002a0: 1a6d 5a27 5112 b9bf e8ae 3c63 0894 983f
000002b0: b4c2 1851 4a49 bd3f 2f94 69d7 184b 893f
000002c0: 41e1 08db 46d4 8e3f c08e ffeb 3db6 b03f
000002d0: 9837 573f e022 b43f 1eb7 15c2 9b5a b63f
000002e0: 4f9e dabf 3804 a9bf 46ad 99d9 701c 99bf
000002f0: 6f03 e50c 1b89 a1bf a078 09c2 9182 aa3f
00000300: 8b05 0a11 cea6 b1bf 014a 8950 3373 b73f
00000310: 69fe 4fc9 8e76 b73f 08d8 1e27 0f45 b43f
00000320: 267c a555 276a b3bf d128 ecb2 ad79 5dbf
00000330: 6554 db56 7b33 aa3f 1cb4 e6f3 5c25 b0bf
00000340: dcb7 811a b57d 94bf 67e8 9783 9b15 bcbf
00000350: 5d0d b205 9a6f c0bf 430f 2a11 5eff a5bf
00000360: b88b 54b6 2ce1 b03f bd5a 645b 9ac1 c73f
00000370: a243 718a 1fdc bc3f 36d0 26bc 475d 90bf
00000380: a238 5f5c 1286 b63f bbdc 5db1 946e 953f
00000390: a390 5bdc cc01 9a3f 8f0c 98a1 b6bf aabf
000003a0: 213c bfa8 d6f2 a03f 8aec 13f1 2b8d b0bf
000003b0: 8387 aa60 aa70 93bf 4954 c186 67e6 83bf
000003c0: bd64 6602 fbd0 b03f 3c3e 2cb7 381d acbf
000003d0: fa07 4038 0dcf 9fbf 1fda 4e9c af88 a83f
000003e0: e039 83be 9b1b 8dbf cb41 6ccd d3fe c23f
000003f0: f160 0410 02af aa3f d125 e0d5 d858 af3f
00000400: f241 1ce1 59b3 b5bf 6d7f b97d 40af 91bf
00000410: 878f 2285 59f0 a03f 4bf3 600a 560f bd3f
00000420: 0cb3 ec87 eb52 babf d8e1 fc5c 274c 84bf
00000430: edc0 25d4 ba48 86bf fa5f 9a3c cef8 b13f
00000440: 0c3d 2524 c4e3 b6bf 0cf2 6b1b 86de b83f
00000450: 3693 9afd a719 863f d4ac 354b 6d15 b9bf
00000460: bb8a 5475 1d46 ba3f 3e8c ce3b 3230 bbbf
00000470: 0ca3 f0ce 4251 adbf a3e0 936c 2bf0 adbf
00000480: b040 3a88 64bf 9a3f 389b 784f 9313 b23f
00000490: 11a7 6c58 ae1e bf3f 971c 80ed e8ec aabf
000004a0: 9319 e0d2 bf14 8abf cafd 5ac6 2e46 c0bf
000004b0: 2a1f 9bb2 9a9c b3bf 533c 39dd 0b95 98bf
000004c0: 11f9 4598 21c5 9fbf 3f04 b21d c952 b43f
000004d0: 0fc5 c1c6 83b7 b33f 7087 e6d6 5f15 bb3f
000004e0: 9ee4 2285 23c0 92bf d180 a00f 5212 b3bf
000004f0: addb 2b43 7d5d b33f de9f 00b4 858d abbf
00000500: 6713 fedd e57a b93f 8143 9270 c431 9a3f
00000510: 8ff4 4d4a bf9b a7bf 5c51 daa8 8931 72bf
00000520: 424e 4353 e26b 9abf bfbc bc20 c26f acbf
00000530: a6b9 9d63 696a 84bf c343 4311 ad59 a33f
00000540: c2b9 ec93 e82b bebf f46b 4bea 255d b5bf
00000550: 723a 3a54 020d b3bf 99e4 dd70 ba3c b63f
00000560: a4e9 337c f225 b53f 94b7 6ca7 cf9f b6bf
00000570: 9050 a174 5f68 bd3f 4134 a128 7c05 7bbf
00000580: 37fd 77b8 af8a c23f bc61 8bf9 e1a3 973f
00000590: 7ada bcf4 f49a 963f a9e9 5b13 02e3 99bf
000005a0: 29c0 4a0c 97a2 51bf 318a 4de5 02b1 a0bf
000005b0: 797a 493a df95 a73f 4dd8 2f2c 8fb8 b3bf
000005c0: 2d95 24ba 5cf0 813f d40f ac72 1da7 b0bf
000005d0: cab0 d895 6d2a a3bf 3473 7972 8ef7 843f
000005e0: 4aed da61 43e5 b43f b0bb 4a1e 78dd b3bf
000005f0: 327e f9c3 c34b 803f 81ef 924b 3822 b43f
00000600: acde 7608 507d bfbf 1854 2ef3 bd8b aa3f
00000610: 086d 0313 5c1e c73f 821c 6cc5 08f2 a3bf
00000620: 9380 0714 537f 543f 373d 26e9 2eb3 8fbf
00000630: dc2d ebbf 5045 843f 061f 99b6 3f33 b23f
00000640: 7d61 89a7 9c5b 93bf f6d1 5cc0 ee4d b0bf
00000650: 572e bf3d 4169 ac3f 6769 f4c7 b9a5 bb3f
00000660: 9004 dbe1 5fcb a5bf 2c22 616d de07 c63f
00000670: 5a38 cc31 dc48 c63f 0b2b 1571 814f c43f
00000680: d7a1 f380 b5cd a33f 5b8a 2dd7 c4fd c43f
00000690: 926a a60e 0196 543f 2557 4116 3db7 8f3f
000006a0: 4fe9 72c7 091e bc3f 98ed 233c 2a5d b13f
000006b0: 09c5 c664 f885 b73f f655 c0c3 d167 c73f
000006c0: d844 d888 e6fc c03f 53fd 7fd7 abad aa3f
000006d0: ab37 ed57 5aa3 aebf 3623 681e c8b4 ae3f
000006e0: f53c ddd9 1426 973f 116e f14d c862 b43f
000006f0: 9bd5 a2d9 c7f9 b5bf 49fd 627d e5aa a4bf
00000700: 608c 51df 2e7f a83f d5e8 4c32 17d6 983f
00000710: 689b 0fd6 0899 b2bf de48 ffc8 f8f4 bdbf
00000720: d2b3 3714 81df b7bf f170 30ee d17c a9bf
00000730: 277f 1554 8782 a4bf b949 f2b6 2dd0 b23f
00000740: f8ec 16a5 4226 a7bf 518c 440a 0d3a b63f
00000750: c9d6 8e1c 21c2 b6bf d57d 1850 5d7c 84bf
00000760: d38f f4b6 780a a4bf 8f63 3ef6 ebbc 77bf
00000770: e255 771f 1e5b b63f 4843 fa7f 4945 99bf
00000780: 72f3 2302 a2e8 ba3f 8cb2 9c8d 6a7e a53f
00000790: ba08 f3dd e226 ca3f 107e 253d 4dbe c63f
000007a0: f58c f9d4 6abe 8b3f 156c 069c 0cac 81bf
000007b0: bbc2 c99b 7fe1 bfbf 3496 c41a 7a5f 9a3f
000007c0: bdbe 10e8 5709 a53f 2a6d 4268 f324 bbbf
000007d0: 2444 ba5f 7b79 7fbf d201 97cd 5b5d c03f
000007e0: 5be2 1676 0017 983f 4488 42cd a1ca b3bf
000007f0: acd4 57b1 78ef c23f 0667 2e44 a0ca b6bf

before.4.bias f8 [64]
0.041873081279904384 0.014488938013202418 0.00534538686703297 -0.1019936544077037 0.051444149857546265 0.05688690089175461 -0.04138577948830864 0.01914561762340202
0.011094564251090233 -0.008234264867033868 -0.10595047556175763 0.11362327178492049 -0.01571776064779405 -0.07650155429516073 -0.00756373163242059 0.06675195232764719
0.03625412926516022 -0.05179675339868867 -0.014108391463739258 0.08431002466925235 0.059861356871870205 0.07689395951858007 -0.0673121129433966 -0.1272352067060237
-0.001450429999893473 -0.06900157392545495 0.05161003311948099 -0.08079825074956616 0.05797684928944028 0.043643190087315674 0.052278630246611626 -0.09197868339793283
-0.07811072018080638 -0.06944782881542665 0.007807156222260096 0.058849775845025536 -0.0340785508772991 -0.06886465809655411 0.0585191171701995 -0.05456550990685556
0.10298973743879257 0.010246014657897986 -0.08036309900904078 0.06581977269568394 0.044580850228911395 -0.003760711302720606 -0.011299664062790845 -0.0893888436636568
-0.01078081600384551 -0.04333809599188671 0.06450184799861684 -0.005570457217042535 -0.02162840705564505 0.026053976796579104 -0.05403568814857028 0.033509558402816234
0.06361944939744774 0.09488532801626803 -0.04721040529594439 -0.08822853200871508 -0.1078184735805121 0.03945870515552535 -0.0401216584826485 0.07331221055593752
00000000: fc20 5c75 6370 a53f 5022 5d57 60ac 8d3f
00000010: d438 745c 0be5 753f 18a3 1492 411c babf
00000020: aad8 6a3a e356 aa3f 0d40 cda5 4720 ad3f
00000030: 0af0 d752 8430 a5bf d688 37a6 e89a 933f
00000040: 0074 f934 bfb8 863f d9ed 7b52 20dd 80bf
00000050: a88c 8803 921f bbbf 0879 612c 6a16 bd3f
00000060: fb65 cb0f 5118 90bf 5a77 ca19 9b95 b3bf
00000070: cd93 f3bf 25fb 7ebf 50ff 30ec a716 b13f
00000080: 2ce0 13b7 e68f a23f f9ce c5a3 1a85 aabf
00000090: 9bc6 7c3f dce4 8cbf a3ec ad7e 5795 b53f
000000a0: de23 1ed4 25a6 ae3f 736a 6491 52af b33f
000000b0: 9b6f b7db 5d3b b1bf c3e0 d945 3e49 c0bf
000000c0: ef1c 8a5a 8bc3 57bf 0ae2 614f 16aa b1bf
000000d0: 318c c958 a16c aa3f e11b 8bb4 31af b4bf
000000e0: d51c 3f3f 24af ad3f d37b 3c74 6658 a63f
000000f0: 02b4 60be 43c4 aa3f f28d 1f3d ea8b b7bf
00000100: 0bc1 a46c 10ff b3bf d75b 8a39 55c7 b1bf
00000110: d1d1 638a 65fa 7f3f c73b 43cd 8e21 ae3f
00000120: 57b1 066b be72 a1bf dbfa 5f3e 1da1 b1bf
00000130: 1ca4 dfbc 37f6 ad3f 7a3a 14b1 02f0 abbf
00000140: b78c 1f12 895d ba3f 01c7 f5ce dcfb 843f
00000150: e58d 0c12 ad92 b4bf 4f7a 288b 90d9 b03f
00000160: 28a8 851b 4dd3 a63f 1199 c181 c8ce 6ebf
00000170: 5102 d83c 4724 87bf 45a4 29f0 2fe2 b6bf
00000180: 4222 49a1 4014 86bf f980 e931 6930 a6bf
00000190: f384 af6f 3183 b03f 0dac 2239 0cd1 76bf
000001a0: 1dd1 dfd3 c125 96bf 4d94 16c9 e4ad 9a3f
000001b0: 2e76 d4d2 90aa abbf 2212 e332 2a28 a13f
000001c0: 5c33 8d3e 5d49 b03f 003a b3a4 674a b83f
000001d0: 28d1 8d55 f62b a8bf 7230 8d23 2596 b6bf
000001e0: 1fd5 eed1 fd99 bbbf 48f8 5e70 ee33 a43f
000001f0: c3a8 1676 d38a a4bf 3937 bcca 96c4 b23f
