models/lstm_1_82_57.onnx (onnx, 50217 bytes, 16 tensors)

model.before.0.weight f4 [16, 6, 3]
0	0x3e1cf95b	0.15329497
1	0x3e69975f	0.2281165
2	0x3eb1b194	0.34705794
3	0xbdd68cd4	-0.104760796
4	0x3d2f8666	0.04285278
5	0x3e45d8ff	0.19321059
6	0xbc7e8375	-0.0155342715
7	0xbd425a0c	-0.047449157
8	0xbe2f5683	-0.17122845
9	0xbe0540db	-0.13013022
10	0xbe13671d	-0.14394803
11	0x3e002e3d	0.12517639
12	0xbdce1129	-0.10061867
13	0x3c02e7dd	0.007989851
14	0x3d849ce2	0.064752355
15	0xbe75e669	-0.24013676
16	0xbe10f199	-0.14154662
17	0x3cad8bf0	0.021184891
18	0xbc69c2a2	-0.0142675955
19	0xbe102f6c	-0.1408059
20	0x3e3d4d31	0.18486477
21	0xbe25c8a0	-0.16189814
22	0xbe6552b5	-0.22394831
23	0xbdbfb08f	-0.09359848
24	0xb9525950	-0.00020060432
25	0x3e7008a4	0.23440796
26	0x3e78ccc0	0.24296856
27	0x3dd09af1	0.10185803
28	0xbdd7c490	-0.10535538
29	0xbdc16009	-0.094421454
30	0x3d1a3239	0.037645552
31	0x3d577642	0.052603014
32	0x3e568775	0.2095011
33	0xbe0e1b2b	-0.13877551
34	0xbd87d204	-0.06631854
35	0xbe74b599	-0.23897399
36	0x3e475f9c	0.19470066
37	0x3e14bda8	0.14525473
38	0x3d2becd9	0.041973922
39	0xbdcbec2d	-0.09957156
40	0xbda5615b	-0.0807521
41	0xbdb46893	-0.088090084
42	0x3db835bf	0.08994626
43	0x3e7ee3e4	0.24891621
44	0x3e59be0e	0.21263906
45	0xbe0ab93d	-0.13547225
46	0xbd548624	-0.05188574
47	0xbd2f49dd	-0.04279505
48	0x3cb16d86	0.02165867
49	0xbc6fe595	-0.014642139
50	0x3e78f2d2	0.24311379
51	0x3cb4b5cd	0.022059346
52	0xbc237263	-0.009976002
53	0x3e3f632d	0.18690176
54	0x3d96b1a4	0.07358101
55	0xbe160056	-0.14648566
56	0x3e28863d	0.16457458
57	0xbe07c18a	-0.13257423
58	0xbe672f2a	-0.22576585
59	0x3dc27a0f	0.09495937
60	0x3e3a94de	0.18220851
61	0xbc8f0d6f	-0.01746246
62	0x3e80f715	0.2518851
63	0xbda8e0bf	-0.08245992
64	0x3e81d3f5	0.25357023
65	0xbc053d39	-0.008132272
66	0x3e50d148	0.20392334
67	0xbd9cae00	-0.07650375
68	0xbd8a7610	-0.067608
69	0x3e4ff23b	0.20307247
70	0x3e02bfaa	0.12768427
71	0xbcd696a6	-0.026194882
72	0xbdb89ea1	-0.09014631
73	0x3d7b9b2c	0.06142728
74	0xbdb72001	-0.08941651
75	0x3e7216bd	0.23641486
76	0xbe614209	-0.21997847
77	0x3e097927	0.13425122
78	0xbe4efd86	-0.20213899
79	0xbe0d7d33	-0.13817291
80	0xbebae355	-0.36501566
81	0x3dd4fd37	0.103998594
82	0xbdd41345	-0.10355238
83	0x3defc369	0.117071934
84	0x3e2cdcea	0.16881147
85	0xbe277ec4	-0.16356951
86	0x3e0962d2	0.13416603
87	0x3da2ca40	0.079487324
88	0xbced1399	-0.028940009
89	0x3da825c0	0.08210325
90	0x3e401f3f	0.1876192
91	0xbe31548d	-0.1731741
92	0xbd9e441b	-0.07727834
93	0xbced8515	-0.028994123
94	0xbd860143	-0.065432094
95	0x3d931022	0.071808115
96	0xbe358ea6	-0.17730197
97	0xbd070466	-0.03296318
98	0xbe8ccc34	-0.27499545
99	0x3ea10b6e	0.31454033
100	0xbe04c145	-0.12964351
101	0x3e9d6c52	0.30746704
102	0x3da9cd32	0.08291091
103	0xbe44d49c	-0.19221729
104	0x3ddaf89d	0.106919505
105	0xbd894208	-0.067020476
106	0xbd56e388	-0.052463084
107	0x3c698842	0.014253678
108	0x3e396490	0.18104768
109	0xbd1019dd	-0.035180915
110	0x3e176762	0.14785531
111	0xbe21d8ea	-0.15805402
112	0x3e552715	0.2081569
113	0xbe32001d	-0.17382856
114	0xbebc00dd	-0.3671941
115	0xbe7b99cf	-0.24570392
116	0x3de04d8a	0.109522894
117	0xbe4b45ba	-0.19850817
118	0x3dd0b6a9	0.1019109
119	0xbe8a24e4	-0.2698127
120	0x3ecb90cd	0.39758912
121	0xbd9ccf2b	-0.07656702
122	0x3d107732	0.035269924
123	0xbd83c876	-0.06434719
124	0xbeba76a0	-0.3641863
125	0xbe3df4e9	-0.18550457
126	0xbbad9253	-0.005296984
127	0x3e119ef0	0.14220786
128	0x3e39ab17	0.18131672
129	0x3d9354b0	0.07193887
130	0x3e776ef1	0.24163415
131	0xbe1518b2	-0.14560202
132	0xbc8a173c	-0.016856782
133	0xbd891562	-0.066935316
134	0xbe990b28	-0.29891324
135	0xbe3b9148	-0.18317139
136	0x3e9432c8	0.28944993
137	0xbe8464b6	-0.25858086
138	0x3e439b96	0.1910232
139	0xbd8f32ef	-0.06992137
140	0x3e70e000	0.23522949
141	0xbe59f4d5	-0.21284802
142	0x3da612fa	0.08109088
143	0x3d5dfe54	0.054197624
144	0x3dc3520e	0.09537135
145	0x3db4c515	0.08826653
146	0xbe200838	-0.15628135
147	0xbe92d49b	-0.2867783
148	0x3d9d8ee8	0.07693273
149	0xbd12cce4	-0.03583993
150	0x3e160b7c	0.14652818
151	0x3d9e2967	0.077227406
152	0x3ac78a35	0.0015223684
153	0xbdb69fea	-0.0891722
154	0xbcc32607	-0.023821844
155	0xbdeb5814	-0.11491409
156	0xbe608f75	-0.21929725
157	0xbe2d4798	-0.16921842
158	0xbda5693d	-0.08076713
159	0xbe1f6c55	-0.15568669
160	0x3cdd63e8	0.027025178
161	0x3d2379df	0.039911147
162	0x3e8f9ce4	0.28049386
163	0x3e581aeb	0.21104018
164	0xbd63dea6	-0.055632256
165	0xbdb6dac3	-0.08928444
166	0xbcdeef6a	-0.02721377
167	0x3e1aca66	0.15116271
168	0x3e92e6e2	0.28691775
169	0x3e4338e3	0.1906467
170	0xbc9919e9	-0.018689113
171	0xbe4ee333	-0.20203857
172	0xbe3a0000	-0.18164062
173	0x3db8a6f7	0.09016221
174	0xbe363b2a	-0.17796007
175	0xbc4d978d	-0.01254834
176	0xbdff881b	-0.12477132
177	0xbdcb3dca	-0.09923895
178	0xbcde7dcf	-0.0271596
179	0xbe2fc5fa	-0.17165366
180	0xbe7bdee7	-0.24596749
181	0x3db67807	0.08909612
182	0xbd28cf44	-0.04121329
183	0xbe8676d9	-0.2626255
184	0xbd1fdc8a	-0.03902868
185	0xbe07c8bc	-0.13260168
186	0x3d2ec398	0.042667
187	0xbebd60f9	-0.36988047
188	0xbcb38cbe	-0.021917697
189	0xbd14acf7	-0.036297765
190	0x3e1b0eb5	0.15142329
191	0xbe2ef33e	-0.17084977
192	0xbd9894d2	-0.0745026
193	0x3de9ec4b	0.114220224
194	0x3e281b2e	0.16416618
195	0xbe75fb59	-0.24021663
196	0xbc68f2d3	-0.01421805
197	0xbcf3a6de	-0.029742654
198	0xbe03e17e	-0.12878987
199	0xbe62ab87	-0.22135745
200	0xbe9436b0	-0.28947973
201	0x3e27fa5f	0.16404103
202	0x3db53c85	0.08849434
203	0xbe4da5e7	-0.20082818
204	0xbed895e5	-0.4230186
205	0x3dcf9349	0.10135514
206	0x3e0e52cc	0.13898772
207	0xbe9e6347	-0.30935118
208	0xbe9f3fe8	-0.31103444
209	0xbdea6cba	-0.11446519
210	0x3d9dbcc3	0.07702019
211	0xbe4bdacd	-0.19907685
212	0x3e0fc0a2	0.14038327
213	0x3c825362	0.0159089
214	0xbd539097	-0.051651563
215	0x3cd62a0e	0.0261431
216	0x3d662430	0.056186855
217	0xbd80ab71	-0.062827
218	0x3dd641d4	0.104617745
219	0xbda2d3df	-0.079505675
220	0x3e5e7607	0.21724711
221	0xbe09f588	-0.13472569
222	0x3e1cd700	0.15316391
223	0xbe2ca3a6	-0.16859302
224	0xbdf1dbe7	-0.11809521
225	0xbbb45edd	-0.0055044726
226	0xbd9b7711	-0.075910695
227	0x3dedbe28	0.11608535
228	0xbdd650bf	-0.1046462
229	0x3bd04c42	0.006356747
230	0x3e12e64c	0.14345664
231	0x3dcbf105	0.0995808
232	0x3d9c60db	0.07635661
233	0x3e131734	0.1436432
234	0x3d5f8537	0.054570403
235	0xbe76f634	-0.24117357
236	0xbbe2870e	-0.0069130724
237	0x3d0c5f88	0.034270793
238	0x3e979747	0.29607603
239	0x3e8f89d1	0.28034833
240	0x3c6d4e81	0.014484049
241	0x3d797691	0.06090409
242	0xbe4b95b4	-0.19881326
243	0x3e20c529	0.1570021
244	0xbda70760	-0.081557035
245	0xbc29f53b	-0.010373409
246	0xbc3fa793	-0.011697668
247	0xbe77559a	-0.24153748
248	0xbd8f7fd6	-0.07006805
249	0xbd9bc381	-0.07605649
250	0xbe469443	-0.19392495
251	0xbe280088	-0.16406453
252	0xbdb64f19	-0.089018054
253	0xbe9c2e9c	-0.3050431
254	0xbd0aea54	-0.03391488
255	0x3de2d69a	0.11076088

model.before.0.bias f4 [16]
0	0x3d57a83f	0.052650686
1	0x3ddd38cd	0.108018495
2	0x3e127bae	0.14304993
3	0x3e47bd10	0.19505715
4	0x3d46954c	0.048482224
5	0xbe361ea3	-0.17785124
6	0x3d754455	0.05987962
7	0x3dae445e	0.08509134
8	0x3d76e35a	0.060275413
9	0x3e6e4b24	0.23270851
10	0x3e0e9713	0.13924818
11	0xbd21d40c	-0.039508864
12	0x3e238db5	0.15972026
13	0x3df9f1f8	0.12204355
14	0x3e11b83e	0.14230439
15	0x3e647405	0.22309883

model.before.2.weight f4 [16, 16, 3]
0	0xbda42fd7	-0.08016937
1	0x3d468a73	0.04847188
2	0x3d72b818	0.059257597
3	0x3c8526a5	0.016253779
4	0x3e3d867c	0.18508333
5	0x3de8195c	0.11332962
6	0x3e06b334	0.13154298
7	0x3e1ef8ad	0.1552455
8	0xbc380226	-0.011230981
9	0xbd937134	-0.07199326
10	0x3d9da93c	0.076982945
11	0x3dab237c	0.083563775
12	0xbe346283	-0.17615704
13	0x3d2c1f40	0.04202199
14	0xbd0899d6	-0.033349834
15	0xbcb6f356	-0.022332828
16	0xbdba4f60	-0.09097171
17	0xbdac2eba	-0.0840735
18	0x3db565b1	0.08857287
19	0x3d86992a	0.065721825
20	0xbe16ac0a	-0.14714065
21	0xbe06c78f	-0.13162063
22	0x3d81e74f	0.06342947
23	0x3da6ca9f	0.08144116
24	0x3dbe0183	0.09277632
25	0xbd3faba1	-0.046794537
26	0x3d86ed79	0.06588263
27	0x3dbfda98	0.09367865
28	0xbd8c61e7	-0.06854611
29	0x3d745b65	0.059657473
30	0xbd2e2c52	-0.042522736
31	0x3db8ccc0	0.09023428
32	0x3d671ba0	0.05642283
33	0xbd5b0d17	-0.05347928
34	0xbe5d2559	-0.21596278
35	0xbe3f516b	-0.18683402
36	0x3d36dd4a	0.04464463
37	0xbd54f584	-0.051991954
38	0xbde3e791	-0.11128152
39	0xbe102be4	-0.14079243
40	0x3db0a428	0.0862506
41	0xbd1e3c82	-0.038631923
42	0xbc0cf1ad	-0.008602542
43	0xbe4f5e68	-0.20250857
44	0xbe58cefa	-0.21172705
45	0x3dfd57bc	0.1237025
46	0x3e073128	0.13202345
47	0x39f8070e	0.00047307502
48	0x3d8eb1de	0.06967519
49	0x3e141cc7	0.14464103
50	0x3df2de01	0.1185875
51	0x3cdb77e8	0.026790574
52	0x3e5c2fc3	0.21502595
53	0x3e6f8cbd	0.23393531
54	0x3d691464	0.05690421
55	0x3d31dc7b	0.043423157
56	0x3dd4f317	0.10397928
57	0x3de1a63b	0.11018034
58	0x3e09af8f	0.13445877
59	0x3d05abb8	0.032634467
60	0x3caf1d2f	0.02137622
61	0xbbdd00a4	-0.006744461
62	0xbe2d7142	-0.16937736
63	0xbd9d2c30	-0.07674444
64	0xbe236464	-0.15956265
65	0xbd1c1250	-0.0381034
66	0x3d3d7d99	0.046262357
67	0x3da9c4e7	0.08289509
68	0xbd867762	-0.06565739
69	0xbd21e7f1	-0.039527837
70	0xbded7d42	-0.11596157
71	0xbd29bf3f	-0.041442152
72	0x3cf82f65	0.030296037
73	0x3db3781d	0.08763144
74	0xbd935d1c	-0.071954936
75	0x3de7d82f	0.113205306
76	0x3e248d8e	0.16069624
77	0x3dfda34e	0.123846635
78	0x3e05f024	0.13079888
79	0xbca27791	-0.019832404
80	0xbc855fc3	-0.016281014
81	0xbdcf54c3	-0.10123589
82	0x3db65584	0.089030296
83	0xbdf05872	-0.117356196
84	0x3d905cdb	0.07048961
85	0xbdae09ce	-0.08497964
86	0xbe252d9f	-0.16130684
87	0xbe056ead	-0.130305
88	0xbdfd7eae	-0.12377678
89	0xbe5ec6a2	-0.2175546
90	0x3dfc011a	0.123048976
91	0x3d8e7daa	0.06957562
92	0x3ccc20e6	0.024918031
93	0x3d49728a	0.0491815
94	0x3d64e6e1	0.055884246
95	0xbdefe760	-0.11714053
96	0xbc2c0c5a	-0.010500992
97	0x3e1ce6a7	0.15322362
98	0x3de36cc8	0.11104733
99	0x3e2ed326	0.17072734
100	0x3d8d1f12	0.06890692
101	0x3d9d4143	0.07678463
102	0xbdb0394f	-0.08604681
103	0x3d525093	0.051346373
104	0x3dac1333	0.084020995
105	0x3dc6500b	0.09683236
106	0x3d83619e	0.064151034
107	0x3e1e3542	0.15450004
108	0x3c5251c7	0.01283688
109	0x3dba6954	0.09102121
110	0x3e268d19	0.16264762
111	0xbd38c10c	-0.04510598
112	0xbde390c4	-0.11111596
113	0xbe246ac3	-0.16056351
114	0xbd923947	-0.07139831
115	0x3e06d636	0.13167652
116	0x3c0f047a	0.008729095
117	0xbd01833d	-0.0316193
118	0xbdd63771	-0.10459793
119	0x3db77f5b	0.08959838
120	0x3dc31990	0.0952636
121	0xbddb45b8	-0.10706657
122	0xbdc7a70e	-0.0974866
123	0xbddcd7be	-0.10783337
124	0x3cc40293	0.023927009
125	0x3e1b10cd	0.15143128
126	0x3dbec886	0.093155906
127	0x3d565e2a	0.052335896
128	0x3dfc85ad	0.12330184
129	0x3d34055b	0.04395042
130	0xbde59e0d	-0.112117864
131	0xbe6ad9d5	-0.22934659
132	0xbdcb8132	-0.099367514
133	0x3dc7ac45	0.09749655
134	0x3da48bc7	0.08034473
135	0x3dfa1bb9	0.12212319
136	0x3de0d8f2	0.10978879
137	0xbc7d67be	-0.015466629
138	0xbe0f589d	-0.13998647
139	0x3c3f61e2	0.011681052
140	0xbe55097a	-0.20804396
141	0xbda3836f	-0.07984053
142	0x3d5dc529	0.054143105
143	0xbaca8299	-0.0015450298
144	0xbc26ead9	-0.010187828
145	0x3e46c10b	0.19409578
146	0x3e537fb2	0.2065418
147	0x3d685440	0.056720972
148	0x3d3e93b7	0.04652759
149	0xbd06b68c	-0.032888934
150	0x3d8ead86	0.06966691
151	0x3cb890aa	0.022529919
152	0xbdcde41b	-0.10053273
153	0x3c597130	0.013271615
154	0xbddb02d4	-0.10693899
155	0x3e042c66	0.12907562
156	0x3e193c15	0.14964326
157	0x3c42b169	0.011883118
158	0x3e0dd653	0.1385129
159	0x3d7e8a64	0.0621437
160	0x3d8b541b	0.06803151
161	0x3dc8245c	0.0977256
162	0xbe0c4a05	-0.13700111
163	0x3d32c863	0.043648135
164	0x3d90ab6a	0.07063945
165	0x3e19e189	0.15027441
166	0x3dc26a2e	0.094929084
167	0x3d095f62	0.03353823
168	0xbdee8ba2	-0.116477266
169	0xbdfa2913	-0.122148655
170	0x3b9cb2d6	0.004782061
171	0x3dfdee28	0.1239894
172	0x3d55a9c3	0.05216385
173	0xbde0690d	-0.10957537
174	0x3e37d6e0	0.17953062
175	0x3e3ad8f6	0.18246827
176	0x3d5c359e	0.05376207
177	0xbda323f4	-0.07965842
178	0xbde362e0	-0.11102843
179	0xbe22e8df	-0.15909146
180	0xbdcfcb74	-0.101462275
181	0x3e0d5f55	0.13805898
182	0xbd10e784	-0.03537704
183	0x3d57e9ce	0.052713208
184	0x3de7c208	0.113163054
185	0x3dc0a744	0.094069034
186	0xbe152cf0	-0.14567924
187	0xbe4852de	-0.19562861
188	0xbd8714ca	-0.06595762
189	0x3df604ed	0.12012658
190	0xbdec2d07	-0.11532026
191	0x3d9b7d08	0.07592207
192	0xbc9145ec	-0.017733537
193	0xbc0e96de	-0.008702962
194	0xbe1388b8	-0.14407623
195	0x3d4939a2	0.04912723
196	0xbdac2966	-0.084063336
197	0x3cf5b28e	0.029992368
198	0x3e5dc403	0.21656804
199	0x3e4bdcd1	0.19908454
200	0xbbdaf956	-0.006682555
201	0x3ce05bad	0.027387464
202	0xbd05b46a	-0.03264276
203	0xbdc8630a	-0.09784515
204	0xbd1d7bcb	-0.038448136
205	0xbdb4fcd6	-0.08837287
206	0x3caf80af	0.021423666
207	0xbdd60900	-0.10450935
208	0x3de9ec9b	0.11422082
209	0xbd059dfc	-0.03262137
210	0x3e0c7618	0.13716924
211	0x3e0ba20a	0.13636032
212	0x3df60b83	0.120139144
213	0xbc722390	-0.014778987
214	0xbc6cacad	-0.014445466
215	0xbe1c0b46	-0.15238675
216	0x3c94a136	0.018143278
217	0xbd92575c	-0.07145569
218	0xbd6d8c87	-0.057995345
219	0x3de3cdc6	0.111232325
220	0x3e32cd7c	0.17461199
221	0x3dd979c7	0.1061893
222	0x3d26e830	0.040748775
223	0xbae13373	-0.0017181471
224	0x3c5efeea	0.013610581
225	0x3d9827dc	0.074294776
226	0x3e34b8c6	0.1764861
227	0x3e3832ef	0.1798818
228	0x3d3644c8	0.04449919
229	0x3b3111ac	0.002701859
230	0xbb9efad3	-0.004851678
231	0xbdfdb1b7	-0.12387412
232	0xbe508598	-0.20363462
233	0x3d337aa9	0.04381815
234	0xbe25780c	-0.16159075
235	0x3da836cb	0.08213576
236	0x3dfa05d9	0.122081466
237	0xbdf3050a	-0.118661955
238	0xbe172537	-0.1476029
239	0xbe138d98	-0.14409482
240	0x3d8b7eb4	0.06811276
241	0x3dd3c89f	0.10341
242	0xbd872de3	-0.06600549
243	0x3dc5594b	0.09636172
244	0x3e32aea9	0.1744944
245	0xbd9f248c	-0.07770643
246	0x3d76e1c9	0.06027392
247	0x3d8e7e96	0.06957738
248	0xbbaeac3f	-0.005330592
249	0xbde2b534	-0.11069718
250	0x3ce06588	0.027392164
251	0x3d883467	0.0665062
252	0xbe07dfb8	-0.13268936
253	0xbe334951	-0.17508437
254	0xbe8b1564	-0.27164757
255	0xbdeb21f8	-0.114810884

model.before.2.bias f4 [16]
0	0x3dd742ac	0.105107635
1	0x3cf4d565	0.02988691
2	0xbda256ce	-0.07926713
3	0x3d55f0de	0.052231662
4	0x3cd67302	0.026177887
5	0xbc9e681d	-0.019336754
6	0xbd9c96ae	-0.07645927
7	0xbd6bb8a1	-0.057549123
8	0xbcf0f8a0	-0.029415429
9	0xbcba0b38	-0.022710428
10	0x3dd028ec	0.10164055
11	0x3ddb0fbd	0.10696361
12	0x3d6c682d	0.057716537
13	0xbd17bf1a	-0.037047483
14	0xbc4d0736	-0.012513926
15	0x3d0be16c	0.034150526

model.before.4.weight f4 [32, 16, 3]
0	0xbdc882f2	-0.09790601
1	0xbe2b4664	-0.1672607
2	0x3d52d452	0.051472016
3	0xbe1999e3	-0.1500011
4	0xbe469c4e	-0.19395563
5	0xbd91ea8b	-0.07124814
6	0x3c891b76	0.016736727
7	0xbe1c8b92	-0.15287617
8	0xbe195698	-0.14974439
9	0xbe2f891c	-0.17142147
10	0xbe2f6b30	-0.17130733
11	0xbe34ba97	-0.17649303
12	0xbdb20d2d	-0.08693919
13	0xbe3947ec	-0.18093842
14	0xbe0b5b65	-0.13609083
15	0xbe3fb17e	-0.18720052
16	0xbe0d00e8	-0.13769877
17	0xbd8f4bac	-0.06996855
18	0x3d07c213	0.033144068
19	0xbe05bba2	-0.13059857
20	0x3d37b260	0.044847846
21	0xbe275b65	-0.16343458
22	0x3db0c989	0.0863219
23	0x3ccc5c4c	0.024946354
24	0xbd19be90	-0.03753525
25	0xbcb22877	-0.02174781
26	0x3ad24e70	0.0016045105
27	0xbcf5f081	-0.030021908
28	0xbd9c1bb8	-0.076224744
29	0xbdc46343	-0.09589245
30	0x3d7b6a32	0.061380573
31	0xbdf69a87	-0.120411925
32	0xbe0e40e7	-0.13891946
33	0xbe04575f	-0.12923954
34	0xbd6fd9fd	-0.0585575
35	0x3d55c5b8	0.052190512
36	0xbe47ea49	-0.19522966
37	0xbd9fd345	-0.07803968
38	0xbe35d74b	-0.17757909
39	0xbe1e2e7b	-0.15447418
40	0x3d083528	0.03325382
41	0xbd5d3c90	-0.054012835
42	0xbe19b7b6	-0.15011486
43	0xbdd8821c	-0.105716914
44	0xbd2e8705	-0.042609233
45	0xbd65f6b9	-0.056143496
46	0x3d1546e0	0.036444545
47	0x3d769985	0.060205
48	0xbda1c6ab	-0.07899221
49	0xbe0313f9	-0.12800588
50	0xbd9f88f3	-0.07789793
51	0xbcee1aa9	-0.029065447
52	0xbc730da2	-0.014834793
53	0x3d833df5	0.06408302
54	0x3e09069d	0.13381429
55	0x3bb49b43	0.0055116727
56	0x3e00c8e8	0.1257664
57	0x3da00c0b	0.07814797
58	0x3d8b9a56	0.068165466
59	0xbc25ec2f	-0.010127111
60	0xbda1c9cf	-0.0789982
61	0x3d6c9fb5	0.057769496
62	0x3d806a78	0.06270307
63	0x3d98ffaa	0.07470639
64	0xbde87b72	-0.1135167
65	0x3d9ff545	0.07810453
66	0x3e031579	0.1280116
67	0x3da9944b	0.08280238
68	0xbd080f16	-0.033217512
69	0x3e1a04f8	0.15040958
70	0x3e372d7e	0.17888448
71	0x3d5817f9	0.052757237
72	0xbd935e86	-0.07195763
73	0x3dd2beeb	0.10290321
74	0x3d8afed6	0.06786887
75	0x3df697ab	0.12040647
76	0xbc29fb3f	-0.010374843
77	0xbdcf29ba	-0.101153806
78	0xbe4e6475	-0.20155509
79	0xbe4bc685	-0.19899948
80	0xbe273607	-0.16329204
81	0xbd282019	-0.041046236
82	0xbdc240d7	-0.094850235
83	0xbe04983e	-0.12948701
84	0xbe098326	-0.13428935
85	0x3d955216	0.07291047
86	0xbe2a606b	-0.16638343
87	0xbdff5e3d	-0.124691464
88	0xbe4622df	-0.1934924
89	0x3cb3d1af	0.02195057
90	0xbc14bf3b	-0.009078796
91	0xbe17dba4	-0.1482988
92	0xbe241cc5	-0.160266
93	0xbdbd2bc9	-0.09236867
94	0xbd90206c	-0.07037434
95	0xbde72b3c	-0.11287543
96	0xbda26ca4	-0.07930878
97	0xbcd82cb2	-0.0263885
98	0xbe0f4f68	-0.13995135
99	0xbdd3811a	-0.103273585
100	0xbe2c2826	-0.1681219
101	0xbd9a3168	-0.07528955
102	0x3e11abea	0.14225736
103	0x3da07301	0.07834435
104	0xbdda0a1e	-0.10646461
105	0x3e300d56	0.17192587
106	0x3ddba487	0.107247405
107	0xbd2ff088	-0.042953998
108	0x3dea64fa	0.11445041
109	0xbd1ce3ff	-0.03830337
110	0x3da77137	0.08175891
111	0xbcc6c4c1	-0.024263741
112	0xbd1b0099	-0.037842367
113	0xbe0e277b	-0.13882248
114	0xbe2dac8e	-0.16960356
115	0x3dd1dc00	0.1024704
116	0x3d3f7b50	0.04674846
117	0xbcf882d9	-0.03033583
118	0xbde06d35	-0.109583296
119	0x3dd8e5a9	0.10590679
120	0xbe25fcb4	-0.1620968
121	0xbdb2adf8	-0.08724588
122	0xbca95444	-0.020670064
123	0xbe1e9075	-0.15484793
124	0xbd817b63	-0.06322362
125	0xbe0d37f0	-0.1379087
126	0x3da952e7	0.082677655
127	0x3dc0b1f0	0.09408939
128	0xbde280e0	-0.11059737
129	0x3dad3fd0	0.08459437
130	0xbdb3be6c	-0.087765545
131	0xbd3c02bc	-0.045901045
132	0xbc88c0a4	-0.01669342
133	0xbdad0771	-0.08448685
134	0xbd3bf9cf	-0.045892533
135	0xbcef0d47	-0.029181136
136	0x3c35b7e9	0.011091211
137	0x3e24a0c0	0.16076946
138	0x3e154518	0.14577138
139	0x3d519322	0.051165707
140	0xbc836287	-0.016038192
141	0xbe0f71de	-0.1400828
142	0xbdf745cf	-0.12073862
143	0xbd80e168	-0.06292993
144	0xbe4bc757	-0.19900261
145	0xbd0beb13	-0.03415973
146	0xbe48ec02	-0.1962128
147	0xbd085a57	-0.03328928
148	0xbd442647	-0.047888067
149	0xbd84e133	-0.06488266
150	0x3ca4134c	0.020028733
151	0x3d97a328	0.074041665
152	0x3d2c7f74	0.042113736
153	0xbd1367a1	-0.0359875
154	0x3d531a0f	0.051538523
155	0xbd12ceda	-0.0358418
156	0x3d10bc94	0.035336092
157	0x3dd73660	0.10508418
158	0xbd2800c9	-0.041016374
159	0xbddab4d3	-0.10679021
160	0xbe13b756	-0.14425406
161	0xbcd5fe5f	-0.02612227
162	0xbcf9d656	-0.030497711
163	0x3ca6f5f4	0.020380951
164	0xbe3ba4e0	-0.18324614
165	0xbd4513c3	-0.04811455
166	0xbd1f6f2a	-0.038924374
167	0xbdc93e0e	-0.09826289
168	0xbe721ad4	-0.23643047
169	0xbdadbd61	-0.08483387
170	0xbe6dcdf1	-0.23223092
171	0xbe756c4a	-0.2396709
172	0xbd18486f	-0.037178453
173	0x3c85dc86	0.016340505
174	0x3d8c4eef	0.06850993
175	0x3d218f58	0.039443344
176	0xbe787702	-0.24264148
177	0xbe0ad483	-0.1355763
178	0xbd534e0d	-0.051588107
179	0x3d870113	0.06592002
180	0xbc438905	-0.0119345235
181	0xbe6f3354	-0.23359424
182	0x3d48ab53	0.048991513
183	0xbd91c335	-0.07117311
184	0xbd2c8266	-0.042116545
185	0xbe5c8b7e	-0.21537587
186	0xbdbafb06	-0.0912991
187	0x3c9971bf	0.018730996
188	0x3dc7d284	0.097569495
189	0xbe40f888	-0.18844807
190	0xbe06cd57	-0.13164268
191	0xbcb2d976	-0.02183221
192	0xbe351025	-0.1768194
193	0xbce8f9ec	-0.028439485
194	0xbdee3dd9	-0.1163289
195	0x3dc253fe	0.094886765
196	0x3e169a98	0.1470741
197	0xbd586329	-0.05282894
198	0x3de72df1	0.112880595
199	0x3d7edf1f	0.062224504
200	0xbbd09cca	-0.006366347
201	0xbdfe1d37	-0.12407916
202	0xbe20c981	-0.15701868
203	0xbe246dff	-0.16057585
204	0xbdd104c7	-0.10205989
205	0x3df88db8	0.12136406
206	0x3e0f80f0	0.1401403
207	0x3cf4e6ff	0.029895304
208	0xbe158022	-0.1459966
209	0xbe0769bd	-0.1322393
210	0xbe1bbd32	-0.15208891
211	0xbd430bc6	-0.04761865
212	0x3d365a0f	0.04451948
213	0x3d71a7e8	0.05899802
214	0x3e18e209	0.14929976
215	0xbc96f3d2	-0.01842681
216	0x3e602d7a	0.21892348
217	0xbb31de8d	-0.0027140707
218	0x3e40fe04	0.188469
219	0x370e54c7	8.483598e-06
220	0xbda31eb3	-0.0796484
221	0xbd846f46	-0.06466536
222	0xbe3666b1	-0.17812611
223	0xbe500181	-0.20313074
224	0xbd9b6fbe	-0.075896725
225	0xbcecc1b3	-0.028900957
226	0xbd30baa1	-0.043146733
227	0xbe05785e	-0.13034198
228	0xbd929190	-0.0715667
229	0xbd9eeefc	-0.077604264
230	0x3df9f7b4	0.12205449
231	0xbc5dc64e	-0.013536049
232	0xbe435d23	-0.19078498
233	0xbdb972c8	-0.09055096
234	0x3da3d619	0.0799982
235	0x3d918b30	0.07106626
236	0xbe08df4b	-0.1336643
237	0xbd677027	-0.05650344
238	0x3dc17534	0.09446183
239	0xbbc3cbe8	-0.0059752353
240	0xbd7aacfb	-0.061200123
241	0x3ddab3f1	0.10678852
242	0xbd0adf95	-0.03390463
243	0x3b6d1996	0.003617858
244	0x3d1614a3	0.036640774
245	0x3dd667fc	0.10469052
246	0xbaf82459	-0.0018931731
247	0x3ddcef06	0.107877776
248	0x3d7ec6a6	0.062201165
249	0x3deb4883	0.1148844
250	0xbd974ccb	-0.07387694
251	0x3e05e4e9	0.13075604
252	0xbde8aebe	-0.113614544
253	0xbd3f9849	-0.04677609
254	0xbdb5e241	-0.08881045
255	0xbcde1f2d	-0.027114475

model.before.4.bias f4 [32]
0	0xbdf94d6f	-0.121729724
1	0xbce184ca	-0.02752914
2	0x3e00aa7c	0.12565035
3	0xbe33f343	-0.17573266
4	0x3e132953	0.14371233
5	0xbe2e64b1	-0.17030598
6	0x3d7cf929	0.061761055
7	0x3e123e56	0.14281592
8	0xbdda0e15	-0.10647217
9	0x3e0ac245	0.1355067
10	0x3d867613	0.065654896
11	0xbd90017c	-0.07031533
12	0xbd91b301	-0.071142204
13	0xbe0a1f52	-0.1348851
14	0x3bf203a1	0.0073856865
15	0xbdef40f8	-0.11682314
16	0xbcb30c3a	-0.021856416
17	0x3dd551e7	0.10416012
18	0x3e047194	0.12933952
19	0xbcb41efd	-0.021987433
20	0xbe03d1d7	-0.12873016
21	0x3e322ac0	0.1739912
22	0x3d2a99f5	0.04165073
23	0x3e0894dd	0.13338037
24	0xbdd10318	-0.10205668
25	0x3db73001	0.08944703
26	0xbdddf2ca	-0.10837324
27	0x3e0f7788	0.14010441
28	0xbdad6526	-0.08466558
29	0xbc91bcd6	-0.01779024
30	0xbdb54060	-0.08850169
31	0x3e01a076	0.12658867

model.after.0.weight f4 [16, 32, 3]
0	0x3d261c08	0.040554076
1	0xbde9c650	-0.11414778
2	0xbd8d0a0e	-0.068866834
3	0x3c532b8b	0.012888799
4	0x3df4aa92	0.11946596
5	0x3db89582	0.09012891
6	0x3dba209c	0.09088251
7	0xbc8f7c32	-0.017515276
8	0xbd97457b	-0.07386299
9	0xbe755462	-0.2395797
10	0xbe4ba5d8	-0.19887483
11	0xbe06422b	-0.13111179
12	0xbdec47f0	-0.115371585
13	0xbe04056b	-0.12892692
14	0xbd40d3d4	-0.047077015
15	0x3c8ebf5e	0.017425235
16	0xbb904485	-0.0044026994
17	0x3d135252	0.03596718
18	0xbd27c253	-0.040956806
19	0x3d41b7f6	0.04729458
20	0x3d4300a9	0.04760805
21	0x3dcc8b53	0.099875115
22	0xbd06c5fc	-0.032903656
23	0x3bcc06be	0.0062263897
24	0x3b537846	0.0032267733
25	0x3ccafe03	0.024779325
26	0x3e06614b	0.13123052
27	0xbe46ae61	-0.19402458
28	0xbdf7e445	-0.12104086
29	0xbd9fe96f	-0.07808196
30	0x3df49b0f	0.119436376
31	0x3d45be69	0.048277292
32	0x3dcafc07	0.09911352
33	0x3d546eea	0.05186359
34	0x3d8457eb	0.064620815
35	0x3d018531	0.03162116
36	0xbbbf205e	-0.005832716
37	0x3da0d2b1	0.07852686
38	0x3cfc03fd	0.03076362
39	0x3dd43019	0.103607364
40	0xbca322e1	-0.019914092
41	0x3cd9630e	0.02653649
42	0x3e20882d	0.15676947
43	0x3e40c426	0.18824825
44	0x3e38c211	0.1804278
45	0xbd85e1da	-0.065372184
46	0xbe0e0374	-0.13868505
47	0xbe0bf76c	-0.13668603
48	0x3d9510fe	0.07278632
49	0x3d74bb9d	0.059749234
50	0xbd178d50	-0.037
51	0xbdbc0b30	-0.09181821
52	0x3d0e4a5a	0.034738876
53	0xbdfcde59	-0.12347097
54	0x3d80ffc9	0.06298787
55	0x3cd018ed	0.02540251
56	0x3caa5862	0.020794097
57	0xbc6cc94b	-0.014452289
58	0xbcb02627	-0.021502567
59	0x3c820123	0.015869683
60	0xbdca7582	-0.09885694
61	0x3d67c863	0.056587588
62	0xbcd66203	-0.026169783
63	0xbdb42a60	-0.08797145
64	0x3d1eb698	0.038748354
65	0x3d17615c	0.036958084
66	0x3e016a05	0.126381
67	0xbd4cf37a	-0.050036885
68	0x3d29a6b0	0.04141873
69	0x3dc86eb2	0.097867385
70	0x3d8abe2f	0.06774556
71	0x3dbb3164	0.0914028
72	0x3d2a6984	0.041604534
73	0xbd7e0f00	-0.062026024
74	0x3df292a1	0.118443735
75	0xbd1e4d5b	-0.03864799
76	0xbdfeffd8	-0.12451142
77	0xbe21c1b7	-0.15796553
78	0x39f53a81	0.0004677363
79	0x3da1528c	0.07877073
80	0x3d9d6d45	0.07686857
81	0xbde4d351	-0.11173118
82	0x3ac0e88f	0.0014717745
83	0xbe14a47c	-0.14515871
84	0x3dc17e23	0.09447887
85	0xbca17189	-0.019707458
86	0xbd1cfec5	-0.038328905
87	0xbdb72f1c	-0.08944532
88	0xbd983a1d	-0.07432959
89	0xbde34632	-0.11097373
90	0x3d49a936	0.049233638
91	0xbda4938e	-0.08035956
92	0x3c905a7a	0.017621268
93	0xbd79f640	-0.061025858
94	0xbd895f27	-0.06707602
95	0xbd913f5d	-0.07092164
96	0x3d205f3a	0.039153315
97	0xbddbe65b	-0.10737296
98	0xbe02f9f5	-0.12790664
99	0x3e0d344f	0.13789485
100	0x3e024a24	0.12723595
101	0x3de0a5da	0.10969134
102	0x3d1c8ab0	0.0382182
103	0xbd50a530	-0.050938785
104	0xbe3279cf	-0.17429279
105	0xbe91a65c	-0.28447235
106	0xbe432513	-0.19057111
107	0xbe902f10	-0.28160906
108	0xbc9b2e45	-0.018942961
109	0xbd71c0bc	-0.059021696
110	0x3caa9106	0.020821106
111	0x3d216edc	0.039412364
112	0x3cc66ecd	0.024222756
113	0xbd05cc4e	-0.032665543
114	0xbda97c00	-0.08275604
115	0xbde665b1	-0.11249865
116	0xbdcf95bf	-0.10135984
117	0xbd0b0f8b	-0.03395037
118	0x3d2872ae	0.041124992
119	0x3c26d03d	0.010181484
120	0x3d942d24	0.072351724
121	0xbd8e2209	-0.069400854
122	0x3cf789ff	0.030217169
123	0xbc50971c	-0.01273134
124	0xbdef36c1	-0.11680365
125	0xbd848cbe	-0.06472157
126	0x3d8384d0	0.06421816
127	0x3d9142fe	0.07092856
128	0x3dd31aaf	0.10307824
129	0x3dcd7d70	0.10033691
130	0x3d93fbc3	0.07225754
131	0x3d143a6e	0.036188535
132	0xbc37b246	-0.011211937
133	0x3e0b507f	0.13604926
134	0x3bb99bd4	0.005664328
135	0xbd87c0bc	-0.06628558
136	0x3b29df07	0.0025920288
137	0xbdc308c2	-0.09523155
138	0xbcae556c	-0.021280967
139	0xbc561b2a	-0.013068
140	0x3dbf18a0	0.09330869
141	0xbda18552	-0.07886757
142	0xbe0189a0	-0.12650156
143	0xbdc75a6c	-0.097340435
144	0xbd1ea88d	-0.03873496
145	0xbd672943	-0.056435835
146	0x3cf94103	0.030426508
147	0xbc2c3ecc	-0.010513019
148	0xbd97f10c	-0.07419023
149	0xbca2655e	-0.019823726
150	0xbd2ed05b	-0.042679172
151	0x3c82b0be	0.015953418
152	0x3c9be4c9	0.019029992
153	0x3cefa575	0.0292537
154	0xbdcd2b0d	-0.10017977
155	0xbd4e2a20	-0.050333142
156	0x3da10ff5	0.07864372
157	0xbdf5c4c3	-0.1200042
158	0xbdd1ef3b	-0.10250708
159	0x3dcdb9c8	0.100452006
160	0x3dcc01a9	0.09961254
161	0x3db55736	0.08854525
162	0x3dcb9bec	0.09941849
163	0x3c9e073d	0.01929056
164	0x3dd1cc25	0.102440156
165	0xbbda2c3e	-0.006658106
166	0xbdf42490	-0.11921036
167	0xbcfb9dab	-0.03071483
168	0xbca68749	-0.02032818
169	0x3df40bb8	0.11916298
170	0x3d84bfbb	0.06481882
171	0xbdcb6c17	-0.09932726
172	0xbcafa4e6	-0.021440934
173	0xbbe86462	-0.0070920447
174	0xbdb077d4	-0.086166054
175	0x3c291035	0.010318805
176	0x3dcefdff	0.1010704
177	0xbd8fcfaa	-0.07022031
178	0x3db068ca	0.08613737
179	0x3d8ad45b	0.06778785
180	0x3d8d6722	0.06904437
181	0x3da73052	0.08163513
182	0xbdc9111b	-0.09817716
183	0xbd4b4ea6	-0.049635552
184	0xbd2d6dc1	-0.042340998
185	0xbe23ff4a	-0.16015354
186	0x3d660f67	0.056167033
187	0xbd1d5efa	-0.038420655
188	0x3cff9e10	0.0312033
189	0x3d2234b0	0.039601028
190	0xbdecb8e6	-0.11558704
191	0xbd094c62	-0.03352011
192	0x3ce91407	0.028451933
193	0xbccdb0c5	-0.025108704
194	0xbde0e763	-0.109816335
195	0xbd3135ff	-0.043264385
196	0x3de40836	0.111343786
197	0x3c6c3467	0.014416791
198	0x3da03c82	0.07824041
199	0x3e19201c	0.14953655
200	0x3dee4d13	0.116357945
201	0xbd044821	-0.03229535
202	0x3d2fd658	0.042929024
203	0x3d07e091	0.033173148
204	0xbd66d970	-0.05635971
205	0xbd8574aa	-0.065163925
206	0xbbb63737	-0.0055607813
207	0xbe0be814	-0.1366275
208	0xbd89ce22	-0.0672877
209	0xbe153d53	-0.14574175
210	0x3cc331ec	0.023827516
211	0x3e040de8	0.1289593
212	0x3d127e0b	0.035764735
213	0x3e2f6aa2	0.17130521
214	0x3e1b15e2	0.15145066
215	0x3cfa3b7b	0.03054594
216	0xbcbc0d71	-0.022955628
217	0x3db47b06	0.08812527
218	0x3d1818ee	0.03713315
219	0xbdfa1c5d	-0.12212441
220	0xbe48f252	-0.19623688
221	0xbe15d5d7	-0.14632355
222	0x3da1b425	0.07895688
223	0x3d86705a	0.06564398
224	0x3d137bf3	0.03600688
225	0xbd63e2f5	-0.055636365
226	0x3deb07e4	0.114761144
227	0x3c0eba78	0.00871145
228	0xbdca3721	-0.09873796
229	0xbda338db	-0.07969829
230	0x3d16a6b1	0.036780063
231	0xbd197246	-0.037462495
232	0xbd0dba83	-0.0346017
233	0x3d23e40f	0.040012415
234	0x3d077bd2	0.03307707
235	0x3dc12091	0.0943004
236	0x3c3ac992	0.011400597
237	0xbe1aeb95	-0.1512893
238	0xbe17c186	-0.14819917
239	0xbdd79a5f	-0.10527491
240	0x3dabd135	0.083895124
241	0xbc0d2c47	-0.008616514
242	0xbb99314b	-0.0046750656
243	0x3d0b4b91	0.034007613
244	0xbe1336c7	-0.14376365
245	0xbe20fe07	-0.15721904
246	0x3d0a742c	0.033802196
247	0x3b0e1753	0.0021681383
248	0x3b018c41	0.0019767436
249	0xbcdf936f	-0.027291982
250	0x3dad613a	0.0846581
251	0x3e13f2c1	0.14448072
252	0xbe3247ee	-0.17410251
253	0xbc1286f9	-0.008943313
254	0xbd7b71ce	-0.06138783
255	0xbdfcd4e5	-0.12345294

model.after.0.bias f4 [16]
0	0xbc4c8781	-0.0124834785
1	0x3d21fb35	0.03954621
2	0x3c6e53c3	0.014546338
3	0x3bc1d0d4	0.005914787
4	0xbcbdd3ac	-0.023172222
5	0x3de20ea1	0.110379465
6	0x3da62831	0.08113135
7	0xbd32d97f	-0.04366445
8	0x3cd25f67	0.025680257
9	0xbd7a06cf	-0.06104165
10	0x3da193e1	0.07889534
11	0x3de6fa6d	0.11278234
12	0xbc20a112	-0.009804027
13	0x3d23a334	0.039950565
14	0x3db69535	0.08915178
15	0xbcd48060	-0.02594012

model.after.2.weight f4 [16, 16, 3]
0	0x3cef8be4	0.02924151
1	0x3d3f7fa9	0.046752606
2	0x3dd1038e	0.10205756
3	0xbe0652e7	-0.13117562
4	0xbe09982d	-0.13436957
5	0xbd20a993	-0.03922422
6	0x3d6b1afa	0.057398774
7	0xbe02702d	-0.12738104
8	0xbe1ebc22	-0.15501454
9	0x3d4d298c	0.05008845
10	0xbd825e83	-0.06365683
11	0xbd8144b1	-0.0631193
12	0xbdbca0ca	-0.092103556
13	0x3e03afbf	0.1286001
14	0x3d0f1ee3	0.034941565
15	0x3d4122a1	0.047152165
16	0xbda102d1	-0.07861865
17	0xbd393d23	-0.04522432
18	0xbd173eb7	-0.036925044
19	0x3cf5f6bc	0.030024879
20	0xbd966f01	-0.07345391
21	0x3dc8d87a	0.09806915
22	0xbd12f0c1	-0.035874132
23	0xbde35f94	-0.111022145
24	0x3db419b9	0.08793969
25	0xbe166490	-0.14686799
26	0x3dbdb845	0.09263662
27	0xbe02a46f	-0.12758039
28	0x3d39606a	0.045257963
29	0xbd5b4afe	-0.053538315
30	0x3db1cba7	0.08681422
31	0x3de04fdf	0.10952734
32	0xbdb0741f	-0.08615898
33	0xbda04105	-0.078249015
34	0xbe1c487d	-0.15262027
35	0x3c7ac994	0.015306849
36	0x3e0162bd	0.12635322
37	0xbd0603fa	-0.032718636
38	0xbdd6ae93	-0.10482516
39	0xbc07f188	-0.008297332
40	0xbe164908	-0.14676297
41	0xbd205ff2	-0.039154
42	0x3d24bd56	0.040219627
43	0x3c5c86ef	0.013459905
44	0xbde5aa57	-0.1121413
45	0x3ce100b8	0.027466163
46	0x3ba74b80	0.005105436
47	0x3c7fb0ae	0.015606089
48	0x3e2fbe22	0.17162374
49	0x3d4b9944	0.049706712
50	0x3b73d58c	0.0037206141
51	0xbd70bb09	-0.05877212
52	0xbe588796	-0.21145472
53	0xbe867992	-0.26264626
54	0xbde53adc	-0.11192867
55	0x3d43ffd1	0.047851387
56	0x3d630f57	0.05543455
57	0xbda2707c	-0.07931611
58	0xbe032179	-0.12805738
59	0xbd1de802	-0.038551338
60	0xbe4aea95	-0.19816048
61	0xbe2a2a1b	-0.16617624
62	0xbccfda4f	-0.025372652
63	0x3e40857d	0.18800922
64	0xbd803b65	-0.062613286
65	0xbb344ae0	-0.002751045
66	0xbe577cd9	-0.2104372
67	0xbdedf7ae	-0.11619507
68	0xbe282765	-0.16421278
69	0x3e81a0a1	0.25317863
70	0x3e57b7f3	0.21066265
71	0x3dd2f67b	0.10300919
72	0x3e7217f1	0.23641945
73	0x3e295ab8	0.16538513
74	0x3e6b7058	0.22992074
75	0x3d909367	0.07059365
76	0x3df9cbfb	0.12197109
77	0x3dcf8d44	0.10134366
78	0xbdf24747	-0.11830001
79	0xbe08e5ac	-0.13368863
80	0xbdc58a1b	-0.09645482
81	0x3d0a80e5	0.03381433
82	0xbd6d84eb	-0.05798809
83	0xbde94cd8	-0.1139161
84	0x3ea2b615	0.31779543
85	0x3e5f3cdb	0.21800558
86	0x3e63e515	0.22255357
87	0xbd6c87c3	-0.05774666
88	0xbda9bce2	-0.0828798
89	0xbdc5e463	-0.09662702
90	0xbe0cc4c0	-0.13746929
91	0x3ccbd1f6	0.02488039
92	0xbde43c4c	-0.11144313
93	0x3e0a9bde	0.13536021
94	0x3e428351	0.18995406
95	0x3d9ea01d	0.07745383
96	0xbe912135	-0.28345647
97	0xbecdc7be	-0.40191454
98	0xbedcae37	-0.43101665
99	0x3de9320d	0.113864996
100	0x3d67b4ae	0.056568794
101	0xbe2cc630	-0.16872478
102	0xbe0fcead	-0.14043684
103	0xbc9852ff	-0.018594263
104	0x3d2edafa	0.0426893
105	0xbd5f3c06	-0.054500602
106	0xbe68fdbf	-0.22753046
107	0xbbbbb1c8	-0.0057279803
108	0x3e6bdec1	0.23034193
109	0x3d32277f	0.043494698
110	0x3ce20d13	0.027594125
111	0xbeb2129e	-0.3477983
112	0xbe18753f	-0.14888476
113	0xbe730dd9	-0.23735751
114	0x3d84dd8c	0.06487569
115	0x3d10cdc7	0.035352495
116	0xbe085450	-0.13313413
117	0xbe89e70c	-0.26934087
118	0xbd9eb926	-0.07750158
119	0xbd84ad74	-0.06478396
120	0xbe8cf4bb	-0.27530465
121	0xbe41538c	-0.18879527
122	0xbd868154	-0.06567636
123	0x3ae3cec8	0.0017380351
124	0xbdd8f68b	-0.10593899
125	0xbe069c99	-0.13145675
126	0xbe926162	-0.28589922
127	0xbe7ad8b3	-0.24496727
128	0xbe87affd	-0.26501456
129	0x3e1b7be7	0.15183984
130	0x3dd7e08d	0.105408765
131	0x3e48b289	0.19599356
132	0xbd26d7f1	-0.04073328
133	0x3d14632d	0.036227394
134	0xbe795676	-0.24349388
135	0x3be6b688	0.0070408024
136	0xbd5d507b	-0.05403183
137	0xbe310a4c	-0.17289084
138	0x3de36a8c	0.111043066
139	0xbd9c9905	-0.07646374
140	0xbd559484	-0.05214359
141	0x3e46fc79	0.19432248
142	0xbce4d467	-0.027933313
143	0x3df362f4	0.11884108
144	0x3dbd120e	0.09231959
145	0x3e21c0d8	0.1579622
146	0x3d7c98a6	0.061669014
147	0xba9e973f	-0.0012099518
148	0x3e536efd	0.20647807
149	0x3e4f0468	0.20216525
150	0x3d15debb	0.036589365
151	0x3dc3dfc4	0.09564164
152	0x3dcbc869	0.099503346
153	0x3e28a78a	0.16470161
154	0x3d8075e9	0.062724896
155	0x3e95cba2	0.29256922
156	0x3e92c08e	0.28662533
157	0x3e9311ee	0.28724617
158	0x3da9b3ef	0.08286273
159	0xbba42c0d	-0.005010134
160	0xbd64777e	-0.05577802
161	0x3e516a6d	0.20450754
162	0x3cfdfe6d	0.031005109
163	0x3d4da674	0.05020757
164	0x3dccf972	0.100085154
165	0xbdb4175e	-0.087935194
166	0xbdc5cced	-0.09658227
167	0xba28611f	-0.00064231636
168	0x3e064cf7	0.13115297
169	0x3d1b0a16	0.037851416
170	0xbd72d212	-0.05928237
171	0x3dd009c0	0.1015811
172	0x3e0d078d	0.13772412
173	0x3da3e4af	0.08002602
174	0xbd4909fa	-0.04908178
175	0x3dda5f73	0.10662737
176	0x3e0e5b96	0.13902125
177	0xbc3cee56	-0.011531433
178	0xbdc4607c	-0.095887154
179	0x3d7eaac6	0.06217458
180	0xbe80f583	-0.2518731
181	0xbe38d47a	-0.18049803
182	0xbd6c7241	-0.05772615
183	0x3e63a49b	0.22230761
184	0x3e40b535	0.18819125
185	0x3e2cb293	0.16864996
186	0x3d7e3469	0.0620617
187	0x3cc79bcf	0.024366288
188	0x3cdacbf2	0.026708577
189	0xbe109440	-0.14119053
190	0xba74d66a	-0.00093398115
191	0xbd31efb2	-0.043441482
192	0xbbba1f50	-0.0056800023
193	0xbe28c049	-0.16479601
194	0xbdb6d501	-0.08927346
195	0x3de84f45	0.113432445
196	0x3db99090	0.09060776
197	0x3bc762ed	0.006084791
198	0xbe1e6f29	-0.15472092
199	0xbdc94cf1	-0.098291285
200	0x3d8c79c7	0.06859165
201	0xbd106069	-0.035248194
202	0x3d51169b	0.05104695
203	0xbe16a68f	-0.14711975
204	0xbd2a1244	-0.041521326
205	0x3db35b07	0.087575965
206	0xbe0c9607	-0.13729106
207	0xbdc6201f	-0.09674095
208	0xbe31a5a8	-0.17348349
209	0xbca66a38	-0.02031432
210	0xbe22a252	-0.15882233
211	0xbd51d20b	-0.051225703
212	0x3da7382d	0.081650116
213	0xbd8ec053	-0.06970277
214	0x3dbaaf19	0.091154285
215	0xbc2e353a	-0.010632807
216	0x3defd3cd	0.1171032
217	0xbc894e8f	-0.016761092
218	0xbe08504d	-0.13311882
219	0xbdab3c77	-0.08361142
220	0x3ddaf5e9	0.10691435
221	0xbd3299df	-0.043603774
222	0x3db13e8f	0.0865451
223	0x3d88ef0c	0.066862196
224	0x3db73365	0.089453496
225	0xbe087b4e	-0.13328287
226	0x3dd8bac7	0.105825
227	0xbc1b8b42	-0.009493651
228	0xbdb48314	-0.08814064
229	0xbd07c619	-0.033147905
230	0x3b3b65df	0.0028594655
231	0xbdf39c81	-0.11895085
232	0x3de330bf	0.11093282
233	0xbdf343b2	-0.11878146
234	0x3d0d5f8d	0.034514952
235	0x3de8ec62	0.113732114
236	0xbdad640b	-0.08466347
237	0xbdbf8441	-0.09351397
238	0xbe2621a7	-0.16223775
239	0xbe03b1a5	-0.12860735
240	0xbda4c3e2	-0.08045174
241	0x3d7dc6eb	0.06195728
242	0x3cfa6aa3	0.030568426
243	0xbcce616b	-0.025192937
244	0x3e4f6157	0.20251976
245	0x3e47dc9b	0.19517748
246	0xbc658061	-0.014007659
247	0x3dd3c755	0.10340754
248	0xbbf61808	-0.007510189
249	0x3e28f574	0.16499883
250	0x3e0a0fbd	0.13482566
251	0x3dffee7f	0.124966614
252	0x3eb745a4	0.3579532
253	0x3dea3607	0.11436086
254	0x3e9ee095	0.31030717
255	0xbe1c86cb	-0.15285794

model.after.2.bias f4 [16]
0	0xbe01e3a3	-0.12684493
1	0x3cff8c5b	0.031194856
2	0x3c782179	0.015144699
3	0xbdc04187	-0.09387498
4	0xbe0f079a	-0.13967744
5	0xbbfbdd39	-0.007686284
6	0x3d19c641	0.037542585
7	0xbc039b91	-0.008032695
8	0xbda526ae	-0.08064018
9	0x3e373068	0.1788956
10	0xbdeb4fe9	-0.11489851
11	0x3d155326	0.03645625
12	0x3dd07298	0.10178107
13	0xbdd38c0e	-0.10329448
14	0x3de5e7b9	0.11225838
15	0xbe21505b	-0.1575331

model.after.4.weight f4 [8, 16, 3]
0	0xbdf1aadd	-0.11800168
1	0xbd165134	-0.036698535
2	0x3b53ccfb	0.0032318223
3	0xbe54774e	-0.20748636
4	0xbd319d25	-0.043362755
5	0xbdbdafde	-0.0926206
6	0x3ec26b29	0.37972382
7	0x3ec3d101	0.38245395
8	0x3f0331ca	0.5124785
9	0xbdc29825	-0.095016755
10	0x3d530f1f	0.051528092
11	0x3daa6f7c	0.08322045
12	0xbd5190c5	-0.051163454
13	0xbd7e36a7	-0.06206384
14	0x3da1bec3	0.07897713
15	0x3e54a5c1	0.20766355
16	0xb96523e5	-0.00021852514
17	0x3daff5a4	0.08591774
18	0xbe1549ad	-0.14578886
19	0xbdce5d91	-0.1007644
20	0xbdf3c40a	-0.11902626
21	0xbe507b04	-0.20359427
22	0xbe0a52e5	-0.13508184
23	0xbc16c371	-0.00920187
24	0x3d5850d9	0.052811477
25	0x3d8291ab	0.0637544
26	0x3da12e2d	0.078701355
27	0x3d22fedf	0.039793845
28	0xbce81913	-0.028332269
29	0x3d996606	0.074901626
30	0x3dd75687	0.10514551
31	0xbd2c9d56	-0.042142235
32	0x3e475a0a	0.19467941
33	0x3d9eb6e2	0.07749726
34	0x3dabef90	0.08395302
35	0x3b99eb4d	0.0046972395
36	0x3e103ed2	0.14086464
37	0x3de878af	0.113511436
38	0xbcfdd2f8	-0.030984387
39	0x3e66c9c9	0.22537912
40	0x3e28a06b	0.16467445
41	0x3e3ceaba	0.18448916
42	0x3e1830d8	0.14862382
43	0x3db1d1b5	0.086825766
44	0x3e37f308	0.17963803
45	0xbcadb8f6	-0.02120636
46	0xbd354c71	-0.044262353
47	0xbd2bc151	-0.041932408
48	0xbde3d571	-0.11124695
49	0xbd1d3010	-0.038375914
50	0x3de335d0	0.11094248
51	0x3e59e455	0.21278508
52	0x3d943985	0.072375335
53	0x3dfff9e7	0.12498837
54	0xbf09a0d9	-0.5376106
55	0xbeff8de0	-0.4991293
56	0xbedb298d	-0.42805138
57	0xbdb17ca0	-0.086663485
58	0xbe577f53	-0.21044664
59	0xbdd22fcf	-0.10263025
60	0x3dbb945e	0.09159158
61	0x3d984f13	0.07436957
62	0xbd8e79e8	-0.069568455
63	0xbe19f6d0	-0.15035558
64	0xbdc86b65	-0.09786109
65	0xbe350daa	-0.17680994
66	0x3dca9ff0	0.09893787
67	0x3c6399d3	0.013891655
68	0x3e215ef3	0.15758877
69	0x3db117b7	0.08647101
70	0x3e6bb43b	0.23017971
71	0x3ce6e87a	0.028187025
72	0x3bf25175	0.0073949643
73	0xbe94867c	-0.29008853
74	0xbe4a3ce5	-0.19749792
75	0xbdd8cdc7	-0.10586124
76	0xbe60daee	-0.21958515
77	0xbe18bc77	-0.14915644
78	0xbce45284	-0.027871378
79	0xbe328410	-0.1743319
80	0x3d5d9b90	0.054103434
81	0xbe56c532	-0.20973662
82	0xbde34a13	-0.11098113
83	0xbe75e52c	-0.24013203
84	0xbe3beeba	-0.18352786
85	0xbe61b54c	-0.22041816
86	0xbe0cc237	-0.13745962
87	0xbea944d2	-0.33060318
88	0xbe8bb371	-0.2728534
89	0xbd3f83f8	-0.046756715
90	0xbd880336	-0.066412374
91	0xbdf686e4	-0.12037447
92	0xbe007b92	-0.12547138
93	0x3dda4f44	0.1065965
94	0x3d95355b	0.072855674
95	0x3d1cc68f	0.038275298
96	0x3d195c20	0.037441373
97	0xbdd1f8dd	-0.10252545
98	0xbd03192b	-0.032006424
99	0xbd418c2b	-0.047252815
100	0xbe7f78bb	-0.24948399
101	0xbd9998be	-0.074998364
102	0x3ecf8bdf	0.405364
103	0x3f0628a2	0.5240575
104	0x3f19feb0	0.6015425
105	0x3dace4de	0.084420905
106	0x3e4022f2	0.1876333
107	0x3df2b612	0.118511334
108	0xbded99b6	-0.11601584
109	0xbdc49d24	-0.09600285
110	0xbd4f2e46	-0.05058124
111	0x3e50d97f	0.20395468
112	0x3e5421af	0.20715974
113	0x3e8b4b5a	0.27205926
114	0xbe01d097	-0.12677227
115	0xbd2e6ecf	-0.042586144
116	0xbdf95111	-0.12173665
117	0xbe2ca86f	-0.16861127
118	0xbe60c3fa	-0.21949759
119	0xbe5c54ce	-0.21516725
120	0x3e07412b	0.13208453
121	0x3e819aa9	0.2531331
122	0x3d19a814	0.037513807
123	0x3d3fcc53	0.046825718
124	0x3d8ee45e	0.06977151
125	0x3e1dee15	0.15422852
126	0x3d9df0fb	0.07711979
127	0x3dcc4732	0.09974517
128	0x3e2e912c	0.17047566
129	0x3e707cd6	0.23485121
130	0xbcb60e75	-0.02222369
131	0x3e1c3a2a	0.15256563
132	0xbd50cac6	-0.05097463
133	0x3d2f98bf	0.04287028
134	0x3e6b174b	0.22958104
135	0x3eb6a9b4	0.35676348
136	0x3e192c3d	0.14958282
137	0x3d0ad236	0.03389188
138	0xbc9e59ae	-0.019329872
139	0xbd276848	-0.040870935
140	0x3e43bdca	0.19115368
141	0xbc1658a6	-0.009176409
142	0xbd864d69	-0.065577336
143	0x3dde0a15	0.10841767
144	0x3dc5d336	0.09659426
145	0xbaea5abd	-0.0017879825
146	0x3c66116f	0.014042242
147	0x3dd03933	0.1016716
148	0xbbe547e2	-0.0069970945
149	0x3e6976e6	0.22799262
150	0xbed69c47	-0.41916105
151	0xbecf6db2	-0.40513378
152	0xbf1769c0	-0.59145737
153	0xbcde7805	-0.02715684
154	0xbda4c141	-0.08044673
155	0xbe305f9a	-0.17223969
156	0xba3ec755	-0.00072776276
157	0x3d16f0a9	0.036850605
158	0xbdce8b25	-0.100851335
159	0x3cae973d	0.02131235
160	0xbe56ccf3	-0.2097662
161	0xbe8e3161	-0.27772048
162	0x3e6d949a	0.23201218
163	0xbd1ba94c	-0.03800325
164	0x3d81cd8f	0.06338035
165	0x3e3b6e9e	0.18303916
166	0x3d48ee0d	0.049055148
167	0x3dfa4ae0	0.122213125
168	0xbd030ec9	-0.031996522
169	0xbd51f36f	-0.051257547
170	0xbe7a7c5f	-0.24461506
171	0xbdf4417f	-0.11926555
172	0xbdefc476	-0.11707394
173	0xbd9e7f72	-0.07739152
174	0xbe523f9f	-0.20532082
175	0x3c65803c	0.014007624
176	0xbd96d457	-0.07364719
177	0xbe1aab2e	-0.15104362
178	0xbe0607ae	-0.13088867
179	0xbe3187d3	-0.17336969
180	0xbd9f963f	-0.07792329
181	0xbc946095	-0.01811246
182	0xbc976258	-0.018479511
183	0xbdb76b72	-0.089560404
184	0xbdb6d19a	-0.08926697
185	0xbe04bd78	-0.12962902
186	0xbd69eb9d	-0.057109464
187	0xbe44ce01	-0.19219209
188	0xbe1f8a8b	-0.15580194
189	0x3d9e6aa4	0.07735184
190	0x3da1c0ce	0.07898103
191	0xbdec2a20	-0.11531472
192	0x3d20c211	0.039247576
193	0xbc986e8a	-0.018607397
194	0x3cc54f0b	0.024085542
195	0xbe6f8e8c	-0.23394221
196	0xbdfb77d3	-0.12278714
197	0xbe5173fc	-0.20454401
198	0x3ec3b422	0.38223368
199	0x3f09a4b6	0.53766954
200	0x3ec310ed	0.3809885
201	0x3d8f0197	0.06982725
202	0x3e278d8b	0.16362588
203	0x3e2a4d6e	0.166311
204	0x3d903f32	0.070433035
205	0x3d372a57	0.044718113
206	0x3d5541e6	0.0520648
207	0x3e039bee	0.12852451
208	0x3dc9f650	0.098614335
209	0x3e68b5c0	0.22725582
210	0xbd3b4a2c	-0.045725033
211	0xbe50a114	-0.20373946
212	0xbe53febf	-0.20702647
213	0xbd054913	-0.032540392
214	0x3d0f4461	0.03497732
215	0xbe1c4cdb	-0.15263693
216	0x3e394dc6	0.18096074
217	0x3e8584c5	0.26077858
218	0x3e29fd6e	0.16600582
219	0x3dcb5d7f	0.09929942
220	0x3cbfb279	0.023400532
221	0x3e1bc0bb	0.1521024
222	0x3e378174	0.17920476
223	0x3e00e53c	0.12587446
224	0xbd165d3d	-0.036710013
225	0x3d42c548	0.047551423
226	0xbccace5d	-0.024756605
227	0x3e1944fa	0.14967719
228	0xbd015ca9	-0.03158251
229	0x3e1b526a	0.15168157
230	0xbcd327f3	-0.025775885
231	0x3e6201cf	0.22071002
232	0x3e7bca41	0.24588872
233	0x39af3455	0.00033417591
234	0x3dce3c5c	0.100701064
235	0x3de7f597	0.113261394
236	0x3d8c5b31	0.06853331
237	0xbd6d8965	-0.057992358
238	0xbc3187f9	-0.010835641
239	0xbc4ae9ef	-0.012384876
240	0xbd5eb4b7	-0.05437156
241	0xbd127d0d	-0.03576379
242	0xbd983f15	-0.07433907
243	0xbe68ba60	-0.22727346
244	0xbc8a96b2	-0.01691756
245	0xbd4369da	-0.04770837
246	0x3ef6387d	0.48089972
247	0x3efb4ce0	0.49082088
248	0x3ed23b91	0.4106107
249	0x3d67ba4b	0.056574147
250	0xbd72310f	-0.059128817
251	0x3e559379	0.20857038
252	0xbde1252f	-0.1099342
253	0x3dac6a00	0.084186554
254	0x3d9c44a9	0.076302834
255	0x3d8bd041	0.06826831

model.after.4.bias f4 [8]
0	0xbd0cc267	-0.034365084
1	0x3c65f564	0.014035556
2	0x3e31ec4e	0.173753
3	0xbe3fc604	-0.1872788
4	0x3da001b3	0.07812824
5	0x3e1e765d	0.1547484
6	0xbd215f3a	-0.039397456
7	0x3d99d3ab	0.075110756

158 f4 [2, 128]
0	0xbcf40f18	-0.029792354
1	0xbe078002	-0.13232425
2	0x3e351f04	0.17687613
3	0x3e063a1f	0.13108109
4	0x3e53725f	0.20649098
5	0xbd95beb3	-0.073117636
6	0xbe1ed9d4	-0.15512782
7	0x3e5bf4ca	0.21480098
8	0x3eb33096	0.34998006
9	0x3e62944e	0.22126886
10	0x3d5e4623	0.054266106
11	0x3bf085df	0.0073401774
12	0xbd0b2e23	-0.033979546
13	0xbe190a9d	-0.14945455
14	0x3e26f77b	0.16305344
15	0x3defa877	0.11702054
16	0x3e6fa694	0.23403388
17	0xbd801db9	-0.06255669
18	0x3e2445b5	0.16042216
19	0x3dbfb80a	0.093612745
20	0x3cbd3478	0.023096308
21	0x3c497af2	0.012297379
22	0xbde561d4	-0.112003
23	0x3e606207	0.21912394
24	0x3d14da6d	0.03634112
25	0xbcf1896f	-0.029484479
26	0x3c8af61d	0.01696306
27	0xbbb51eb4	-0.0055273417
28	0xbe26474e	-0.16238138
29	0x3e8e9ac1	0.27852443
30	0x3e005c15	0.12535127
31	0x3df1001c	0.11767599
32	0xbdc36aed	-0.09541879
33	0x3d36fe14	0.0446759
34	0x3e3388c6	0.17532644
35	0x3ea01b5b	0.3127087
36	0x3e305d62	0.17223123
37	0xbd868cd3	-0.06569829
38	0x3d074b77	0.033030953
39	0xbd80705a	-0.06271429
40	0x3eb51970	0.3537097
41	0xbd9390bd	-0.07205341
42	0x3e0fd5cd	0.14046402
43	0x3df92863	0.12165906
44	0x3d562ee0	0.052290797
45	0xbe223a03	-0.15842442
46	0x3e83a8a4	0.257146
47	0x3ea197bc	0.31561077
48	0xbe01dce8	-0.12681925
49	0x3db222be	0.08698033
50	0x3d3df221	0.04637349
51	0x3e396cbb	0.18107884
52	0x3c7e8d3d	0.0155366035
53	0xbdee9fd9	-0.11651582
54	0x3d2524fd	0.040318478
55	0x3e03a1db	0.12854712
56	0x3e4e2df6	0.2013472
57	0xbdc83350	-0.09775412
58	0x3e4a0009	0.19726576
59	0x3e84d37e	0.25942606
60	0xbdb40d91	-0.0879165
61	0xbd7edde2	-0.062223323
62	0xbe71d986	-0.23618135
63	0x3e53e663	0.20693354
64	0x3ec55112	0.38538414
65	0x3d0adbf1	0.03390116
66	0xbe347350	-0.17622113
67	0x3e0c6533	0.1371048
68	0x3e6f5da3	0.23375563
69	0x3ebfd470	0.37466764
70	0xbe30e896	-0.17276224
71	0x3e1e740e	0.15473959
72	0x3cec5dc2	0.028853301
73	0x3e6d361e	0.23165175
74	0x3c48004d	0.012207103
75	0xbdd16c4e	-0.102257356
76	0xbd0c89fb	-0.034311276
77	0x3cbb5ba5	0.022870848
78	0xbd94693e	-0.07246636
79	0x3c89b30d	0.01680901
80	0xbd99044d	-0.074715234
81	0x3d92442f	0.07141911
82	0x3e07c425	0.13258417
83	0xbdf5c702	-0.12000848
84	0xbd6ae2dc	-0.057345256
85	0xbdab03ca	-0.08350332
86	0xbd57b419	-0.05266199
87	0xbd34152d	-0.043965507
88	0xbd93f199	-0.072238155
89	0x3e9313c1	0.2872601
90	0x3d7e2836	0.062050067
91	0xbde43c4f	-0.111443155
92	0x3e793ca0	0.24339533
93	0x3e33b257	0.175485
94	0x3d71831d	0.05896293
95	0x3ae2cef5	0.001730411
96	0x3e100779	0.1406535
97	0x3de20b66	0.1103733
98	0x3ddd4e01	0.10805894
99	0x3e748a7f	0.23880957
100	0x3e9c982d	0.3058485
101	0xbd2d9d1d	-0.042386163
102	0xbcc89092	-0.024482999
103	0x3d29026c	0.041262075
104	0x3e79f2b2	0.24408987
105	0x3e98323d	0.2972583
106	0x3e00be89	0.12572683
107	0x3e9ac286	0.30226535
108	0x3d8bf600	0.0683403
109	0xbe367ae3	-0.17820315
110	0x3e742310	0.238415
111	0x3d9134fe	0.070901856
112	0x3d047f10	0.03234774
113	0x3bc5b422	0.0060334364
114	0x3e4abb2e	0.19797966
115	0xbe5961d1	-0.2122872
116	0x3c3910dd	0.011295524
117	0x3e2ac5e0	0.16677046
118	0xbdcca875	-0.09993068
119	0x3e036e2f	0.12835
120	0x3e1ed866	0.15512237
121	0x3b31978e	0.002709839
122	0x3d8ee52b	0.06977304
123	0x3e39678f	0.1810591
124	0xbe022775	-0.12710364
125	0x3e59ac69	0.21257176
126	0xbd1d86d7	-0.03845867
127	0x3d82e84d	0.06391964
128	0x3e255b4c	0.16148108
129	0xbdc0cc27	-0.09413939
130	0x3e1382bd	0.14405341
131	0xbe0662b9	-0.13123597
132	0x3d95326d	0.072850086
133	0x3af51736	0.0018698934
134	0xbe79877f	-0.24368094
135	0x3de971b5	0.11398641
136	0x3e899902	0.26874548
137	0xbe219250	-0.1577847
138	0x3de31a46	0.11088996
139	0x3d62c548	0.055363923
140	0x3e4be88a	0.19912925
141	0xbdf7312c	-0.12069926
142	0x3e91940a	0.28433257
143	0xbe5059a0	-0.20346689
144	0x3d93fb47	0.07225662
145	0x3cc06140	0.023483872
146	0xbdb48382	-0.088141456
147	0xbd9c4f28	-0.07632285
148	0x3e9b98df	0.3039007
149	0xbdb1e461	-0.08686138
150	0x3dc463fb	0.09589382
151	0xbe083222	-0.13300374
152	0x3e8261ea	0.25465328
153	0x3ea3ff5a	0.32030755
154	0x3eac8e49	0.33702305
155	0x3d1399ef	0.036035474
156	0x3e646fa2	0.2230821
157	0xbe44b4f4	-0.19209653
158	0xbe3d0c33	-0.18461685
159	0xbe3e35dd	-0.18575235
160	0x3e8b307b	0.27185425
161	0x3c1412b0	0.009037659
162	0x3e251f80	0.16125298
163	0xbdd6c9f8	-0.10487741
164	0x3e78b6ac	0.24288434
165	0x3e9352a4	0.28773987
166	0x3e8ce051	0.2751489
167	0x3dc38de7	0.0954855
168	0xbc9660bd	-0.018356675
169	0x3e8f0bab	0.2793859
170	0x3d463a4f	0.04839545
171	0x3d1795e0	0.037008166
172	0x3c9e0759	0.019290613
173	0x3b8a1234	0.0042135958
174	0x3e3eb61c	0.18624157
175	0x3e76de8d	0.24108334
176	0x3ddf238c	0.10895452
177	0xbe2bc310	-0.16773629
178	0x3c5876a5	0.013211881
179	0xbe0c9782	-0.1372967
180	0x3e586ff7	0.21136461
181	0x3dd8af6d	0.10580335
182	0x3dfe7e31	0.12426413
183	0x3e222e83	0.15838055
184	0x3d9e4735	0.077284254
185	0xbe078953	-0.13235979
186	0xbdbf0013	-0.09326186
187	0x3c519eed	0.0127942385
188	0x3e1904de	0.14943263
189	0xbdf7ef9d	-0.121062495
190	0x3de1e1f3	0.110294245
191	0x3e404c3c	0.18779081
192	0x3e4977fa	0.19674674
193	0x3e88b114	0.266976
194	0x3e83afe8	0.25720143
195	0x3dda5c72	0.10662164
196	0x3d655b5a	0.055995323
197	0xbd9dd7df	-0.0770719
198	0xbcd998c5	-0.026562104
199	0xbde6b0df	-0.11264204
200	0xbc8d4602	-0.017245296
201	0x3dd0e37c	0.10199639
202	0x3e7a88bb	0.24466221
203	0xbe3cf782	-0.18453792
204	0x3e861295	0.26186052
205	0x3e159a7c	0.14609712
206	0x3de653d8	0.11246461
207	0x3e22d7b2	0.15902594
208	0x3e48ec7f	0.19621466
209	0x3e62bb0a	0.22141662
210	0x3e00a029	0.12561096
211	0x3be9f27c	0.007139502
212	0x3eb05b35	0.34444585
213	0x3e27de6b	0.1639344
214	0x3e134c7f	0.1438465
215	0xbe0214a8	-0.12703192
216	0x3e432295	0.19056161
217	0x3da9b5be	0.08286618
218	0xbd90132c	-0.07034907
219	0x3e1abcbc	0.15111059
220	0xbd8a1eb7	-0.0674414
221	0x3e74c8cc	0.23904723
222	0x3e2dc355	0.16969045
223	0x3e85a306	0.2610094
224	0xbd0d3670	-0.034475744
225	0xbdbfddf2	-0.093685046
226	0x3e4e9448	0.20173752
227	0xbdbaabe8	-0.0911482
228	0xbdb71f3d	-0.08941505
229	0xbdf47d5f	-0.11937975
230	0x3c86bbd2	0.016446982
231	0xbdd5e779	-0.104445405
232	0xbe3e9970	-0.1861322
233	0xbd368943	-0.044564497
234	0x3ec140b8	0.3774469
235	0x3c9cb971	0.019131394
236	0x3e59222b	0.2120444
237	0x3e62f644	0.22164255
238	0xbdc48288	-0.09595209
239	0x3e74e56b	0.23915641
240	0x3c4db87c	0.0125561915
241	0x3e393404	0.18086249
242	0xbdd9d09b	-0.106354915
243	0x3d31cf37	0.043410506
244	0x3df895e2	0.12137963
245	0x3e1e1389	0.1543714
246	0x3e20e451	0.15712096
247	0x3d903546	0.07041411
248	0xbd9281a3	-0.071536325
249	0xbdc01de2	-0.093807
250	0x3da4ee19	0.08053226
251	0x3e78d983	0.24301724
252	0x3d5c9dee	0.05386155
253	0x3cf7bc2d	0.030241096
254	0xbc7c7ae7	-0.015410162
255	0x3db26568	0.08710748
