models/lstm_1_84_63.onnx (onnx, 64297 bytes, 16 tensors)

model.before.0.weight f4 [16, 6, 5]
-0.076922365 0.026539585 0.11836314 -0.11638925 0.03797128 0.10580935 -0.05528499 -0.082935385
-0.25471708 -0.17487396 0.00070121704 0.07794134 -0.17742072 -0.19976148 -0.13050804 -0.116361015
-0.00047567903 0.12017468 0.14606099 0.021708664 -0.048652925 -0.21347372 -0.23255616 -0.09420305
-0.15926771 0.1574613 0.116894774 0.01566404 -0.23571377 -0.21835336 -0.0012862976 -0.042192087
-0.03786098 -0.22862102 -0.21008404 -0.14860573 0.12007713 0.06759877 0.010773083 -0.05077909
-0.15076001 -0.06279294 -0.072575 0.12517518 0.017688809 -0.04712988 -0.12089764 -0.17591478
-0.12074382 -0.14913799 0.013088944 0.1456794 0.006824126 0.2679296 0.1463959 -0.121545024
0.105395176 -0.094629586 -0.262113 0.044689346 0.08084184 -0.10312605 0.079473004 -0.24828137
0.1624816 0.0011922749 0.13458578 -0.11475752 -0.058662508 0.098804414 0.14806922 0.051592626
0.032972846 0.13982022 0.061515328 0.24052517 -0.18330656 0.0058032833 -0.14273532 0.098460615
-0.11885005 0.051101293 0.0038027654 -0.009065622 0.15431127 -0.1751688 0.07551641 0.046480358
-0.073466145 0.044587635 -0.053134296 -0.28973863 -0.21271709 -0.06154159 -0.07320234 0.17041391
-0.06062831 0.09397665 0.016936233 0.2706849 0.0011125607 0.12467175 0.0701554 -0.19909467
0.11270374 -0.084683836 -0.10955644 0.11339406 0.062000282 -0.05110534 0.10741076 -0.15604715
0.18134509 -0.037179597 -0.08258813 -0.1267147 0.038092636 -0.08985469 -0.0060185445 -0.18038766
0.061612274 0.1149578 0.071659595 0.06839946 -0.15121692 0.026968328 0.07856618 0.06326535
0.17501853 -0.010113701 0.15851448 -0.107451655 0.03152315 0.06733832 -0.20349401 -0.2239272
0.26939374 -0.2109598 -0.087757446 0.07960406 0.23121373 -0.23645137 -0.04789842 0.19841316
-0.05025841 -0.062370952 -0.15106115 -0.27416384 0.14466426 0.019287085 -0.043250546 -0.10632013
-0.05684839 -0.10645359 -0.12747373 -0.11705285 -0.19778852 -0.24490426 -0.03073253 -0.13548167
0.13419524 0.13589565 0.25001094 0.14229082 -0.101791106 -0.28490973 0.033656277 0.11862434
0.05533174 -0.010979556 -0.054889787 0.037590753 -0.20570959 0.1569533 -0.17769893 0.09503716
-0.057212442 -0.03581818 -0.008744703 -0.08976006 -0.07315244 0.23095837 0.042729337 -0.17990738
-0.016428305 -0.15691797 -0.10036706 -0.27612695 0.020125823 -0.19716391 0.12508088 -0.01910003
-0.036827292 0.15456122 0.10307875 -0.33394945 0.0023431638 -0.15988703 -0.20851943 -0.15326773
-0.09138362 0.13006738 0.08233565 -0.06505547 -0.1965982 -0.013808322 0.040577143 -0.22515765
-0.2890771 0.08329623 0.019822992 -0.111920014 0.121388696 0.049274415 -0.08965618 -0.059018698
-0.11955593 -0.19632597 -0.05772287 -0.21751666 0.15200098 -0.0586652 0.2000353 -0.063690245
-0.011521942 -0.04089567 0.09630113 0.07810783 0.053251963 -0.26730737 0.33599132 -0.013300756
-0.0489423 0.08613651 0.050914362 -0.20643544 0.045254998 -0.07588971 0.11292381 0.019823533
-0.04818231 0.046178613 -0.25683135 -0.10818468 -0.22217207 -0.109152116 -0.1897896 -0.3653157
-0.20437129 -0.079534985 -0.11709685 -0.00779423 0.045080546 -0.20925257 -0.07060003 0.08630808
00000000: 7989 9dbd 8b69 d93c 6068 f23d 7d5d eebd
00000010: c687 1b3d 93b2 d83d 8472 62bd 07da a9bd
00000020: 476a 82be 2912 33be e1d1 373a b69f 9f3d
00000030: c7ad 35be 468e 4cbe e6a3 05be af4e eebd
00000040: 8f64 f9b9 251e f63d 0391 153e 5ed6 b13c
00000050: 4a48 47bd db98 5abe 3423 6ebe 87ed c0bd
00000060: 1317 23be 893d 213e 8766 ef3d df51 803c
00000070: f35e 71be 0698 5fbe fc98 a8ba 9cd1 2cbd
00000080: 1d14 1bbd a11b 6abe 4520 57be 1a2c 18be
00000090: 00eb f53d 3971 8a3d 9681 303c bcfd 4fbd
000000a0: d560 1abe 9699 80bd 34a2 94bd ec2d 003e
000000b0: 1fe8 903c 430b 41bd 2f99 f7bd 0123 34be
000000c0: 8948 f7bd a1b7 18be 0373 563c fb2c 153e
000000d0: eb9c df3b 122e 893e cfe8 153e 99ec f8bd
000000e0: 6dd9 d73d 28cd c1bd ad33 86be 2d0c 373d
000000f0: 6890 a53d c033 d3bd bec2 a23d 793d 7ebe
00000100: 9461 263e 1b46 9c3a dbd0 093e fe05 ebbd
00000110: 1948 70bd f859 ca3d 759f 173e ca52 533d
00000120: 890e 073d 082d 0f3e 7ff7 7b3d 3b4c 763e
00000130: b7b4 3bbe 7829 be3b 3529 12be b8a5 c93d
00000140: a867 f3bd 974f 513d d137 793b fa87 14bc
00000150: c603 1e3e 735f 33be 59a8 9a3d 3062 3e3d
00000160: 6b75 96bd 86a1 363d 59a3 59bd 9f58 94be
00000170: 82d2 59be 0913 7cbd 1ceb 95bd fc80 2e3e
00000180: 6455 78bd d476 c03d dbbd 8a3c 3697 8a3e
00000190: 58d3 913a e753 ff3d a2ad 8f3d 79df 4bbe
000001a0: 38d1 e63d b86e adbd 205f e0bd 253b e83d
000001b0: 02f4 7d3d d553 51bd 2cfa db3d d3ca 1fbe
000001c0: 87b2 393e a249 18bd f723 a9bd 80c1 01be
000001d0: 0607 1c3d bc05 b8bd 3637 c5bb 8bb7 38be
000001e0: 275d 7c3d ff6e eb3d 44c2 923d 0415 8c3d
000001f0: 9cd8 1abe afec dc3c 4ee7 a03d 4491 813d
00000200: 0f38 333e f0b3 25bc 9f51 223e 9d0f dcbd
00000210: 6b1e 013d ace8 893d bc60 50be 2c4d 65be
00000220: faed 893e d905 58be 2dba b3bd 7407 a33d
00000230: 4bc3 6c3e 4f20 72be 2231 44bd d22c 4b3e
00000240: c3db 4dbd af78 7fbd c6af 1abe 345f 8cbe
00000250: de22 143e f3ff 9d3c 7c27 31bd 5ebe d9bd
00000260: dbd9 68bd 5704 dabd 7988 02be 68b9 efbd
00000270: 1389 4abe 2fc8 7abe c9c2 fbbc b5bb 0abe
00000280: 7a6a 093e 3b28 0b3e 6f01 803e afb4 113e
00000290: db77 d0bd b0df 91be 2adb 093d 51f1 f23d
000002a0: 89a3 623d 98e3 33bc 1dd4 60bd c3f8 193d
000002b0: 89a5 52be 5eb8 203e b5f6 35be d8a2 c23d
000002c0: 9857 6abd 15b6 12bd f145 0fbc 1fd4 b7bd
000002d0: f2d0 95bd 5a80 6c3e f504 2f3d a439 38be
000002e0: a794 86bc 1baf 20be 3f8d cdbd 8360 8dbe
000002f0: e9de a43c 56e5 49be 3415 003e ab77 9cbc
00000300: 37d8 16bd 4c45 1e3e f41a d33d 6cfb aabe
00000310: c48f 193b 6db9 23be 1e86 55be 37f2 1cbe
00000320: 5627 bbbd 6230 053e 989f a83d cd3b 85bd
00000330: 0a51 49be 4d3c 62bc 3834 263d ba8f 66be
00000340: ea01 94be 3797 aa3d d463 a23c 5236 e5bd
00000350: a39a f83d f8d3 493d a99d b7bd 97bd 71bd
00000360: bdd9 f4bd ad09 49be d16e 6cbd b0bc 5ebe
00000370: 25a6 1b3e ec4a 70bd 0ed6 4c3e 0870 82bd
00000380: 87c6 3cbc 3882 27bd 8739 c53d fff6 9f3d
00000390: bb1e 5a3d 83dc 88be 0e07 ac3e 6aeb 59bc
000003a0: b977 48bd 5768 b03d 948b 503d d063 53be
000003b0: 4e5d 393d 106c 9bbd 9944 e73d f664 a23c
000003c0: d05a 45bd c925 3d3d 667f 83be ee8f ddbd
000003d0: 1381 63be 258b dfbd 3458 42be a90a bbbe
000003e0: b546 51be 3de3 a2bd 79d0 efbd bd66 ffbb
000003f0: 61a6 383d 4e46 56be c096 90bd 4ac2 b03d

model.before.0.bias f4 [16]
0.037507143 0.017993048 0.07235267 -0.0062381956 -0.074756086 0.16115521 -0.031952772 0.042847507
0.13986132 0.073166244 -0.04065132 -0.08072447 0.06574629 0.21452864 0.0065466217 0.22363582
00000000: 17a1 193d 2866 933c a32d 943d c769 ccbb
00000010: b819 99bd df05 253e e9e0 02bd de80 2f3d
00000020: ce37 0f3e 2fd8 953d 0082 26bd df52 a5bd
00000030: fea5 863d 65ad 5b3e 0b85 d63b ca00 653e

model.before.2.weight f4 [16, 16, 5]
-0.007120048 0.014799311 -0.05405692 0.028715676 -0.092685975 0.015006195 0.14556353 0.13923296
-0.04234202 0.032803837 -0.005621177 -0.06545107 -0.059274357 -0.030384602 0.016049461 -0.019651229
0.15321486 0.0034896613 0.08038609 0.124421686 0.113874726 0.05637455 0.05236587 -0.030541496
0.030242514 -0.09211317 -0.07253434 0.04883643 0.11960174 0.09696666 0.06828828 0.039419703
0.073916584 0.11661419 0.16451277 0.07956703 0.07104163 0.011358448 0.0429337 0.06840703
-0.040948678 0.11053502 -0.06996354 0.0820204 0.094375476 -0.0008211465 -0.07365606 -0.10227403
-0.028331589 -0.024599224 -0.016898284 0.07578978 0.10196603 -0.10076154 -0.077989474 0.049650066
-0.026454823 -0.09055649 0.039888974 0.04300842 -0.064810924 -0.120931916 -0.11012352 -0.17798741
-0.14286788 0.071518086 0.0922315 0.06514223 0.031095248 0.009025162 -0.13517848 -0.094384335
0.022417488 -0.038663857 0.061825898 -0.023360271 0.04262387 0.08011497 -0.032536812 0.105491556
-0.04645108 -0.045516316 -0.011696079 -0.052100454 -0.07156749 0.08243111 0.11686603 0.11693379
0.040090084 -0.059825245 0.03439757 -0.066512175 0.02669848 0.054933593 -0.014966097 -0.13830607
-0.108196296 0.008088132 0.056572527 -0.05921815 -0.021413488 -0.0030954122 0.015819434 -0.026552899
-0.12268594 -0.15491793 -0.06822982 0.06536896 0.049026288 0.14311886 -0.06023336 -0.1265102
0.10408441 0.121638 -0.038603872 -0.07536249 -0.015657142 0.035232205 -0.05593013 0.020891622
-0.17288864 -0.18798381 -0.04675555 0.004477772 0.07545999 -0.061678316 -0.077273495 0.13344818
0.022793539 0.050291497 -0.04274348 0.005538108 0.14700392 0.14547119 -0.046592966 -0.15416126
-0.049242124 -0.11139245 -0.08519292 0.07629868 -0.08478132 0.04771354 0.113020696 0.024433307
0.060002413 0.03048128 -0.012321568 0.09267331 0.06050875 -0.020482818 -0.08802384 -0.03183571
-0.087726384 0.111962356 0.1774976 0.03163025 -0.12814961 0.06848838 0.09037027 0.16099411
-0.12150029 -0.010959225 -0.19698721 0.085655734 -0.10945848 -0.05049428 -0.15455921 0.03289255
-0.09268979 0.05077017 0.0091514 -0.08998913 -0.07556238 -0.07390253 0.0980196 0.008125171
0.06654328 -0.04573987 0.07782396 -0.064157605 -0.23852596 -0.19681326 -0.15049474 -0.14577146
-0.13589458 0.031766728 -0.0095123695 0.05486852 -0.03383289 0.06911569 0.0352864 -0.13853358
0.06734837 -0.033449944 -0.05007255 0.04501425 -0.034226406 0.06053727 0.07089588 0.019443274
0.018769216 -0.14631927 -0.03386885 -0.008097348 -0.14238012 -0.07933397 -0.01425382 0.007373048
-0.055494018 0.03501259 0.07316091 0.030449511 0.02643242 -0.12041728 0.0025635525 -0.16553754
0.014580492 -0.23600546 -0.024779955 0.0014603317 0.03998922 0.044535954 0.12727721 0.05328236
0.039303012 -0.010134894 0.05485534 0.0019033821 -0.058259293 0.098260574 0.0457423 -0.019659432
0.04197626 0.10549314 0.10879478 -0.0043041203 0.06978516 0.10971415 0.16916962 0.17345615
-0.036761038 0.027499449 0.23056392 0.18171978 0.11188223 -0.0107552735 0.040272728 -0.07726163
0.023737162 -0.026182039 -0.04472246 0.013479643 0.05897116 0.053571373 0.013249048 -0.022885071
00000000: 4b4f e9bb cf78 723c ca6a 5dbd 233d eb3c
00000010: 25d2 bdbd 8bdc 753c 9b0e 153e 1693 0e3e
00000020: d36e 2dbd 515d 063d da31 b8bb 360b 86bd
00000030: abc9 72bd 21e9 f8bc 297a 833c 9dfb a0bc
00000040: 5be4 1c3e cdb2 643b 76a1 a43d ccd0 fe3d
00000050: 2737 e93d 00e9 663d 987d 563d 2932 fabc
00000060: 26bf f73c d4a5 bcbd e28c 94bd b508 483d
00000070: c2f1 f43d 7596 c63d bada 8b3d 8e76 213d
00000080: 9461 973d 6cd3 ee3d 0976 283e 0af4 a23d
00000090: 467e 913d c918 3a3c 3fdb 2f3d fc18 8c3d
000000a0: cdb9 27bd 2f60 e23d 0b49 8fbd 50fa a73d
000000b0: ee47 c13d 3542 57ba fdd8 96bd 0c75 d1bd
000000c0: a617 e8bc 5084 c9bc 456e 8abc ac37 9b3d
000000d0: 91d3 d03d 115c cebd f2b8 9fbd de5d 4b3d
000000e0: c9b7 d8bc ae75 b9bd 9f62 233d 9929 303d
000000f0: 97bb 84bd 27ab f7bd 7188 e1bd 5542 36be
00000100: f54b 12be 1378 923d dee3 bc3d 4a69 853d
00000110: 76bb fe3c 46de 133c 3a6c 0abe 934c c1bd
00000120: e1a4 b73c fe5d 1ebd 273d 7d3d 0a5e bfbc
00000130: 5e96 2e3d 5113 a43d 5245 05bd f50b d83d
00000140: 7d43 3ebd 516f 3abd e9a0 3fbc 4967 55bd
00000150: fa91 92bd a4d1 a83d 7557 ef3d fc7a ef3d
00000160: 8035 243d 510b 75bd 77e4 0c3d 8937 88bd
00000170: c5b6 da3c 0c02 613d 5c34 75bc 1ba0 0dbe
00000180: 0596 ddbd 1684 043c 98b8 673d bb8e 72bd
00000190: 576b afbc 66dc 4abb c297 813c 7785 d9bc
000001a0: c442 fbbd cea2 1ebe 13bc 8bbd 29e0 853d
000001b0: cacf 483d c08d 123e 41b7 76bd e48b 01be
000001c0: 352a d53d 581d f93d 181f 1ebd a657 9abd
000001d0: 6843 80bc a54f 103d fe16 65bd e824 ab3c
000001e0: b809 31be d47e 40be bf82 3fbd 46ba 923b
000001f0: c48a 9a3d 67a2 7cbd 9141 9ebd a4a6 083e
00000200: 84b9 ba3c 75fe 4d3d ca13 2fbd 0479 b53b
00000210: 3288 163e 66f6 143e 44d8 3ebd 73dc 1dbe
00000220: 1cb2 49bd ba21 e4bd a079 aebd 7b42 9c3d
00000230: d4a1 adbd 466f 433d 6577 e73d 5c28 c83c
00000240: 17c5 753d e1b3 f93c 67e0 49bc 81cb bd3d
00000250: 06d8 773d 95cb a7bc d845 b4bd 2966 02bd
00000260: e4a9 b3bd 854c e53d eec1 353e b98e 013d
00000270: a739 03be a343 8c3d 0c14 b93d a4db 243e
00000280: 25d5 f8bd 528e 33bc 04b7 49be 466c af3d
00000290: c42b e0bd 17d3 4ebd c544 1ebe 57ba 063d
000002a0: 25d4 bdbd 62f4 4f3d c1ef 153c 394c b8bd
000002b0: 73c0 9abd 365a 97bd 80be c83d 701f 053c
000002c0: d847 883d bb59 3bbd 2b62 9f3d 1065 83bd
000002d0: 2640 74be 6a89 49be 4b1b 1abe 1d45 15be
000002e0: f327 0bbe d41d 023d c5d9 1bbc d0bd 603d
000002f0: 5b94 0abd 878c 8d3d 7988 103d bfdb 0dbe
00000300: f1ed 893d cf02 09bd e018 4dbd dd60 383d
00000310: fd30 0cbd eef5 773d dc31 913d 8047 9f3c
00000320: e6c1 993c b8d4 15be 10ba 0abd bdaa 04bc
00000330: 18cc 11be d979 a2bd db88 69bc 9c99 f13b
00000340: b24d 63bd 5d69 0f3d 63d5 953d 4171 f93c
00000350: cd88 d83c 569d f6bd 4601 283b ac82 29be
00000360: 04e3 6e3c 6aab 71be 55ff cabc 9a68 bf3a
00000370: bdcb 233d 556b 363d f554 023e 9b3e 5a3d
00000380: 32fc 203d d40c 26bc feaf 603d e87a f93a
00000390: 4ca1 6ebd d73c c93d 475c 3b3d d10c a1bc
000003a0: 4cef 2b3d ca0c d83d cccf de3d 9409 8dbb
000003b0: 86eb 8e3d d0b1 e03d cd3a 2d3e 7d9e 313e
000003c0: be92 16bd 8646 e13c f318 6c3e c014 3a3e
000003d0: 8322 e53d e336 30bc 04f5 243d 583b 9ebd
000003e0: 7074 c23c b77b d6bc e62e 37bd b8d9 5c3c
000003f0: be8b 713d a86d 5b3d 8912 593c 7979 bbbc

model.before.2.bias f4 [16]
0.07443491 -0.04164883 -0.062055282 0.015757276 0.06472431 0.09747961 -0.029856734 -0.032160863
0.09053403 -0.06946719 -0.049187623 -0.023887718 -0.004321604 0.0710382 0.0068814345 0.061485473
00000000: 5571 983d f797 2abd ae2d 7ebd 6715 813c
00000010: 2e8e 843d 64a3 c73d 1c96 f4bc 1cbb 03bd
00000020: e869 b93d d044 8ebd f678 49bd 2db0 c3bc
00000030: 3e9c 8dbb 7a7c 913d a87d e13b 31d8 7b3d

model.before.4.weight f4 [32, 16, 5]
0.06779982 -0.08397598 -0.047250986 -0.035858206 0.06822806 -0.030706208 -0.117097795 -0.08159175
-0.03926952 -0.12239525 -0.022801807 -0.039246053 0.0014895133 -0.07145613 -0.0107901655 -0.12868914
-0.24798386 -0.20693225 -0.26270574 -0.22901234 0.03885941 -0.00988427 0.07495191 0.041618116
0.11886939 0.059188567 -0.005470158 -0.020305382 0.13765357 0.04453309 -0.047441922 -0.16420692
-0.09347681 -0.062398054 0.017609043 -0.03158166 -0.058645874 -0.050496835 -0.1420675 -0.16171941
0.15276726 0.15848424 0.1729393 -0.047599047 0.09022978 -0.17514059 0.05282318 0.02549897
0.08774512 -0.05840609 0.0961839 0.026212636 0.0054894816 -0.011569008 0.06560421 -0.075129084
-0.059090197 0.05179549 0.03866762 -0.1483186 0.08896547 -0.10269703 -0.11724629 -0.04173701
-0.03602422 0.018293295 0.086009584 0.10278376 -0.024058761 0.08011732 0.0012403388 0.0026947437
0.013222938 0.02036995 -0.05639242 -0.041105416 0.03542021 -0.1137469 -0.046020705 -0.036695596
0.071513936 -0.019877726 0.028633183 -0.061959952 0.07343194 0.13335025 0.11168193 -0.046203572
-0.1133745 -0.013564425 0.084357254 0.004525695 -0.06762546 0.0008551529 -0.15862414 0.13792776
0.078275554 0.041181255 0.03562679 0.0019106151 0.020746099 0.030048877 -0.10936788 -0.10531468
0.022206606 -0.023287693 -0.050599035 0.020549884 -0.015137418 0.04327262 0.039295107 -0.038241804
-0.11493069 -0.15530993 -0.17814158 0.14824244 -0.0119913565 -0.09160989 -0.115663804 -0.12208583
-0.110576056 -0.00061964366 -0.053567342 -0.03015325 0.063988246 0.059662692 0.027502064 0.05752409
0.11154632 -0.12308903 -0.0817285 -0.06644422 -0.09519549 -0.12963955 0.039970953 0.27319598
0.26681343 0.09702641 0.095645495 0.17648648 0.114316635 -0.0846824 0.042395514 0.01479553
-0.03463555 0.06716865 0.027833639 0.009602444 -0.06005544 0.034436654 0.11810498 -0.0532521
0.080098666 0.106635995 -0.022409026 0.13273488 0.051180195 0.1649317 -0.025884688 0.114048086
0.0030710972 0.15827218 0.13065052 0.0017863748 0.16931337 0.09299757 0.036742598 -0.032022454
0.1686438 0.059651062 0.031575143 -0.050650984 -0.04518442 -0.025964007 -0.043787718 0.09336532
-0.030464143 0.16352674 0.15045896 0.090092674 0.1207357 0.035511058 -0.0002658956 -0.01928713
0.0944719 -0.030743854 -0.042536695 -0.015955478 0.005449079 0.05035398 0.017156485 0.113177635
0.14183462 0.09594327 -0.023323288 0.08306794 0.106609784 0.14082636 0.11999854 -0.041802775
-0.0020535088 -0.04652533 0.05635097 0.043137364 0.019743029 0.17695293 0.18746616 0.050097067
0.061310913 0.27082884 -0.040873595 0.030276807 -0.038464285 0.042023957 0.12340575 0.16198166
0.19713649 0.019736208 0.08849783 0.02444236 0.093315445 0.12044039 0.09097225 0.026954915
0.050823197 0.03652997 -0.059833907 -0.106963985 -0.09759262 -0.051413864 0.031080654 -0.073724285
0.084732406 0.014939749 0.08869732 0.057917815 0.04249308 0.022835571 0.031246858 -0.0024435862
0.059151657 0.10214334 -0.0058985054 0.04362499 -0.098786294 -0.009492983 0.07086809 -0.05008376
0.01206462 0.05283175 0.034234855 -0.06888335 -0.06101965 -0.113761246 -0.0962635 0.0698201
00000000: a2da 8a3d 99fb abbd 408a 41bd 0ee0 12bd
00000010: 27bb 8b3d 968b fbbc f8d0 efbd 9319 a7bd
00000020: 14d9 20bd 5caa fabd dbca babc 78c0 20bd
00000030: c63b c33a 9757 92bd 3cc9 30bc 16c7 03be
00000040: 7bef 7dbe 0ce6 53be 5e81 86be 3682 6abe
00000050: 0b2b 1f3d a2f1 21bc 6380 993d c277 2a3d
00000060: cb71 f33d b66f 723d 033f b3bb 7957 a6bc
00000070: 0ff5 0c3e 5468 363d 7652 42bd dc25 28be
00000080: c570 bfbd 1a95 7fbd d740 903c c55b 01bd
00000090: a836 70bd c5d5 4ebd 257a 11be c699 25be
000000a0: 056f 1c3e b149 223e 0017 313e 38f7 42bd
000000b0: 64ca b83d 0e58 33be 1e5d 583d 37e3 d03c
000000c0: b7b3 b33d 393b 6fbd 11fc c43d e2bb d63c
000000d0: 1ce1 b33b f08b 3dbc 805b 863d 47dd 99bd
000000e0: 9008 72bd 8227 543d f061 1e3d d5e0 17be
000000f0: 8733 b63d d252 d2bd d31e f0bd 6df4 2abd
00000100: 228e 13bd d2db 953c cb25 b03d 4b80 d23d
00000110: e116 c5bc 8d14 a43d dd92 a23a 4c9a 303b
00000120: 06a5 583c e2de a63c bdfb 66bd 275e 28bd
00000130: c814 113d 22f4 e8bd 3580 3cbd 1f4e 16bd
00000140: e675 923d 9dd6 a2bc 2390 ea3c b8c9 7dbd
00000150: 7c63 963d f88c 083e 7fb9 e43d f53f 3dbd
00000160: e430 e8bd 523d 5ebc 7fc3 ac3d 484c 943b
00000170: 387f 8abd 572c 603a 5e6e 22be ef3c 0d3e
00000180: ef4e a03d adad 283d 66ed 113d 9b6d fa3a
00000190: b9f3 a93c 1029 f63c 44fc dfbd 39af d7bd
000001a0: a1ea b53c d5c5 bebc ef40 4fbd 3b58 a83c
000001b0: ef02 78bc a13e 313d e8f3 203d 70a3 1cbd
000001c0: c860 ebbd 9109 1fbe bf6a 36be decc 173e
000001d0: 6577 44bc f79d bbbd 25e1 ecbd 2308 fabd
000001e0: b375 e2bd 956f 22ba 6e69 5bbd f303 f7bc
000001f0: 450c 833d de60 743d 024c e13c 619e 6b3d
00000200: 6672 e43d 1a16 fcbd 4661 a7bd e813 88bd
00000210: daf5 c2bd 3bc0 04be 95b8 233d 58e0 8b3e
00000220: c59b 883e c8b5 c63d c9e1 c33d dfb8 343e
00000230: d71e ea3d f76d adbd eba6 2d3d f368 723c
00000240: 02de 0dbd b88f 893d 5f03 e43c 9253 1d3c
00000250: b1fc 75bd 730d 0d3d 06e1 f13d e01e 5abd
00000260: c50a a43d f963 da3d 2293 b7bc a7eb 073e
00000270: 53a2 513d dbe3 283e 200c d4bc 0b92 e93d
00000280: 7644 493b 1a12 223e 40c9 053e cb24 ea3a
00000290: 7c60 2d3e 8375 be3d 687f 163d fa29 03bd
000002a0: f6b0 2c3e ac54 743d f054 013d 6877 4fbd
000002b0: 4c13 39bd 78b2 d4bc c05a 33bd 5136 bf3d
000002c0: f08f f9bc 8e73 273e ea11 1a3e 8282 b83d
000002d0: 4744 f73d 0b74 113d e767 8bb9 0b00 9ebc
000002e0: 7c7a c13d 89da fbbc f53a 2ebd 10b5 82bc
000002f0: 308e b23b fa3f 4e3d c28b 8c3c adc9 e73d
00000300: 183d 113e e87d c43d 7b10 bfbc 861f aa3d
00000310: 3b56 da3d c934 103e cbc1 f53d 6339 2bbd
00000320: 2994 06bb 5891 3ebd 46d0 663d ceb0 303d
00000330: 22bc a13c 2633 353e 21f7 3f3e 9532 4d3d
00000340: 2721 7b3d 14aa 8a3e 126b 27bd 1107 f83c
00000350: ba8c 1dbd 5021 2c3d 27bc fc3d 85de 253e
00000360: 26de 493e d4ad a13c 5a3e b53d 583b c83c
00000370: 2b1c bf3d 74a9 f63d a94f ba3d 8ed0 dc3c
00000380: fc2b 503d 73a0 153d 6614 75bd ef0f dbbd
00000390: a4de c7bd 5897 52bd db9c fe3c c2fc 96bd
000003a0: 2f88 ad3d d9c5 743c f1a6 b53d 3b3b 6d3d
000003b0: 390d 2e3d aa11 bb3c 69f9 ff3c 9324 20bb
000003c0: 0249 723d 8730 d13d 4048 c1bb 1eb0 323d
000003d0: 7850 cabd 7588 1bbc 4a23 913d a124 4dbd
000003e0: afaa 453c 1b66 583d d939 0c3d b712 8dbd
000003f0: beef 79bd a8fb e8bd cc25 c5bd d7fd 8e3d

model.before.4.bias f4 [32]
0.081906766 0.042966742 -0.04635909 -0.1274792 0.085073695 -0.100513496 -0.10605389 0.017719569
0.074066296 0.051279347 -0.085401304 0.015134884 0.18513218 0.104251385 -0.025000194 -0.02450272
-0.103093594 0.0791458 0.017758593 -0.04820096 0.033933025 -0.100221135 -0.032503646 0.069882445
0.09002327 0.0060360674 -0.08643176 0.06132691 0.08025961 0.09257083 -0.114461064 0.0647164
00000000: bcbe a73d e5fd 2f3d 07e3 3dbd e889 02be
00000010: 1e3b ae3d 05da cdbd c832 d9bd a128 913c
00000020: 12b0 973d 4b0a 523d e1e6 aebd 4ef8 773c
00000030: 4a93 3d3e c081 d53d 35cd ccbc eeb9 c8bc
00000040: bc22 d3bd 3117 a23d 787a 913c 5f6e 45bd
00000050: 5bfd 0a3d bd40 cdbd 8b22 05bd 871e 8f3d
00000060: 1f5e b83d 34ca c53b 2203 b1bd ed31 7b3d
00000070: 275f a43d c695 bd3d 906a eabd 088a 843d

model.after.0.weight f4 [16, 32, 5]
0.04360003 -0.0042893705 -0.071877785 -0.0004779178 -0.09528489 -0.035128865 0.071094416 0.09572473
0.083030894 0.059795722 -0.12905893 -0.119174235 -0.0879851 -0.122074865 -0.044466596 0.043993447
0.068723 -0.0064514913 0.036846977 0.13832065 0.07984888 0.024991754 -0.0813093 -0.051760413
0.04527634 0.05114642 0.09205185 -0.035928525 0.044025246 0.12051274 -0.061763473 -0.045271795
-0.0960656 -0.015110635 -0.094413936 -0.024061136 0.060791336 -0.02699056 0.06450107 0.006182354
0.07420437 0.015214873 -0.05201406 -0.014193641 0.09707357 -0.07543167 0.017990083 0.031490266
0.06155896 -0.05243308 0.060379744 -0.004242688 -0.064305715 -0.03513401 -0.021355636 -0.096491955
0.031561337 -0.09737103 0.0066085784 0.053114302 -0.07095385 -0.06375977 -0.08936681 -0.074539796
-0.0401911 -0.022655014 -0.06213156 -0.04893306 0.035453416 -0.014410683 0.07753386 0.13154204
0.06926657 0.12496022 0.08433092 -0.0012810276 0.081190966 -0.057532083 0.03201031 -0.13344774
0.0061288793 0.09174914 0.059328504 0.022234324 0.077343814 0.10717078 0.00028629528 0.025810642
-0.03182013 0.038712777 0.14407203 0.09199256 0.08781402 0.019572534 0.078369714 0.071302086
0.06749529 0.07542974 0.07741221 0.1030698 0.032687254 -0.054441616 -0.06435901 -0.029172275
-0.087799095 -0.053005338 -0.06935267 -0.10882511 -0.13724658 -0.09449573 -0.17681117 -0.11008474
-0.123730235 -0.0875736 -0.1632756 -0.059182044 0.075608954 0.021894086 0.093205534 -0.020087713
-0.13073029 -0.02197484 0.060910158 0.10161397 0.03239096 0.018193621 0.0676947 -0.013390616
0.03941064 0.094708644 -0.04464417 -0.026920658 -0.069260314 -0.05352022 0.072992705 0.05455908
0.076913334 0.029019417 0.0742566 -0.034857403 -0.086276874 0.041984573 -0.017183194 -0.085039556
-0.05990721 0.032292265 -0.03191345 -0.032376006 0.064608395 0.10740586 -0.065345936 -0.041307602
0.03682421 -0.0023868696 0.07449763 -0.052231975 0.016083678 0.0711686 0.047869213 -0.0036148983
-0.008838457 -0.0016224398 -0.044844426 0.047962062 0.057724528 -0.019076256 0.07365255 -0.03918278
0.075470224 -0.07752962 -0.030752858 0.07434864 0.035409674 0.075627215 0.08380437 -0.10836689
-0.023655081 -0.07313123 -0.0645401 0.024035761 -0.054686632 -0.028137004 0.05774303 0.022092406
-0.015243751 0.036061034 -0.015627602 0.07566687 0.091953285 0.013546322 0.0017505143 -0.035853766
-0.03435269 0.05871693 0.11456584 -0.060001325 -0.0027527357 0.04129428 0.0328893 -0.058996417
-0.007898707 -0.07073708 -0.09827804 -0.011629704 0.036011007 0.023231758 -0.06049042 0.06785787
-0.037847903 -0.016903229 -0.04075157 0.00559974 -0.0923826 0.040958352 0.013030834 0.010651556
-0.11595348 0.0018684303 -0.01595418 -0.09341686 -0.05272768 0.11059386 0.015657278 0.017289827
-0.057208836 -0.11362699 0.045564692 -0.048544113 -0.011797451 -0.071371816 -0.1467083 -0.09718397
-0.15249369 -0.13052648 0.02905204 0.030366512 0.09051025 0.06631204 0.103620544 0.013319243
-0.080137536 -0.06559334 -0.100059815 -0.06245287 -0.10074682 0.08937126 -0.047415216 -0.07107948
-0.019042185 -0.07357815 0.059516534 0.027203131 -0.026805494 0.041009415 -0.02162448 -0.07370363
00000000: f295 323d d98d 8cbb a934 93bd 0b91 fab9
00000010: b924 c3bd 49e3 0fbd f399 913d 540b c43d
00000020: 1a0c aa3d 5cec 743d 0628 04be 9f11 f4bd
00000030: 8831 b4bd 6302 fabd 9b22 36bd 7932 343d
00000040: a5be 8c3d 0867 d3bb dbec 163d eea3 0d3e
00000050: cf87 a33d 82bb cc3c 7e85 a6bd ba02 54bd
00000060: af73 393d e97e 513d ae85 bc3d ca29 13bd
00000070: d153 343d 62cf f63d b2fb 7cbd eb6e 39bd
00000080: 0bbe c4bd 9992 77bc 185c c1bd dc1b c5bc
00000090: 5600 793d 4f1b ddbc 2319 843d 5895 ca3b
000000a0: 76f8 973d cd47 793c b20c 55bd 728c 68bc
000000b0: 82ce c63d eb7b 9abd f05f 933c f0fb 003d
000000c0: 3f25 7c3d 12c4 56bd c050 773d 3f06 8bbb
000000d0: b7b2 83bd aee8 0fbd 04f2 aebc 939d c5bd
000000e0: 7646 013d 766a c7bd c68c d83b 628e 593d
000000f0: 4150 91bd 7b94 82bd f205 b7bd 52a8 98bd
00000100: 6c9f 24bd 0297 b9bc aa7d 7ebd 086e 48bd
00000110: 9a37 113d c91a 6cbc 13ca 9e3d f5b2 063e
00000120: a2db 8d3d 25eb ff3d b0b5 ac3d 27e8 a7ba
00000130: 7347 a63d c3a6 6bbd 3e1d 033d 86a6 08be
00000140: c4d4 c83b f9e6 bb3d 7202 733d c224 b63c
00000150: 6f66 9e3d 5b7c db3d e719 9639 d770 d33c
00000160: d355 02bd 4a91 1e3d 9e87 133e 9866 bc3d
00000170: d6d7 b33d 9456 a03c 4d80 a03d d406 923d
00000180: f83a 8a3d e87a 9a3d 4b8a 9e3d 4216 d33d
00000190: 12e3 053d 2cfe 5ebd a8ce 83bd b2fa eebc
000001a0: 03d0 b3bd 201c 59bd c608 8ebd b3df debd
000001b0: 5e8a 0cbe fa86 c1bd fd0d 35be 1c74 e1bd
000001c0: 4766 fdbd ca59 b3bd b831 27be df68 72bd
000001d0: ded8 9a3d 3a5b b33c 8be2 be3d fd8e a4bc
000001e0: 29de 05be 9404 b4bc ee7c 793d fc1a d03d
000001f0: 62ac 043d ca0a 953c 85a3 8a3d 5064 5bbc
00000200: 0d6d 213d 9bf6 c13d cedc 36bd b688 dcbc
00000210: 5ad8 8dbd 0538 5bbd 337d 953d 5879 5f3d
00000220: bd84 9d3d 21ba ed3c d813 983d a3c6 0ebd
00000230: eeb1 b0bd 04f8 2b3d c5c3 8cbc 3829 aebd
00000240: 4361 75bd e544 043d aeb7 02bd b49c 04bd
00000250: 6851 843d 9bf7 db3d 17d4 85bd 2932 29bd
00000260: fcd4 163d 076d 1cbb 3792 983d 32f1 55bd
00000270: ebc1 833c d8c0 913d 8212 443d eee7 6cbb
00000280: 2dcf 10bc 0ca8 d4ba caae 37bd de73 443d
00000290: 8e70 6c3d cf45 9cbc 26d7 963d 1f7e 20bd
000002a0: 2290 9a3d d9c7 9ebd 6bed fbbc 1a44 983d
000002b0: bc09 113d 71e2 9a3d a0a1 ab3d 76ef ddbd
000002c0: 4dc8 c1bc d4c5 95bd 9a2d 84bd a5e6 c43c
000002d0: 17ff 5fbd 937f e6bc f583 6c3d 22fb b43c
000002e0: edc0 79bc bcb4 133d 7505 80bc 3bf7 9a3d
000002f0: 0152 bc3d 64f1 5d3c 8371 e53a 66db 12bd
00000300: 68b5 0cbd 2a81 703d 7fa1 ea3d f3c3 75bd
00000310: 3e67 34bb 3124 293d eeb6 063d 3aa6 71bd
00000320: 9469 01bc 9ade 90bd ff45 c9bd 848a 3ebc
00000330: 4780 133d 8750 be3c cdc4 77bd 11f9 8a3d
00000340: 6706 1bbd a478 8abc 1eeb 26bd 067e b73b
00000350: 1733 bdbd f2c3 273d 477f 553c dd83 2e3c
00000360: 0579 edbd 1ee6 f43a 57b2 82bc 5751 bfbd
00000370: fbf8 57bd 097f e23d b143 803c 65a3 8d3c
00000380: d053 6abd 44b5 e8bd 0ba2 3a3d 31d6 46bd
00000390: 194a 41bc 632b 92bd b33a 16be 6408 c7bd
000003a0: 4e27 1cbe bca8 05be 8bfe ed3c 31c3 f83c
000003b0: 705d b93d 9bce 873d 0237 d43d f438 5a3c
000003c0: 261f a4bd cd55 86bd 29ec ccbd 95ce 7fbd
000003d0: 5954 cebd 4708 b73d 7536 42bd 1e92 91bd
000003e0: 5bfe 9bbc 24b0 96bd 9cc7 733d 1ad9 de3c
000003f0: 3297 dbbc 7df9 273d d225 b1bc eef1 96bd

model.after.0.bias f4 [16]
0.025152639 0.02977159 0.033335857 -0.0068037254 0.004461681 -0.008219874 -0.1030854 -0.062447824
0.062406357 -0.04788496 0.0003631266 -0.00023680141 -0.0047350116 -0.03833433 0.014899244 -0.04648081
00000000: e80c ce3c 8de3 f33c 2e8b 083d c9f1 debb
00000010: 4b33 923b a7ac 06bc 701e d3bd 4ac9 7fbd
00000020: cf9d 7f3d 0523 44bd 0762 be39 e54d 78b9
00000030: 2828 9bbb 7504 1dbd f51b 743c a962 3ebd

model.after.2.weight f4 [16, 16, 5]
-0.38686654 -0.3141607 -0.10288607 -0.2091827 -0.15001501 -0.21073277 -0.00900435 0.034785517
0.17236944 0.47177002 0.1236867 0.2554729 0.13174285 0.18303491 0.02806251 0.19404604
0.46557185 0.44146082 0.27260035 0.14332293 -0.7174586 0.08897705 0.47608036 0.5190232
0.36778542 -0.014810302 -0.22140525 -0.29068685 -0.5022786 -0.6362398 0.3041791 0.4030781
0.3045581 0.073022574 -0.04098423 -0.34957477 -0.12180983 0.0378322 0.21889053 0.24525678
0.41856083 0.09917452 0.16109541 0.1970113 0.3998039 0.09719774 0.034498226 0.11011944
0.058269672 -0.0670704 -0.49498293 -0.2344734 -0.18305385 -0.0806725 -0.0397316 -0.21442924
0.088078514 0.038857106 0.053816378 -0.002037423 0.052386332 0.1032787 0.2659028 0.32126322
0.46897045 0.028809186 0.0016794198 -0.029774683 -0.10691742 -0.040257156 0.044989247 0.13474911
0.13403207 0.11179736 0.29923558 -0.017663097 -0.04324366 -0.034459103 0.100892544 0.087207004
-0.13528942 0.02502094 -0.17546864 -0.07268316 -0.13263181 0.032187786 -0.17702958 -0.18997781
-0.22687718 -0.2498849 -0.06648141 0.103322394 -0.08291411 0.11840841 -0.023551049 0.028025884
-0.094423555 -0.031736486 -0.14713486 -0.17520602 0.04344293 -0.010842936 -0.10228236 -0.18782353
-0.2171203 0.03494324 0.018749854 0.14109552 0.038730696 0.12316651 -0.057275385 0.037759524
0.11731124 0.07718715 -0.066667244 -0.086351424 -0.079014726 -0.13927379 0.056983083 -0.15622018
-0.13498695 -0.23215017 -0.08240173 -0.1549121 -0.004869584 0.035559084 0.07547148 0.0383142
0.117215976 -0.039081905 -0.00032543435 -0.094422646 -0.11967552 -0.12046402 -0.07912112 -0.068817526
-0.1254784 0.00686671 -0.018345872 -0.13031118 -0.23179628 -0.019222468 -0.1011234 0.08880859
-0.09478101 -0.06545476 0.056079954 -0.057054188 -0.17820606 -0.1473688 -0.009307814 -0.045584474
-0.10180015 0.005255802 0.043528285 0.046585716 0.23683755 0.22162312 0.20103419 0.12310398
0.16016202 0.0070802085 0.034752145 0.018741079 0.030141892 -0.011011307 0.108433425 -0.0062214495
0.15638931 0.22911443 -0.023208532 -0.0065833884 0.047962 -0.06948778 0.013000459 0.3827504
0.16883077 0.2676995 0.021056827 -0.11004344 0.22007254 0.05502979 0.20101857 0.090107694
0.1745875 0.18574424 0.1937765 -0.04365746 0.0972027 0.019194303 0.07594164 -0.007464477
0.07339324 0.051952247 0.071130544 0.09632209 0.12280389 0.17924039 -0.047217444 0.023416357
-0.042170167 0.08693998 0.11031302 0.19551931 0.11768569 -0.101837344 -0.03585234 -0.023710104
-0.029187081 0.0221668 0.19837326 0.08672875 0.0018954923 0.09486866 -0.15748456 -0.0391935
-0.031077988 -0.053887896 0.023580711 -0.09403054 0.031048791 0.108937144 0.17386876 0.024831742
0.11791737 0.21555626 0.046601232 -0.03832109 -0.02234632 -0.07450209 0.014122136 0.08331772
0.17501736 0.19552678 0.11565156 0.039918177 -0.014588222 -0.117187284 -0.024578968 -0.16511343
-0.18496253 -0.20061 -0.19507334 -0.14869557 -0.03954288 -0.090184204 -0.09693923 -0.024155162
-0.031057384 -0.081220776 -0.009234606 0.09177128 0.1010104 -0.032634195 0.061293237 -0.14144346
00000000: 5f13 c6be acd9 a0be efb5 d2bd fd33 56be
00000010: 899d 19be 55ca 57be fb86 13bc 427b 0e3d
00000020: 9d81 303e d78b f13e 744f fd3d 58cd 823e
00000030: 99e7 063e 816d 3b3e 59e3 e53c 01b4 463e
00000040: 6f5f ee3e 2707 e23e 4692 8b3e 3fc3 123e
00000050: 5eab 37bf 9939 b63d cec0 f33e b4de 043f
00000060: 5f4e bc3e e9a6 72bc 0fb8 62be e8d4 94be
00000070: 5595 00bf 9de0 22bf 5dbd 9b3e 4160 ce3e
00000080: 0aef 9b3e dc8c 953d 14df 27bd 77fb b2be
00000090: 6f77 f9bd f0f5 1a3d d724 603e 9824 7b3e
000000a0: 9b4d d63e 031c cb3d 32f6 243e 55bd 493e
000000b0: 19b3 cc3e 9c0f c73d 034e 0d3d 4d86 e13d
000000c0: 2eac 6e3d 355c 89bd 676e fdbe cc19 70be
000000d0: 7872 3bbe a037 a5bd 9abd 22bd 5793 5bbe
000000e0: 8262 b43d a128 1f3d 906e 5c3d 4986 05bb
000000f0: 0d93 563d c883 d33d 6924 883e 9d7c a43e
00000100: e51c f03e 3e01 ec3c fa1f dc3a 09ea f3bc
00000110: 85f7 dabd b0e4 24bd a546 383d acfb 093e
00000120: b43f 093e 04f6 e43d 6835 993e 33b2 90bc
00000130: 4420 31bd fd24 0dbd c0a0 ce3d 9699 b23d
00000140: 4f89 0abe b7f8 cc3c 0dae 33be e9da 94bd
00000150: a2d0 07be 57d7 033d 3e47 35be 8b89 42be
00000160: 7e52 68be d4e1 7fbe 6827 88bd b19a d33d
00000170: dfce a9bd 1c80 f23d 21ee c0bc 8a96 e53c
00000180: 2361 c1bd 1efe 01bd 85aa 16be 3569 33be
00000190: 37f1 313d 92a6 31bc 6a79 d1bd d054 40be
000001a0: c954 5ebe a520 0f3d 4b99 993c 587b 103e
000001b0: 14a4 1e3d b93e fc3d 9899 6abd bba9 1a3d
000001c0: e040 f03d 4c14 9e3d d688 88bd 04d9 b0bd
000001d0: 79d2 a1bd ca9d 0ebe 1867 693d 2ff8 1fbe
000001e0: 053a 0abe c6b8 6dbe 3dc2 a8bd 47a1 1ebe
000001f0: 0891 9fbb 67a6 113d cb90 9a3d 5aef 1c3d
00000200: ee0e f03d 5914 20bd 0f9f aab9 a960 c1bd
00000210: 7018 f5bd d7b5 f6bd 410a a2bd 34f0 8cbd
00000220: 697d 00be 2302 e13b 154a 96bc 4b70 05be
00000230: 015c 6dbe 7078 9dbc c919 cfbd 47e1 b53d
00000240: 8c1c c2bd 250d 86bd 18b4 653d a7b1 69bd
00000250: a67b 36be d9e7 16be cd7f 18bc c9b6 3abd
00000260: 997c d0bd dd38 ac3b b74a 323d aad0 3e3d
00000270: 8b85 723e 2cf1 623e e8db 4d3e f11d fc3d
00000280: 8301 243e 1801 e83b 4458 0e3d e486 993c
00000290: 21ec f63c c568 34bc 5812 de3d 4ddd cbbb
000002a0: 8524 203e f99c 6a3e d21f bebc 77b9 d7bb
000002b0: cd73 443d 9c4f 8ebd e1ff 543c dcf7 c33e
000002c0: f9e1 2c3e e90f 893e 5e7f ac3c 745e e1bd
000002d0: b25a 613e eb66 613d d0d7 4d3e 628a b83d
000002e0: 11c7 323e bd33 3e3e 596d 463e 2ad2 32bd
000002f0: 3612 c73d 5f3d 9d3c 4a87 9b3d 9298 f4bb
00000300: 324f 963d e1cb 543d e4ac 913d 8444 c53d
00000310: 9b80 fb3d cb8a 373e 1467 41bd a9d3 bf3c
00000320: a0ba 2cbd 970d b23d cbeb e13d 3736 483e
00000330: 3205 f13d 1990 d0bd e7d9 12bd b13b c2bc
00000340: bf19 efbc 2697 b53c 5c22 4b3e d89e b13d
00000350: 2b72 f83a 804a c23d a243 21be 5d89 20bd
00000360: 4497 febc 8eb9 5cbd 562c c13c 1593 c0bd
00000370: 095a fe3c 701a df3d a70a 323e f06b cb3c
00000380: a97e f13d c8ba 5c3e efe0 3e3d 93f6 1cbd
00000390: a10f b7bc 8d94 98bd 8860 673c 7ba2 aa3d
000003a0: c037 333e 2c38 483e bada ec3d 3e81 233d
000003b0: 7003 6fbc e3ff efbd d559 c9bc 7f13 29be
000003c0: d166 3dbe b56c 4dbe 4ec1 47be a743 18be
000003d0: b7f7 21bd 7fb2 b8bd 1388 c6bd 0ce1 c5bc
000003e0: 0e6c febc 1457 a6bd bf4c 17bc 95f2 bb3d
000003f0: 8ade ce3d 6fab 05bd 9e0e 7b3d 8ed6 10be

model.after.2.bias f4 [16]
0.19010317 0.04932204 -0.061631724 0.1252764 -0.020369321 0.058958452 0.06772483 0.058643203
0.076175444 0.035879128 -0.0041365414 0.008237102 0.019801773 -0.029334407 -0.04221789 -0.013339814
00000000: 68aa 423e e805 4a3d 8c71 7cbd 7548 003e
00000010: 90dd a6bc 6b7e 713d 51b3 8a3d db33 703d
00000020: df01 9c3d fef5 123d d38b 87bb e9f4 063c
00000030: 5437 a23c b64e f0bc abec 2cbd 3c8f 5abc

model.after.4.weight f4 [8, 16, 5]
-0.12129528 -0.06860369 -0.009510541 0.14935319 0.2515104 -0.20721382 -0.04190899 -0.13937716
0.008382541 -0.044358823 0.19122119 0.08645596 0.1460108 0.013050574 -0.011875061 0.009523163
-0.02895763 -0.14041224 0.012535319 -0.15192601 -0.19854681 -0.13054967 -0.07401412 -0.0062408266
-0.12946044 0.16036654 0.046218872 0.13422218 0.1790441 0.08035449 -0.11333041 0.02143058
-0.100436985 0.02094747 -0.22570208 -0.116239436 -0.09148478 -0.017620372 -0.12026675 -0.21577297
-0.16540554 -0.033761345 0.009299773 -0.009224598 -0.10712515 0.06391039 0.14540285 0.027672147
0.096468896 0.034378342 -0.13565212 -0.019373158 -0.15038231 -0.18747133 -0.22483319 0.16393863
0.15153706 0.13404897 0.13621499 0.0029385416 -0.14011312 0.031072246 0.020884344 -0.13112895
-0.12489963 -0.13773854 -0.120334014 0.07803429 0.0458245 -0.029811166 0.084290534 0.15960367
0.15207484 0.09538959 0.018067306 -0.006901308 -0.0133393705 0.15538265 0.1859096 0.03395336
-0.19909571 -0.16049011 0.056261256 0.1039011 0.11253061 -0.20580566 -0.012822962 -0.0035841996
-0.060107525 -0.21815212 0.18730603 0.15855336 0.16000596 0.11487825 0.1724675 -0.0528236
-0.01628466 -0.12563182 -0.08853018 -0.16048954 -0.06416189 -0.040296815 0.0032531826 -0.09045454
-0.046339437 0.16084023 0.18375587 0.14048146 0.17565063 0.104679696 -0.12096295 0.030715989
-0.059421957 -0.0983189 -0.11347528 -0.18113443 0.015795311 -0.14076072 -0.17713812 -0.10076652
0.027303895 -0.10101291 -0.059507526 0.035370223 -0.14414488 0.096035056 0.09483887 0.065204926
0.10583295 0.13228053 -0.04804245 -0.15143882 -0.06920287 -0.14340186 -0.294148 0.196613
0.18593718 0.054428965 0.12513039 0.08274081 -0.058794744 -0.024046145 -0.048317093 0.014258319
-0.1441754 0.081219524 0.04258707 -0.11779698 -0.10107282 -0.06370003 0.19281107 0.17739496
0.17338045 -0.018522488 0.1519098 -0.029917067 0.08787632 0.10373293 0.14478688 0.102162816
0.13801813 -0.0070655686 0.100212745 -0.082697354 -0.23397861 0.21358356 0.05304135 0.020998262
0.07359199 0.07438027 -0.17909127 -0.080805354 -0.114292264 0.04198285 -0.05649547 0.032155134
0.04112889 0.12074429 -0.007907217 -0.008022609 0.03241093 0.16030288 -0.030494941 0.048236113
0.12216238 -0.12287704 -0.20526312 -0.14443186 -0.1680615 -0.16912508 -0.014221899 0.08094678
-0.010720973 0.1704586 0.16903089 0.20835713 0.12485355 -0.0011598188 -0.016675936 0.04166559
0.059076123 0.036654346 0.041755613 0.016211785 0.15366495 -0.034151968 0.033000905 -0.021748891
-0.09820819 -0.10050738 0.12220803 0.108560026 -0.042882334 0.05476468 0.25380385 -0.023845732
-0.013069889 -0.19820353 -0.14132594 -0.09190931 0.15815166 0.028760832 -0.057134587 0.025658559
0.06293772 -0.035666697 0.07542303 -0.09076976 0.1368498 0.09777495 -0.046941593 -0.08889912
-0.10633573 -0.132221 -0.19990441 0.0059867306 -0.16162424 0.029977756 0.020996243 -0.08260745
-0.081669584 -0.19564284 -0.057001505 0.17829393 0.17558897 -0.033909395 -0.16611986 -0.1429182
0.035400257 -0.18229285 0.16379285 0.17819345 0.027424535 -0.01642467 0.124741 -0.069212504
00000000: a969 f8bd 1780 8cbd 1ad2 1bbc 0bf0 183e
00000010: f9c5 803e dc2f 54be c3a8 2bbd e3b8 0ebe
00000020: ed56 093c 99b1 35bd 7dcf 433e d30f b13d
00000030: db83 153e 13d2 553c 9e8f 42bc 0a07 1c3c
00000040: 8d38 edbc 3ac8 0fbe f060 4d3c 7e92 1bbe
00000050: db4f 4bbe d0ae 05be b794 97bd d97f ccbb
00000060: 4791 04be 2037 243e 0050 3d3d 8a71 093e
00000070: 5657 373e e590 a43d c619 e8bd 2f8f af3c
00000080: e8b1 cdbd 079a ab3c 721e 67be f10e eebd
00000090: 5f5c bbbd 9958 90bc 6a4e f6bd 97f3 5cbe
000000a0: 1260 29be 5649 0abd 135e 183c c522 17bc
000000b0: 6e64 dbbd 73e3 823d 7ce4 143e b3b0 e23c
000000c0: 7c91 c53d 4ed0 0c3d 64e8 0abe 75b4 9ebc
000000d0: d2fd 19be 7cf8 3fbe ac3a 66be 87df 273e
000000e0: 882c 1b3e 2244 093e f17b 0b3e 8c94 403b
000000f0: d079 0fbe 398b fe3c a515 ab3c ab46 06be
00000100: 61cb ffbd 550b 0dbe ae71 f6bd 71d0 9f3d
00000110: 79b2 3b3d 8c36 f4bc 84a0 ac3d 256f 233e
00000120: 82b9 1b3e 9e5b c33d e301 943c 5e24 e2bb
00000130: 608d 5abc a11c 1f3e 165f 3e3e ae12 0b3d
00000140: bfdf 4bbe 8557 24be 3472 663d 1aca d43d
00000150: 7376 e63d b8be 52be 6717 52bc e4e4 6abb
00000160: 4f33 76bd 4563 5fbe 27cd 3f3e d05b 223e
00000170: 9ad8 233e 4a45 eb3d 529b 303e 8f5d 58bd
00000180: 6867 85bc a1a5 00be 504f b5bd 5f57 24be
00000190: 4f67 83bd 460e 25bd 5933 553b 3b40 b9bd
000001a0: 6cce 3dbd 4db3 243e 802a 3c3e 5fda 0f3e
000001b0: c2dd 333e 4f62 d63d 6cbb f7bd 19a0 fb3c
000001c0: 7064 73bd 6b5b c9bd ba65 e8bd 4e7b 39be
000001d0: 2b65 813c 9423 10be b263 35be ad5e cebd
000001e0: 6bac df3c dbdf cebd 2abe 73bd 5ee0 103d
000001f0: b79a 13be 07ae c43d e23a c23d 298a 853d
00000200: f2be d83d 8c74 073e 29c8 44bd c712 1bbe
00000210: 3cba 8dbd f0d7 12be 919a 96be eb54 493e
00000220: 5166 3e3e e8f0 5e3d 2e22 003e 0474 a93d
00000230: c2d2 70bd 6cfc c4bc 25e8 45bd b99b 693c
00000240: b7a2 13be 6c56 a63d c86f 2e3d 8b3f f1bd
00000250: 44ff cebd 2975 82bd 4470 453e 06a7 353e
00000260: a58a 313e 79bc 97bc 3e8e 1b3e a314 f5bc
00000270: 80f8 b33d ee71 d43d 0343 143e bd3a d13d
00000280: a054 0d3e 4986 e7bb 573c cd3d 3b5d a9bd
00000290: 1798 6fbe a6b5 5a3e e341 593d 8c04 ac3c
000002a0: 66b7 963d af54 983d b463 37be 477d a5bd
000002b0: 1012 eabd 35f6 2b3d cb67 67bd 1ab5 033d
000002c0: c476 283d c848 f73d 468d 01bc 4371 03bc
000002d0: 53c1 043d 7026 243e 87d0 f9bc 3b93 453d
000002e0: 4530 fa3d f5a6 fbbd 7f30 52be f2e5 13be
000002f0: 5018 2cbe 202f 2dbe f802 69bc 6dc7 a53d
00000300: 05a7 2fbc b38c 2e3e 6f16 2d3e 925b 553e
00000310: 38b3 ff3d 1005 98ba f99b 88bc 8aa9 2a3d
00000320: cef9 713d de22 163d ef07 2b3d 94ce 843c
00000330: 585a 1d3e efe2 0bbd f52b 073d bb2a b2bc
00000340: 6021 c9bd d0d6 cdbd 3448 fa3d b854 de3d
00000350: 63a5 2fbd ee50 603d 94f2 813e 2058 c3bc
00000360: 1623 56bc def5 4abe bfb7 10be f33a bcbd
00000370: 82f2 213e d69b eb3c f505 6abd e631 d23c
00000380: 7ee5 803d 3e17 12bd 6477 9a3d 7fe5 b9bd
00000390: 5b22 0c3e 3c3e c83d d445 40bd be10 b6bd
000003a0: 8cc6 d9bd f164 07be beb3 4cbe 562c c43b
000003b0: d380 25be e993 f53c 5000 ac3c 182e a9bd
000003c0: 6242 a7bd 9956 48be 697a 69bd af92 363e
000003d0: 98cd 333e 94e4 0abd 531b 2abe 2659 12be
000003e0: dcff 103d faaa 3abe 50b9 273e 5878 363e
000003f0: 6ba9 e03c 088d 86bc 3678 ff3d 49bf 8dbd

model.after.4.bias f4 [8]
0.044684894 0.0027959112 -0.063586265 -0.046194986 -0.06561794 0.05354037 0.021276053 -0.08251505
00000000: 8207 373d 9b3b 373b 8439 82bd f436 3dbd
00000010: b362 86bd 264d 5b3d 1e4b ae3c a7fd a8bd

158 f4 [2, 128]
-0.17481406 -0.124267675 0.17014374 0.36619276 0.20355693 -0.21728417 -0.18665083 0.14326936
0.114104114 0.26064703 0.017460601 -0.027739722 0.05558114 -0.22360748 0.20859861 0.35425127
0.23976497 -0.115174614 0.011372618 0.19038291 -0.03981698 0.0022717235 -0.17667958 0.16265085
0.07553281 0.017880216 0.010110405 0.002849768 -0.05707789 0.2412503 0.17064446 0.17923214
-0.06465029 0.009640722 0.18035495 0.41369206 0.18130314 0.014623345 -0.02294562 -0.17651652
0.3753386 -0.035145376 0.15591708 0.100116834 0.11037127 -0.2026766 0.3422566 0.3164261
-0.0967419 0.07938878 0.03240756 0.1836974 0.014855831 -0.048107907 0.05907132 0.12343525
0.14600049 -0.105654374 0.16417705 0.15680204 -0.1341156 -0.07715629 -0.22601894 0.2333818
0.24036245 0.04195773 -0.18295352 0.37221646 0.23082158 0.23050112 -0.20428525 0.08320797
-0.20702265 0.27102992 -0.024598403 -0.13733725 0.05524941 -0.051282074 -0.026921188 0.25403973
-0.068984136 0.018801194 -0.016465373 -0.023238316 -0.12025854 -0.09352897 -0.117338575 -0.10043859
-0.033046473 0.33462477 0.055197414 -0.10306605 0.34869882 0.13821086 0.10425612 0.06328656
0.171422 0.075338125 0.113087445 0.33979294 0.31492043 0.037935466 -0.08045957 -0.07254015
0.2657188 0.33416632 0.14117989 0.28072312 0.12642077 -0.22245532 0.3235256 0.07171721
0.06242509 -0.00155811 0.18401372 -0.20966864 0.010614752 0.23517837 -0.08117784 0.12323814
0.09977565 -0.0051904186 0.036684323 0.07843508 -0.17330274 0.1976388 -0.028296256 0.0903679
0.15845002 0.005413602 0.018214786 -0.1290326 -0.15566054 0.07237308 -0.107073545 0.12402896
0.32087433 -0.17787942 0.08600511 0.06059387 0.13114184 -0.2132145 0.3045099 -0.12437873
0.10018848 0.15888417 -0.16628818 -0.12272106 0.11362707 -0.08582397 0.018957216 -0.16422333
0.32992002 0.32528314 0.32019 -0.052150343 0.18712395 -0.18917413 -0.109611996 -0.0583258
0.25897 0.16246612 0.13100204 -0.112302095 0.15240276 0.29726622 0.19198498 0.0010619431
0.039632384 0.15698767 0.026836324 -0.03480019 0.056653954 0.07403657 0.28863284 0.35033083
0.1251585 -0.1265497 0.027793134 -0.06093631 0.24684437 0.10827541 0.18400966 0.25585362
0.08140339 -0.10432957 -0.15321316 0.00029009706 0.14452 -0.048953693 0.16304597 0.19294325
0.19371568 0.366529 0.13136283 0.10882501 -0.1725153 -0.0065687113 0.110045284 -0.102599494
0.03488355 0.08190168 0.21977736 -0.17930797 0.1938731 0.053581882 0.13264194 0.23811409
0.22414653 0.35681692 0.047464237 -0.039258704 0.15417224 0.16497181 0.066909894 -0.15825151
0.26582834 0.087841794 -0.08718211 0.06292477 -0.10339955 0.24196963 0.24469529 0.38843593
-0.04735999 0.059743423 0.17148659 -0.09857288 -0.17989662 -0.10985342 -0.06671695 -0.19886896
-0.12814313 -0.16696271 0.35588777 -0.052676965 0.24940774 0.29146552 0.0064391764 0.3484039
0.028760182 0.22204907 -0.09177367 0.11977091 0.15685938 0.15684345 0.21686648 0.1678872
-0.06741719 -0.06577678 0.020580964 0.2305131 0.04894892 0.1023499 0.03734156 0.09225991
00000000: 7502 33be 0d80 febd 293a 2e3e 9e7d bb3e
00000010: 3a71 503e be7f 5ebe 6521 3fbe 34b5 123e
00000020: 6baf e93d 8773 853e 8909 8f3c 6a3e e3bc
00000030: 0da9 633d 5cf9 64be e09a 553e 6c60 b53e
00000040: f384 753e abe0 ebbd 3854 3a3c bdf3 423e
00000050: 2117 23bd 32e1 143b 7eeb 34be f28d 263e
00000060: f2b0 9a3d 8879 923c 1da6 253c 2cc3 3a3b
00000070: 81ca 69bd 520a 773e 6cbd 2e3e a188 373e
00000080: 5f67 84bd 1ef4 1d3c f8ae 383e 72cf d33e
00000090: 88a7 393e c196 6f3c 74f8 bbbc bfc0 34be
000000a0: 622c c03e 99f4 0fbd baa8 1f3e 0e0a cd3d
000000b0: 550a e23d 748a 4fbe 423c af3e 9a02 a23e
000000c0: 9e20 c6bd 9696 a23d cabd 043d 2c1b 3c3e
000000d0: df65 733c cc0c 45bd c5f4 713d 9fcb fc3d
000000e0: 2781 153e 5261 d8bd 071e 283e b790 203e
000000f0: 9a55 09be 1e04 9ebd 8271 67be a3fb 6e3e
00000100: 9321 763e dedb 2b3d 2b58 3bbe 2893 be3e
00000110: 7e5c 6c3e 7c08 6c3e 2730 51be f168 aa3d
00000120: bffd 53be 6fc4 8a3e 9782 c9bc 23a2 0cbe
00000130: 354d 623d 270d 52bd d389 dcbc 7f11 823e
00000140: 8e47 8dbd f604 9a3c 64e2 86bc 485e bebc
00000150: 1c4a f6bd 1e8c bfbd 354f f0bd bfb2 cdbd
00000160: bd5b 07bd f053 ab3e af16 623d 4b14 d3bd
00000170: a788 b23e 2687 0d3e 3c84 d53d 629c 813d
00000180: 4089 2f3e e04a 9a3d 649a e73d 57f9 ad3e
00000190: 403d a13e 3862 1b3d fdc7 a4bd ee8f 94bd
000001a0: 4b0c 883e d917 ab3e 7691 103e f1ba 8f3e
000001b0: 7274 013e 54cb 63be 26a5 a53e 79e0 923d
000001c0: 73b1 7f3d 7f39 ccba 186e 3c3e 60b3 56be
000001d0: 7fe9 2d3c 99d2 703e 9140 a6bd 4764 fc3d
000001e0: 2d57 cc3d 6314 aabb 4d42 163d 92a2 a03d
000001f0: 4676 31be d361 4a3e 8dcd e7bc ce12 b93d
00000200: b940 223e 9664 b13b 2d37 953c 1f21 04be
00000210: 7a65 1fbe 5638 943d 6049 dbbd e502 fe3d
00000220: a449 a43e 0626 36be 7223 b03d 4731 783d
00000230: 0c4a 063e e754 5abe b9e8 9b3e 47ba febd
00000240: 9e2f cd3d 88b2 223e 7347 2abe 2e55 fbbd
00000250: 4fb5 e83d 7ac4 afbd 2a4c 9b3c 292a 28be
00000260: 47eb a83e 838b a63e f2ef a33e 999b 55bd
00000270: 6c9d 3f3e ddb6 41be 417c e0bd 09e7 6ebd
00000280: b797 843e 855d 263e 6625 063e a4fe e5bd
00000290: 780f 1c3e 4733 983e b697 443e e630 8b3a
000002a0: 9155 223d 60c1 203e dad7 db3c a58a 0ebd
000002b0: fa0d 683d 7ca0 973d afc7 933e 905e b33e
000002c0: 8d29 003e 3f96 01be 6dae e33c 5a98 79bd
000002d0: c5c4 7c3e 80bf dd3d 076d 3c3e 3fff 823e
000002e0: d2b6 a63d beaa d5bd e9e3 1cbe 2b18 9839
000002f0: 0dfd 133e ab83 48bd 86f5 263e ea92 453e
00000300: 675d 463e b0a9 bb3e fa83 063e a6df de3d
00000310: daa7 30be 583e d7bb 6c5f e13d af1f d2bd
00000320: 0ee2 0e3d 11bc a73d 510d 613e 829c 37be
00000330: ac86 463e ad78 5b3d 4ad3 073e 2ed4 733e
00000340: ab86 653e b5b0 b63e dc69 423d bccd 20bd
00000350: 54df 1d3e 5fee 283e 0e08 893d af0c 22be
00000360: a71a 883e 66e6 b33d 898c b2bd b4de 803d
00000370: 25c3 d3bd e3c6 773e 6791 7a3e 13e1 c63e
00000380: 8dfc 41bd 85b5 743d 2e9a 2f3e 94e0 c9bd
00000390: d236 38be d4fa e0bd e5a2 88bd 4ea4 4bbe
000003a0: f437 03be 46f8 2abe ec36 b63e cdc3 57bd
000003b0: be64 7f3e f83a 953e baff d23b ff61 b23e
000003c0: 799a eb3c d560 633e d5f3 bbbd 734a f53d
000003d0: bf9f 203e 929b 203e 3f12 5e3e 9fea 2b3e
000003e0: 0612 8abd fab5 86bd 6999 a83c a00b 6c3e
000003f0: aa7e 483d d39c d13d 77f3 183d c4f2 bc3d
