models/lstm_X_91_47.onnx (onnx, 64297 bytes, 16 tensors)

model.before.0.weight f4 [16, 6, 5]
000000 ab 6a 8c bd 42 be 94 3e 7a 02 78 3e 31 ac a4 3c
       -0.06856283 0.29051405 0.24219695 0.020101639
000010 89 70 36 3e d3 f0 11 bd 6e 13 d2 bc 2d 72 3d be
       0.17816366 -0.03563006 -0.02564403 -0.18500586
000020 a4 ff 6d 3d 5e 56 15 be df 73 29 3e 69 8e be bb
       0.058105126 -0.14583728 0.16548108 -0.0058153165
000030 d3 5e b0 bd 99 9d ab 3d e9 6c b4 3d 2d bd da 3d
       -0.08611836 0.08379669 0.088098355 0.10680614
000040 57 76 1a 3e 35 2a 4a 3d 47 58 2e be e3 78 0f be
       0.15084206 0.049356658 -0.17025863 -0.14010958
000050 8f 5e 2a be 90 3a c0 bc 42 6f 40 3e 2e 17 2a be
       -0.16637634 -0.023465425 0.18792441 -0.16610405
000060 63 b5 38 be 78 8a 19 3e 1b 14 21 3e 42 d6 1f be
       -0.18037944 0.14994228 0.15730326 -0.15609077
000070 8e 90 ad be fd 10 22 3c 79 0e 65 3d f1 4f 8f bd
       -0.3389935 0.009891746 0.055922005 -0.069976695
000080 94 80 38 3e 34 2e 2a 3d 4b c6 7e 3c f8 c2 c1 3d
       0.18017799 0.04154797 0.015550206 0.094610155
000090 d1 77 07 3d e3 cb 2b bd 50 73 b8 3d d9 9e 3b bd
       0.03307325 -0.04194249 0.09006369 -0.045805786
0000a0 22 b6 60 3e fa e0 ae bd 0e 17 86 3d 94 df 88 be
       0.21944478 -0.085390046 0.06547366 -0.26733077
0000b0 3f e0 52 be 6b 59 8f be bf 63 07 3e a9 a6 3e 3d
       -0.20593356 -0.27997908 0.13221644 0.04654566
0000c0 3f 22 61 bd 34 e5 ee bc 44 8d 04 bd cd a7 34 be
       -0.0549643 -0.029162027 -0.032361284 -0.17642136
0000d0 24 ba 78 bc 27 78 11 3d 71 4d 00 3e 4d 34 36 bd
       -0.015181098 0.035514977 0.12529542 -0.04448347
0000e0 fe dc a7 3d ed 14 82 bd 64 dd c0 3d d9 c2 17 3e
       0.08196448 -0.063516475 0.09417227 0.14820422
0000f0 16 75 7f bd df be f8 3d 5a c5 11 3e 0c 36 a9 3e
       -0.06236752 0.12145781 0.1423544 0.33049047
000100 ba 88 b9 3d 8a 0a 23 3e 2d ec 66 3d 78 fa 2b be
       0.09059282 0.15921989 0.05637758 -0.16794765
000110 c0 94 19 be 89 6d b1 bd 60 66 6c be 3e f7 71 be
       -0.1499815 -0.0866347 -0.23085928 -0.23629472
000120 2d 9c c9 3c 07 c4 ee ba a8 33 46 3e 3a 96 fb 3d
       0.024610603 -0.001821638 0.19355643 0.12284513
000130 73 df 80 3e a4 f7 f5 3e 8f 7c 30 3b a3 70 9c bd
       0.25170478 0.48040497 0.0026929711 -0.07638671
000140 30 e2 99 3c 72 1d 81 be e1 51 a5 be 09 a0 c9 bd
       0.018784612 -0.25217777 -0.3228903 -0.098449774
000150 51 2d 49 3e a2 8a e5 3d 6e 88 13 3e 01 cf 96 3d
       0.19646193 0.11208083 0.14407513 0.073637016
000160 22 4b 17 be 58 30 6b 3d e5 d6 59 3e 4f d4 19 3e
       -0.14774755 0.05741915 0.21273382 0.15022396
000170 93 81 78 3d 9e da 7e 3e 2d fd 74 3e be 3c 6f 3e
       0.060670447 0.24888083 0.23924704 0.23363015
000180 a0 57 7f 3e d9 a1 dc 3e 07 f3 be 3d df 90 bc 3e
       0.2493577 0.4309223 0.093236975 0.36829278
000190 62 78 0a be bb f7 9a bd 87 6c 73 3e 3f 1f 20 3d
       -0.13522485 -0.07566782 0.23771869 0.0390923
0001a0 bf 05 4d bc e0 b3 33 3e 13 04 79 3e 39 ba 51 3d
       -0.012513577 0.17549086 0.2431796 0.051202986
0001b0 0e a0 20 be cd 55 c3 bd 16 3e bd 3d c0 3d a4 3e
       -0.15686056 -0.095378496 0.092403576 0.32078362
0001c0 76 77 47 3e 5c 21 3d be 71 e4 54 3d f4 ad 87 3d
       0.19479164 -0.18469757 0.05197567 0.06624976
0001d0 a4 c6 53 3c 21 75 ed 3d 45 08 44 3d 1a 3c 54 3c
       0.012925778 0.11594606 0.04785945 0.012953782
0001e0 cd 7a 5e 3d 42 60 34 3e 8f 7a 41 3e f5 c1 4c 3e
       0.05431633 0.17614844 0.18894409 0.19995864
0001f0 db 53 91 bd f1 55 fe bd 8f 47 a3 bb 98 40 44 bd
       -0.07096072 -0.12418736 -0.0049828957 -0.047913164
000200 f1 75 44 3e 5b 9d e6 3d ee ad 89 bd 31 1d b2 3d
       0.19185616 0.11260482 -0.067226276 0.08696974
000210 be cf bd 3d 1e 53 3f bd 22 8a 76 3e 69 6c 61 3e
       0.09268139 -0.046710126 0.24076131 0.22014011
000220 b0 07 7b 3d 01 66 92 3e ce 9e 1f 3d 17 a4 08 3e
       0.06128663 0.28593448 0.038969807 0.13343845
000230 61 c6 80 3e d6 93 a1 3e 2d 10 bb 3e a0 55 8b 3e
       0.2515135 0.31558102 0.3653578 0.27213764
000240 11 9f 28 bd b0 35 b6 be f4 4c 9f 3c 35 03 5e 3d
       -0.041167323 -0.35587835 0.019445874 0.054202277
000250 ac 00 85 3d 20 6a f1 bd 21 66 66 3e 83 ff 0b 3e
       0.06494269 -0.1178782 0.22499897 0.13671689
000260 cf 55 25 be 5c 91 e7 bd 40 f9 98 be 3e 7a 9a 3e
       -0.16146015 -0.11307022 -0.29877663 0.30171388
000270 c8 16 65 3e 1d 25 03 3e 80 04 53 be 5a 3e 3c be
       0.22371972 0.12807126 -0.20607185 -0.1838316
000280 2b 84 60 3e da 92 9a 3d 8c 45 b6 3c e1 5b bf bd
       0.21925418 0.07547541 0.02224996 -0.093436964
000290 6b 49 90 3d 18 be 05 3d bc ee 98 3b 29 81 c6 be
       0.07045253 0.03265199 0.004667131 -0.38770416
0002a0 32 02 f6 be 2d fd 23 be 23 b2 07 be 01 31 e8 bd
       -0.4804855 -0.16014548 -0.13251548 -0.11337472
0002b0 d9 85 7e be 7f 1d 0e be 90 f2 1a bc 36 8d e3 bd
       -0.24855746 -0.1387844 -0.0094572455 -0.11110918
0002c0 4d 8a a3 3c ea 58 e2 3c 22 fe b7 3d 69 98 2f bc
       0.019963408 0.027630288 0.08984019 -0.01071749
0002d0 ba 0a 6d 3e 79 7e 33 3e df 95 43 3e 5e ee c8 3d
       0.23148623 0.17528714 0.1910014 0.0981109
0002e0 b7 7f 84 3e 10 f1 a6 3d b8 bc a6 bd 3a 04 52 3b
       0.2587869 0.08151448 -0.08141464 0.0032045976
0002f0 ec d0 9f bd 83 ec e9 3d 63 13 b1 3d 08 76 ec 3d
       -0.078035206 0.11422064 0.08646276 0.1154595
000300 1a ca b9 bd b8 4a 90 bd 58 ad 32 be 2d e3 b4 be
       -0.09071751 -0.070455015 -0.17448938 -0.3532957
000310 c7 d1 15 bc 9b 30 bd 3d 74 51 e2 bd 82 d3 75 3e
       -0.009144253 0.092377864 -0.11050692 0.24006465
000320 ce ba 46 3e 2f db 0d 3d ea 30 3a 3d 05 7c bc 3c
       0.19407198 0.034632858 0.045456804 0.023008356
000330 ef 37 77 bd 17 90 66 bd 64 4b 76 3e 16 8c 5b 3c
       -0.060356077 -0.05628976 0.24052197 0.013400098
000340 50 eb 96 3d d7 e4 0c be eb c2 de be a2 ae 9b be
       0.07369101 -0.1375917 -0.43508086 -0.30406672
000350 7f 3c bd be e4 a5 69 be f2 14 19 3e 50 7a 03 3e
       -0.36960217 -0.22817189 0.14949396 0.12839627
000360 3a 13 16 3e ec b3 d4 3d 30 93 b7 3c e7 8e 4f be
       0.14655772 0.1038588 0.022409052 -0.20269357
000370 7b a7 08 be 57 31 b1 3d 76 30 6f 3e 02 1d 27 3e
       -0.13345139 0.08651989 0.2335833 0.1631966
000380 84 25 11 3d ab f7 91 3e 9c d4 89 bb 93 94 87 3d
       0.03543617 0.28509268 -0.004206253 0.06620135
000390 3b 27 fc 3e 07 89 19 3e 4e 63 08 3e ec 7b 26 3e
       0.4924868 0.14993678 0.13319132 0.1625821
0003a0 03 ca bf bd f2 2f 4d be 53 0d d5 bc b5 25 af bd
       -0.093647026 -0.20037821 -0.02600733 -0.08552114
0003b0 ac 70 c6 bc 73 71 16 be 2f ad 64 be b5 e7 9d 3d
       -0.024223648 -0.14691715 -0.2233169 0.0771021
0003c0 5f 55 45 bd b1 27 fe bd 58 41 44 be 4e 8d a5 bb
       -0.04817712 -0.12409914 -0.19165552 -0.005052245
0003d0 01 59 9c 3c 24 fe aa be 76 c7 a6 be 3c 4a b3 be
       0.01908541 -0.3339702 -0.32574052 -0.35017574
0003e0 cf 9e 45 be 50 63 42 3c fd 80 d7 3d 43 d0 10 3e
       -0.19298862 0.011864498 0.105226494 0.14141946
0003f0 7a 39 2b 3e 97 2e e0 3d ea 04 33 be bd c3 e1 bc
       0.16721144 0.10946386 -0.17482343 -0.027559156

model.before.0.bias f4 [16]
000000 7d 24 9b 3d ab 43 10 3c cf 08 3d bd 17 d4 b1 3d
       0.07575319 0.008805196 -0.04615098 0.08683031
000010 62 ad 9a 3c ae 71 cc 3d bf 7d 4d 3d 24 b1 87 bd
       0.018881503 0.0998262 0.05016875 -0.06625584
000020 96 15 81 3d 5f cd 27 3d 85 ce 12 3d e0 f5 1e 3e
       0.06302945 0.04096734 0.035841484 0.15523481
000030 9d 83 e6 bb f8 a2 15 3e 23 a8 db 3d 1f 37 89 bb
       -0.0070347325 0.14612949 0.10725429 -0.004187479

model.before.2.weight f4 [16, 16, 5]
000000 7a b7 c7 bb 5d 59 7b be 08 05 69 be f7 97 8d be
       -0.00609487 -0.24545808 -0.22755826 -0.27655002
000010 a4 24 60 be 33 34 65 bd fe 90 02 3d a0 6f 8a 3c
       -0.21888977 -0.055957984 0.031876557 0.01689893
000020 30 78 9b bc 27 6b fd bd a1 dc 80 3d f1 8e 26 be
       -0.018978208 -0.12373953 0.062920816 -0.16265465
000030 6a b3 25 be 36 0c 40 be ff 56 19 be 67 f2 0a bd
       -0.16181722 -0.18754658 -0.14974593 -0.03392258
000040 c0 42 18 be 16 dd 93 bd 10 64 bd 3c 97 11 4f bc
       -0.14869213 -0.07219903 0.023119003 -0.012638471
000050 f6 34 16 be 42 b2 8a be 21 b5 c8 bc 26 07 ce 3c
       -0.1466864 -0.27089125 -0.024500431 0.025149893
000060 38 c0 81 3a cd 7b 47 bd 9a 56 76 bd 29 1e cc 3d
       0.0009899205 -0.04870205 -0.060141183 0.0996669
000070 3c f8 85 3d 84 be 1a bd cd 26 3f 3e e7 2c d7 3d
       0.065414876 -0.037779346 0.18667145 0.10506611
000080 a5 e8 c4 3c c2 9c ac bd 9a 26 34 3e b0 29 1d be
       0.024036715 -0.08428337 0.1759285 -0.15347934
000090 12 f2 e2 bb 4a 03 95 bd 9c b8 b8 3d 9e d6 34 3e
       -0.0069258297 -0.07276018 0.090195864 0.17659995
0000a0 17 74 6a be 3b 3f 2f be 10 a3 2b be db 18 c1 be
       -0.22895847 -0.17113964 -0.16761422 -0.37714276
0000b0 f4 2d d7 bd a0 fc 57 3d bb 25 3a 3e d5 84 78 3d
       -0.10506812 0.052731156 0.18178456 0.060673553
0000c0 1f 13 7a bd 96 a3 86 3d 28 ea 6b 3d ec 5c c2 bd
       -0.06105339 0.0657417 0.057596356 -0.0949038
0000d0 a8 cb 0a bc be 81 86 3d a3 7e 14 3e af 9d 70 bd
       -0.008471407 0.06567715 0.14501433 -0.05874413
0000e0 c7 55 c3 3d f5 dd 67 3e a5 5c 8a 3e e0 18 62 3e
       0.09537845 0.22643264 0.27023807 0.22079802
0000f0 a5 9b 4f be 00 a0 e0 bd cc 73 03 3e fd 9a af 3d
       -0.20274217 -0.109680176 0.12837142 0.085744835
000100 ae fb 09 3b 20 8f ad bd 96 fa 7d bd 5d cb 07 3d
       0.0021054554 -0.084745646 -0.062006555 0.033152927
000110 5c 3e 86 3e ba 92 4c 3e 2d 42 38 bd 51 4d d8 bc
       0.2621945 0.19977847 -0.044984985 -0.026404055
000120 f6 ba 18 3d 32 4a 05 3e c9 06 f4 3d 70 52 76 bd
       0.037287675 0.13016585 0.11915357 -0.060137212
000130 f7 61 dd 3c 4e 0c ff bc 52 b3 47 3d be f9 2a 3c
       0.027024252 -0.031133797 0.048754998 0.01043552
000140 d0 7c 1f 3d d9 50 8d bd 58 a9 1d be 88 c3 02 be
       0.03893739 -0.06900186 -0.15396631 -0.12769902
000150 2b 73 13 be 2b 96 16 be d4 b8 c3 bd d8 fc 8d 3d
       -0.14399402 -0.14705722 -0.095567375 0.06932992
000160 69 ec ba bc 6d 28 fa 3d e5 b4 1d 3e 22 e2 97 bd
       -0.022817807 0.12214742 0.15401037 -0.07416178
000170 0d dd 63 be 02 46 12 be 37 b0 02 bd 11 3b 61 3d
       -0.22252293 -0.14284518 -0.031906333 0.05498797
000180 05 6f c9 3d 77 65 6a 3d 87 e4 b3 3d 04 22 9b bc
       0.098356284 0.05722567 0.087838225 -0.018937118
000190 58 2d 8f 3d e2 5b c6 bd 15 59 9d bd dd b0 1e be
       0.069910705 -0.09685494 -0.07683007 -0.15497155
0001a0 e4 86 4d bd 73 33 53 3e c2 3f f0 3d 83 bc 42 3d
       -0.05017747 0.20625095 0.11730911 0.04754306
0001b0 1f 66 26 3e 22 74 46 3e 36 62 4f be 4e 93 43 be
       0.16249894 0.19380239 -0.20252308 -0.19099161
0001c0 5b d7 2b be 18 02 a0 be 24 c7 7b be be 80 79 bd
       -0.1678137 -0.31251597 -0.24587685 -0.060913794
0001d0 d2 53 df bd 12 32 40 bd 9d a3 ca 3d 23 97 a7 3d
       -0.10904659 -0.04692275 0.09894488 0.08183124
0001e0 14 8f 9e bd 47 6e cd bc 0d 94 94 3b 01 76 9a 3c
       -0.07742134 -0.025076998 0.0045342506 0.018855097
0001f0 9f 3a be bd a4 a1 cd 3c 22 e6 1a 3d 43 99 30 bd
       -0.09288525 0.02510149 0.037817128 -0.04311491
000200 d4 aa 62 be fc 30 10 3d e1 3e 3f 3e 4f d5 0a 3e
       -0.22135478 0.035202965 0.1867633 0.13557933
000210 1c 0c db 3b cc 12 fe 3c d1 9c 23 bd d2 03 5e 3e
       0.006684793 0.031014822 -0.039944474 0.21681145
000220 d9 b5 a6 3d a0 0d 5c bb b8 f4 c0 bd eb 22 9e b9
       0.081401534 -0.0033577457 -0.094216764 -0.00030162124
000230 e2 59 4d 3e 26 63 f0 3d c9 22 c1 bc 32 eb de bd
       0.20053819 0.11737661 -0.023576157 -0.10884704
000240 ff 3a 36 be ae c6 78 bb 63 00 ec 3d 68 bb 11 bd
       -0.17795943 -0.003796022 0.11523511 -0.035579115
000250 51 2c 66 bd 4c e6 ad b9 ef a4 28 3e 5d a7 2f 3e
       -0.056194607 -0.00033168716 0.16469167 0.17153688
000260 a9 28 ae 3d 32 6c 70 3d 97 6c 16 3d b0 03 8d 3d
       0.08503849 0.058696933 0.036724653 0.06885469
000270 07 45 bc 3d dd 09 ba 3d c4 8d 84 bd 06 e2 b3 bd
       0.091928534 0.090839125 -0.06472352 -0.08783345
000280 96 c3 96 bd 47 46 dd bd 62 4b eb bd d5 6d 13 be
       -0.07361524 -0.1080442 -0.114889875 -0.14397366
000290 c6 73 58 be ca fa 85 bd fb 46 d7 3d e0 65 92 bd
       -0.21137914 -0.06541975 0.10511585 -0.07148337
0002a0 0d 20 1e 3e d8 1e b7 bd e0 e4 03 be a8 dd 23 bd
       0.15441914 -0.0894143 -0.12880278 -0.04000631
0002b0 5e cf 35 3e 7a 11 23 3e 9f 42 c3 bd 85 eb 6d bd
       0.17754886 0.15924636 -0.09534191 -0.058085937
0002c0 ae c0 f4 3d e5 af 0c 3e 1d cb 7c bd 0d 0a ce bd
       0.11950813 0.13738973 -0.06171714 -0.10060511
0002d0 85 ad 4d bd b9 4f 1c bd 7d 2b 28 be 22 5b 0e be
       -0.05021431 -0.038161967 -0.1642284 -0.13901952
0002e0 45 98 5e be 2c c5 60 3e 5c b2 01 be 51 ec 1d bb
       -0.21737774 0.21950215 -0.12665695 -0.0024097154
0002f0 86 f3 02 bd 14 77 7d bd a3 25 3d bd db 2f b6 bb
       -0.031970523 -0.06188114 -0.04617847 -0.005559904
000300 bd dd b2 3d aa 7d d2 3c a0 bd 4a bd 32 bd 78 bc
       0.087336995 0.025694687 -0.049497247 -0.015181826
000310 e5 cc 87 bd dc e0 8d 3d 78 46 ae 3d 45 5f 00 bd
       -0.066308774 0.06927654 0.085095346 -0.031340856
000320 55 c1 2b be e4 d4 50 be 70 f5 6b be ee 84 8a be
       -0.16772969 -0.20393711 -0.23042846 -0.27054542
000330 ae cc 9e be e1 36 54 3e f4 bf 08 be 29 64 c6 bc
       -0.31015533 0.2072406 -0.13354474 -0.024217682
000340 c3 19 59 3e ff 62 97 bc c6 18 4e 3e 55 3b ab 3c
       0.21201234 -0.018479822 0.20126638 0.020902315
000350 80 c7 ef 3d 5d 3c 14 3e c8 72 65 3e 11 3d 63 bc
       0.117079735 0.14476152 0.22407067 -0.01386954
000360 b9 19 66 3d 74 ba 4e 3d c8 db e6 3d a9 f0 dd 3d
       0.056176875 0.050470784 0.11272389 0.10836918
000370 ec 61 88 3c 4a 98 d9 bd b0 67 e8 bd fa 0e ef bd
       0.016648255 -0.1062475 -0.11347902 -0.116727784
000380 8f e1 24 bd 50 62 89 bd bf 8c 05 3e a4 5f 2b 3e
       -0.040254172 -0.06708205 0.13041972 0.16735703
000390 d5 2c ad 3d 06 a5 8d 3d 3f 23 18 3e 47 e8 b7 3d
       0.08455817 0.06916241 0.14857195 0.0897985
0003a0 47 1d c0 3d 7e 0b c2 3c 85 24 b1 3d 1b d6 10 3b
       0.09380584 0.02368712 0.08649544 0.0022100273
0003b0 f2 e2 4b bd 75 2a 95 bd b1 d7 4f 3c 7b f3 3d 3d
       -0.04977698 -0.07283489 0.012685702 0.04637478
0003c0 ff 1d 2b 3c 25 2f fc 3d db c2 6d 3d 8a 8c 33 3c
       0.010444163 0.123136796 0.058047157 0.0109588
0003d0 d7 ca 0f be 0a c4 2b bc dc 9f 99 3d 05 bc 04 3d
       -0.14042221 -0.010483751 0.07501194 0.032405872
0003e0 1e ef 82 3d e6 7c 55 3e 49 2b ad 3d 77 c6 d3 bc
       0.06393264 0.20848426 0.084555216 -0.025851471
0003f0 36 69 2f 3d 05 1e 2d be 7a a8 15 bd a5 18 90 3c
       0.042824946 -0.16905983 -0.036537625 0.017589876

model.before.2.bias f4 [16]
000000 57 ab e8 3d 71 a2 e0 3d 38 f5 6a 3c a9 69 48 bd
       0.113608055 0.10968483 0.014340691 -0.04892889
000010 f9 40 c0 3c 7c 64 33 3c 8d 05 bb 3d 80 04 4a bc
       0.023468481 0.01094925 0.09131918 -0.012330174
000020 31 04 93 bc ac d9 72 bd 10 45 c4 3d fe 91 04 3d
       -0.017946335 -0.05928962 0.09583485 0.03236579
000030 ee 98 eb bc 5f 88 e5 3d c6 5b e2 3d 37 b8 08 3d
       -0.028759446 0.11207651 0.11052661 0.033378806

model.before.4.weight f4 [32, 16, 5]
000000 6c 0e dc 3d d9 b2 34 3d 90 ef d4 3c 6c fd 17 3d
       0.10744938 0.044115875 0.025993139 0.037106916
000010 04 59 2d 3e 46 10 08 be fc b5 ca bd b4 32 11 bd
       0.16928488 -0.13287458 -0.09897992 -0.035448745
000020 8f 63 09 bd d5 b5 03 3b 46 49 8e bc 8f c5 1a 3e
       -0.033542212 0.0020097394 -0.017368924 0.15114425
000030 2c be 5e 3e 5a b5 05 3e ee 70 c9 bd b6 38 32 3d
       0.21752232 0.13057461 -0.09835993 0.043511115
000040 db 2f 6d 3d fe 35 0b 3e 0c cd 0b 3e e3 73 70 bd
       0.057906967 0.13594815 0.13652438 -0.05870427
000050 fa ee 93 3a 8f b0 b3 bc aa a6 4b 3d 68 60 82 bb
       0.001128643 -0.021934776 0.04971949 -0.0039787777
000060 23 f0 46 bd 52 39 41 3e 60 19 2e 3e f7 35 50 bd
       -0.048568856 0.18869522 0.17001867 -0.050832715
000070 1b ed 25 be 92 1d 48 3c 6f 6c 08 3d b2 43 d3 3d
       -0.1620373 0.012214081 0.033306535 0.10315646
000080 36 95 ac 3d 57 91 72 3e b9 8b 4c 3e 49 99 db 3d
       0.08426897 0.23688255 0.19975175 0.10722596
000090 b6 03 76 3d e1 3b cd bd 75 db 5d bd 88 98 38 be
       0.060062133 -0.100211866 -0.05416437 -0.18026936
0000a0 b5 70 35 3e c5 76 1c 3e c8 7f 87 3d f3 9b 5a bd
       0.17718776 0.15279682 0.06616169 -0.05337138
0000b0 ba d8 43 bd 87 b4 8e 3d e3 4f 85 bd 48 73 2b be
       -0.04781411 0.069680266 -0.06509378 -0.16743195
0000c0 c4 00 38 be 96 32 3d be fe e5 26 3e 11 82 61 3d
       -0.17969042 -0.18476328 0.16298673 0.05505568
0000d0 86 29 24 3e 00 1c 2d bd 20 fe 01 be 6d e1 e7 3d
       0.16031465 -0.04226303 -0.12694597 0.113222934
0000e0 84 ba ab 3d 38 f6 4c 3c 42 d8 1a bd 88 53 b6 bd
       0.083851844 0.012509875 -0.037803896 -0.08902651
0000f0 02 c5 41 3d 4d 59 e8 3d 5d 4e 42 3c 7e a7 d3 3c
       0.047307022 0.11345158 0.011859504 0.025836702
000100 5e b0 15 be 7d bf 26 3d 07 53 11 3e d4 f2 57 3c
       -0.1461806 0.04070996 0.14191829 0.013180453
000110 ab 88 35 3d 34 60 7d 3d 7a 05 eb 3d 6d ff b8 bc
       0.04431979 0.061859325 0.11475654 -0.022582734
000120 60 15 9f bd 30 8c 46 be 50 63 75 be 2e 85 0c 3e
       -0.07767749 -0.19389415 -0.23963666 0.13722679
000130 ce 4b 7f bc 25 68 a4 3c 13 31 16 bc a7 d6 0a be
       -0.015582038 0.020069191 -0.009166974 -0.13558446
000140 a0 2d 55 3d 5d 9c 3c 3d 35 0d 16 bb 16 cc 24 be
       0.052045465 0.046047557 -0.0022896056 -0.16093478
000150 bd 65 27 be e8 da 6a bd ac f0 11 be e0 87 96 bd
       -0.16347404 -0.05733767 -0.14251965 -0.07350135
000160 ce eb de bc 90 fc 0b be 0b 48 f3 bd 2c 00 2d bd
       -0.02721205 -0.13670564 -0.118789755 -0.042236492
000170 34 d9 eb bc 75 67 f8 3d 8f cb 7f 3d ed 68 ef 3c
       -0.028790094 0.12129108 0.062449988 0.029224837
000180 c3 8a 07 bc c1 0b 44 bd 8d 78 30 bd 97 c4 f6 3d
       -0.008272829 -0.047862772 -0.043083716 0.12049215
000190 a8 34 23 3e 77 5a 23 3d f1 1f 87 bc f9 de f1 bd
       0.15938056 0.039881196 -0.016494723 -0.11810107
0001a0 9d 92 e9 bd 60 66 b1 be da 13 d9 bd 26 74 bd bd
       -0.114049174 -0.34648418 -0.105994895 -0.09250669
0001b0 d0 5d 15 bd 9d 10 0f bc 03 7b dd 3c 30 c6 56 bd
       -0.03646642 -0.008731988 0.027036196 -0.0524351
0001c0 46 2f c8 bd 13 54 8c bc e4 4b ac bd 15 c8 68 bd
       -0.09774642 -0.017129933 -0.084129125 -0.056831438
0001d0 f9 7d aa bb eb c2 8c be 3a 7d b6 be a6 70 16 be
       -0.0052030054 -0.2749246 -0.35642415 -0.1469141
0001e0 b8 eb ed bd bc 0c 7c 3c 8f d4 10 bd 33 af c3 ba
       -0.116172254 0.0153838955 -0.03535896 -0.0014929533
0001f0 62 00 1d 3c 25 b2 02 3d 86 cb 03 3e 4d e2 2c 3d
       0.009582611 0.031908173 0.12870607 0.042208005
000200 85 e7 a8 3d 5f 14 85 3e cf df 19 be 0d c8 a6 bd
       0.08247284 0.25992104 -0.15026782 -0.081436254
000210 75 d0 84 3d 84 55 c6 3d 23 bc 1a 3e 85 0c a9 3d
       0.064850725 0.096842796 0.15110831 0.08254341
000220 84 11 f7 3b ee d6 2b 3e 58 8d dd bc 69 97 b6 3d
       0.00753993 0.16781208 -0.027044937 0.08915598
000230 ec 99 e3 bd c0 fc 20 3d 6d 69 d4 bd c0 20 83 bc
       -0.11113343 0.03930354 -0.10371671 -0.016006827
000240 da 74 b4 3d 19 90 0a 3e 0d 75 e8 3d e0 98 ab 3d
       0.0881135 0.13531531 0.11350451 0.08378768
000250 59 e1 71 3d 96 ac 2f bd 03 4c a4 bc cf 67 f8 3d
       0.0590528 -0.0428892 -0.020055776 0.12129175
000260 b5 b1 b1 bc 04 26 84 3d 7c b4 0b 3e 32 7b af bd
       -0.021691183 0.064525634 0.13643068 -0.085684195
000270 94 81 27 bd dd 8b 60 3d 27 07 14 3c ae 7f 33 bc
       -0.04089506 0.054820884 0.009034908 -0.010955734
000280 a6 6b 83 be 12 4f 20 be a1 e4 07 be 22 06 72 3c
       -0.25668067 -0.15655163 -0.13270809 0.01477197
000290 f3 99 d5 3c 06 38 eb 3d 9f b0 1c 3e 93 ac 01 3e
       0.026074385 0.11485295 0.1530175 0.12663488
0002a0 60 2b 9d bd 76 9d 1f bc 10 a9 2c 3b c0 3d b4 bc
       -0.07674289 -0.009742131 0.0026345886 -0.022002101
0002b0 67 a4 13 be 8a 50 0a be e5 1f 06 be c5 18 47 3d
       -0.14418183 -0.13507286 -0.13098104 0.048607606
0002c0 fc dc 7a bd 59 e5 15 be cb e8 60 be 01 9d 84 be
       -0.061245903 -0.1463827 -0.21963803 -0.25901034
0002d0 81 6b 15 be ff 06 4c be b4 28 2f be fc 3c 54 bd
       -0.1459179 -0.19924544 -0.17105371 -0.05181597
0002e0 c8 ec 0f 3e 09 a1 52 be 69 39 e1 bd 2f b4 a8 bd
       0.14055169 -0.20569243 -0.10997278 -0.08237492
0002f0 4c 21 31 3e 66 02 8a 3d 3a 39 f0 3d 02 75 78 3e
       0.17297858 0.06738739 0.11729665 0.24263385
000300 ee 1f 94 3e 35 3e 24 3e 34 eb d2 3c 1b 65 a9 3e
       0.2893061 0.16039355 0.02574692 0.3308495
000310 9e 86 a9 3e fd 08 97 3e 1c 74 88 3e 3e ab f1 3d
       0.33110517 0.29499045 0.26651084 0.1180024
000320 60 5c ed 3d c9 96 43 bd 2a 39 9e bd 9c 6a f7 3b
       0.11589885 -0.04775122 -0.07725747 0.0075505506
000330 12 d7 50 bb 6d 7d 8f bc 33 c8 ea 3c 25 22 41 bd
       -0.0031866473 -0.017515862 0.028659916 -0.047151703
000340 5c d4 d7 3b ee dd 1f 3e ed dc c5 3c ee 48 bf bd
       0.0065865945 0.15612003 0.024153197 -0.09340082
000350 fe 7c 73 bc fd 81 12 be ae d3 73 bd 2c 7a 4a 3d
       -0.014861343 -0.14307399 -0.059528045 0.04943292
000360 87 d4 d6 bd 3d f3 eb bd f2 a2 1b 3d 8c ec 3b 3e
       -0.10489755 -0.115210034 0.037997194 0.18351954
000370 a2 81 1d 3e 04 84 98 3a b2 6d 20 bc e3 2a 61 3c
       0.15381482 0.0011636023 -0.009791778 0.013743135
000380 84 9f 45 3d 9e 32 bf 3c 9a b6 25 3d 89 ae 57 3c
       0.04824783 0.023339566 0.040457346 0.013164171
000390 5e 90 d1 bd b9 90 31 be 49 a8 1b 3d 09 0d ff 3d
       -0.10232614 -0.17340364 0.038002286 0.12453658
0003a0 02 50 46 3d 8d 47 a5 bd e3 77 1e 3d 6f 4e 7f 3c
       0.048416145 -0.08070288 0.03868855 0.015582665
0003b0 da 1f aa 3d e3 bc 83 3b 1c fd 50 bb 96 e3 7a bd
       0.083068565 0.00402032 -0.0031889146 -0.0612522
0003c0 98 f7 b8 3a a0 59 1f 3d 64 71 ad bd 3c 27 9d bc
       0.0014111875 0.038903832 -0.08468893 -0.019183747
0003d0 cd 3e 25 be ac 8e 18 3d 8d 14 8b bd 6c 1a 32 be
       -0.16137238 0.037245438 -0.06791029 -0.17392892
0003e0 23 d1 05 3c e7 ce d3 bd ac af 00 bd 59 a9 65 bc
       0.008167538 -0.10342198 -0.031417534 -0.014017426
0003f0 1d a9 51 be 36 e4 17 be bb 46 41 bc a6 90 88 3d
       -0.20474668 -0.1483315 -0.011796649 0.066682145

model.before.4.bias f4 [32]
000000 ae f8 ab 3d fa fd 53 3d 7c 76 e1 bd ff 81 3f bd
       0.08397041 0.051755883 -0.11008927 -0.046754833
000010 13 79 fe 3d fa fe 64 3d 75 40 ff 3d 77 c7 bc bd
       0.12425437 0.055907227 0.12463466 -0.092177324
000020 28 8b 9c 3c b0 b6 f5 3d 69 f7 90 3d 2b 19 ba bb
       0.019109324 0.119977355 0.0707844 -0.00567927
000030 23 b6 73 bd 06 c3 35 3d 92 f3 1e bd a3 33 1a 3c
       -0.05949987 0.044375442 -0.038806506 0.009411725
000040 c6 89 f1 ba d2 48 d0 bd aa a2 51 3d c0 a8 57 bd
       -0.00184279 -0.10170139 0.05118052 -0.052651167
000050 a6 cd fe 3d 31 45 9a bd eb 39 07 be 1c 29 09 3d
       0.12441568 -0.075327285 -0.13205688 0.03348647
000060 f0 cb 9f 3c 7f 3a 63 3d 16 8b 42 3d 91 00 de bd
       0.019506425 0.055475708 0.047495924 -0.10839952
000070 47 79 2f 3d 18 d4 13 be 68 99 37 be a4 6f a8 bc
       0.04284027 -0.14436376 -0.17929614 -0.020561047

model.after.0.weight f4 [16, 32, 5]
000000 c3 04 33 be dc 7d 0d be d0 96 de 3b fa a2 62 3a
       -0.17482285 -0.13817543 0.0067928806 0.0008645501
000010 70 5a ee bc 8e 66 ab 3d 1b b7 94 bd ba 45 2b 3d
       -0.029095858 0.0836917 -0.07261487 0.041814543
000020 9c ce 29 3d 69 57 c8 bd d8 78 79 bd b3 3c 9c bd
       0.041456804 -0.09782297 -0.06090626 -0.07628765
000030 7e f0 19 bd 4a 4c ff 3d ac 64 5d 3e ce 65 9e 3e
       -0.037582867 0.12465723 0.21620435 0.30937046
000040 15 da 6d 3e 56 77 f7 3d 4f b0 42 bc ef 16 1c be
       0.23227723 0.120833084 -0.011882856 -0.15243123
000050 ca 0d 8f bd 71 51 fd bd 13 a6 97 bd ac 35 89 bb
       -0.06985052 -0.12369049 -0.07404723 -0.0041873064
000060 07 fd b4 bd 49 cd 1e 3c 3d 2a a9 bc 84 f2 26 3e
       -0.08837324 0.0096924985 -0.020650024 0.1630345
000070 f0 69 1e 3d 48 81 35 bd f1 80 38 bc 7f 0a fc bc
       0.03867525 -0.044312745 -0.011261211 -0.030766724
000080 7e 93 48 be 55 b1 cf bc 72 18 4d 3d e2 21 ed 3d
       -0.19587514 -0.025353113 0.05007214 0.11578728
000090 27 bc 14 be ab c8 83 bd 64 fd 80 bd 1a ce cf bd
       -0.145249 -0.06434759 -0.062983304 -0.10146733
0000a0 ab ec db 3d 78 ab 83 ba 85 3b 56 be 62 da 0b be
       0.107385 -0.0010045609 -0.20921142 -0.13657525
0000b0 d4 67 07 3c 9f 87 0c be 10 36 f7 3d d3 04 6e 3d
       0.008264501 -0.1372361 0.120708585 0.05811007
0000c0 2b 65 de 3c 5b bc b3 bb d1 b9 8b 3e 03 e4 32 3e
       0.02714785 -0.0054851 0.27290204 0.17469792
0000d0 d1 a9 e8 bd 66 bc 55 be d8 33 1d bc b3 4f 38 3d
       -0.11360515 -0.2087265 -0.00959488 0.044997882
0000e0 23 0a b8 3d 89 7d 07 3d 10 50 56 3d 01 8f 27 bd
       0.089863084 0.033078704 0.052322447 -0.040907864
0000f0 4a 2c 9c 3d b4 d1 d1 3d 49 1f 12 3c be c5 83 ba
       0.07625635 0.10245076 0.008918592 -0.0010053439
000100 e3 6f 8d 3c 4a 1b 62 3d 3f e1 c9 3c ab db 71 3c
       0.017265266 0.055201806 0.024643539 0.014761846
000110 ae 42 78 3d fa b7 53 3d 9f 77 c5 3d 0d da a1 bd
       0.060610466 0.051689126 0.096419565 -0.07902918
000120 76 c2 6c be 0b d5 e7 bd 09 c7 03 bd f0 01 dd bd
       -0.23121056 -0.113199316 -0.032172237 -0.10791385
000130 3c 3e c8 bd fe 83 17 3d 8d 0c 52 bd 09 1c 18 be
       -0.09777495 0.036991112 -0.0512815 -0.14854445
000140 18 9a aa 3e 1d b1 1d 3e 98 b4 59 be a3 f7 db bd
       0.3332069 0.15399595 -0.21260297 -0.10740592
000150 4e 0d 34 3e a3 00 da 3d eb 0f bb bc c4 a9 72 bd
       0.175832 0.10644653 -0.022834739 -0.059243932
000160 44 f9 4e bc 1a d9 1f 3e 2c 35 94 be 12 d7 32 be
       -0.012632672 0.15610161 -0.28946817 -0.17464855
000170 6c db a5 bd 02 ae ca bc 7f fe e0 bd 0f f1 2f 3d
       -0.08098492 -0.024741177 -0.10986041 0.0429545
000180 05 27 ec 3d 41 6c 01 3e a5 92 fc ba 9b 44 5a 3c
       0.1153088 0.12638952 -0.0019269778 0.013322021
000190 19 48 0c be 14 5e d0 3d 85 7a 28 3e 86 00 13 3e
       -0.13699378 0.10174194 0.16452987 0.14355668
0001a0 8c 65 73 3c 32 f6 e7 bd 99 ca a7 bd 91 79 29 be
       0.014855754 -0.11326255 -0.08192939 -0.1655028
0001b0 3a c4 4b 3b 9c b9 25 3e 5a 79 48 3d d8 9e 74 3d
       0.0031092302 0.16184086 0.048943855 0.059721798
0001c0 1a 0f b9 3c 52 de f5 b8 c2 8e 27 3c 77 7e 56 3d
       0.022590209 -0.00011723921 0.010226907 0.0523667
0001d0 30 5f 6c bd cf c2 11 be c3 1e 7b be a2 55 8b bd
       -0.057707965 -0.1423447 -0.24523453 -0.068034425
0001e0 d7 8c 1d 3e f5 75 8c 3d 81 9f 77 bd b0 3f 9f bc
       0.15385757 0.06858436 -0.06045485 -0.019439548
0001f0 56 6f 9b 3d 99 5a ba bd 34 18 cc bd 81 cd 8f bd
       0.07589595 -0.090993114 -0.09965554 -0.07021619
000200 37 5b 92 3b ff b0 cf bc b0 c3 b6 3d d1 7d a2 3a
       0.00446644 -0.025352953 0.08924043 0.0012397115
000210 e1 eb a6 3b c6 c3 2f bc 8c 44 28 3d 32 05 4f be
       0.005094037 -0.010727828 0.041080996 -0.20216826
000220 ab 83 fd bd 33 77 df bd b3 4a 78 bd 1e 01 57 bd
       -0.12378629 -0.10911407 -0.060618114 -0.0524913
000230 c4 de 47 3e 53 57 e7 bd c5 c3 f7 bd 96 22 9f 3d
       0.19518572 -0.11295953 -0.12097887 0.077702686
000240 a4 26 77 3c 09 c1 42 3c b8 6b 2d bd 8a 9f d3 bc
       0.015084896 0.0118868435 -0.042339057 -0.02583291
000250 7c 58 ce 3d 91 d0 41 3e 37 74 80 be 82 11 43 bd
       0.10075471 0.18927218 -0.25088665 -0.04762412
000260 f4 a6 ae 3d 6b 43 ca 3d 86 1f 49 3e 1a 7c 03 bd
       0.085279375 0.0987614 0.19640931 -0.032100774
000270 8d 66 32 be 02 b1 8c bd ce 5b ab bd 0b 3f 06 bd
       -0.17421933 -0.06869699 -0.0836712 -0.032774966
000280 4b 86 1c bd 8e 4f c6 3c 9c 8d 75 3d a6 46 e9 bd
       -0.03821401 0.024207857 0.059949502 -0.11390428
000290 e1 cb 2a bd be 34 8f 3c 88 81 1a 3e a4 72 3a 3e
       -0.04169834 0.017481204 0.15088475 0.18207794
0002a0 12 ca 35 3d 64 77 61 3d e6 9c 87 be 8e 1b 28 be
       0.044382162 0.0550455 -0.26486892 -0.16416761
0002b0 42 ec dd 3c 4e 49 0b bd 7d 5f 4b bd ed 98 bd bc
       0.027090196 -0.034005456 -0.04965161 -0.02314421
0002c0 55 8a fc bd 45 d5 a6 3d dc e1 c6 3d 9a 80 4b 3e
       -0.12331072 0.08146147 0.09711048 0.19873276
0002d0 34 27 94 3d 01 33 97 3b 23 6b 98 bd 57 48 f0 bd
       0.0723404 0.0046142344 -0.0744231 -0.11732548
0002e0 be a4 b7 bd fa d2 90 3d 5a 0e 9f bc 61 bb 67 bd
       -0.08966969 0.070714906 -0.019416023 -0.056575183
0002f0 6c 0a 23 be e0 ec e2 bd c2 e1 f1 bc 58 ca 6f 3d
       -0.15921944 -0.110803366 -0.029526595 0.05854258
000300 bb 47 09 bd 3b 8f c9 3d e2 f7 a4 3d 8a a7 f4 bd
       -0.033515673 0.09841772 0.080550924 -0.11946018
000310 4e 95 c0 bd da 18 e2 bd 5f f7 83 bd b0 f3 2f bd
       -0.094034776 -0.11039896 -0.06443667 -0.042957008
000320 19 67 01 bd 10 e1 ef 3d 48 8e 04 3e 2b 3f 21 3e
       -0.031592462 0.11712849 0.12944901 0.15746753
000330 41 fc 28 3e df 87 6c bd 9c 0e a2 bd 6b 33 26 bd
       0.16502477 -0.057746764 -0.07912943 -0.04057638
000340 0e ba 2f bd f3 05 c7 3d c9 46 7a bd b9 f2 a3 3d
       -0.042902045 0.097179316 -0.061102662 0.0800528
000350 33 aa 8b 3c 2f 08 1b 3e 36 68 92 3e 9e 47 c7 bc
       0.01704893 0.1513984 0.28595132 -0.024326142
000360 22 87 d2 bd a4 08 5b bd 49 15 50 bd 5e 51 47 bd
       -0.10279681 -0.053475037 -0.05080155 -0.048661582
000370 52 21 6b bc 71 4d d7 bd 5b 07 2f 3d 95 9b 2b bd
       -0.014351206 -0.10512818 0.042731624 -0.04189642
000380 99 e3 a6 3d cc ea 8c be 4c a0 30 be a8 0f 55 be
       0.081488796 -0.27522886 -0.17248648 -0.20806754
000390 03 de 72 bd 68 69 49 be bc 65 15 be 39 b2 d5 bd
       -0.059293758 -0.19669116 -0.1458959 -0.10434384
0003a0 96 0d 87 bd 20 4c 06 bd 84 e4 a2 3d 88 a0 0c be
       -0.06594388 -0.032787442 0.07953742 -0.13733113
0003b0 2f 17 05 be 70 19 8c bd c1 a6 0b bc b2 fe f9 3c
       -0.12997125 -0.06840789 -0.008523644 0.030516956
0003c0 f7 4c 85 bd 31 de a7 bb 51 e2 0f 3b 5e 32 c9 3d
       -0.065088205 -0.005122923 0.0021954963 0.0982406
0003d0 bd 9a 69 3d 56 d4 00 be 55 89 e9 bd a1 9d d4 bb
       0.057032336 -0.12581 -0.11403147 -0.0064885174
0003e0 84 0d b0 3d 2e f0 e6 3d 96 2c da bc 39 b2 7c 3d
       0.08596328 0.112762794 -0.026632588 0.061693404
0003f0 67 e1 c5 bc fd c8 bd bd 8b 61 81 3b f2 4e 4e bd
       -0.024155332 -0.09266851 0.0039483956 -0.050368257

model.after.0.bias f4 [16]
000000 39 e0 90 bd b7 b4 96 bd 62 c2 7c 3d fe ee f2 3c
       -0.07074017 -0.07358687 0.061708815 0.029654976
000010 0e b5 cf 3d ba 1c 74 3d 68 a1 09 bd 88 99 cf bc
       0.10141955 0.05959771 -0.033601195 -0.025341764
000020 2e fa ac 3d 0b 15 90 bd e5 17 41 3d 89 fd af 3d
       0.084461555 -0.07035264 0.04714193 0.0859328
000030 ec a7 7e bd 04 b6 08 3d c3 c2 74 bc e6 fd 13 bd
       -0.06217186 0.03337671 -0.014939013 -0.03613081

model.after.2.weight f4 [16, 16, 5]
000000 e7 a0 94 bd 30 44 2f be b8 39 8f 3d f2 fd f0 3c
       -0.07257252 -0.17115855 0.06993431 0.029417966
000010 0c d5 20 3e 4e 63 10 3e fb 84 33 3e ce 56 75 bc
       0.15706271 0.14100382 0.17531197 -0.014974309
000020 3d d4 26 3e bb 12 80 3d 3d 29 9b 3d 39 bd 85 bc
       0.162919 0.062535726 0.07576225 -0.01632558
000030 11 df ad 3d 2c c2 de 3d 99 c4 1e 3e 28 db 07 bd
       0.08489812 0.10876879 0.15504684 -0.033167988
000040 dc 6f 6c 3d 03 c0 dd 3d b1 3e 39 be 2e f0 ea bd
       0.057723865 0.10827639 -0.18090321 -0.11471592
000050 3c 64 a3 3d c6 fe 4b 3d 9e 69 ae bd 81 a8 1b bc
       0.079781026 0.049803518 -0.08516239 -0.009500624
000060 7d 91 01 bd ff 8d 06 be 8d ff d0 bd 91 74 90 bd
       -0.03163289 -0.13140105 -0.102049924 -0.07053483
000070 11 87 ef bc e8 86 32 3d dd ad 56 3e 7e 54 27 3d
       -0.02923921 0.043585688 0.20964761 0.040852062
000080 17 e3 0d be a0 31 ba bd 78 da b7 be 40 8c 9d bd
       -0.13856159 -0.090914965 -0.35908866 -0.07692766
000090 31 c3 cc bd 72 43 00 bd f4 e7 f6 3d b7 b7 23 3d
       -0.09998167 -0.03131432 0.1205596 0.039970126
0000a0 00 1e e3 bd 3b 83 38 3d 98 18 13 3e f2 8a cf bc
       -0.110897064 0.045047026 0.1436485 -0.025334809
0000b0 59 d2 c5 3c 9b 8e 24 3e 0f 57 10 3d 9c a8 d4 bc
       0.024148153 0.16070025 0.035239276 -0.025959305
0000c0 29 fd 5d b9 d0 81 4c bd 5f 79 6d 3c 55 c1 74 3d
       -0.00021170512 -0.049928486 0.014494269 0.05975469
0000d0 a3 a8 9e 3d 56 d7 41 3d 90 9b 4c bd 8e 34 91 3d
       0.07747009 0.0473245 -0.049953043 0.07090102
0000e0 30 e6 83 3d 04 fd 5d bd 84 dc 22 bc 81 79 29 be
       0.06440389 -0.054196373 -0.00994027 -0.16550256
0000f0 7c 3a 39 3d 5a ab 86 bd 79 23 28 be b5 51 5d be
       0.04522179 -0.065756515 -0.16419782 -0.216132
000100 3b 74 41 be 82 72 5d be 1b 80 e2 bd d4 5d b2 3d
       -0.18891995 -0.21625713 -0.110595904 0.087093025
000110 ae 25 03 3e bb 89 7c 3d 31 17 05 3e c3 68 8d 3e
       0.12807342 0.061654788 0.12997128 0.2761899
000120 61 26 bb 3e 01 01 3d 3e ab 4a 5c 3e 47 53 c9 bd
       0.36552718 0.18457414 0.21512859 -0.09830337
000130 8c 79 22 bc 55 06 44 bd 0d e0 fb bc a7 23 f6 bd
       -0.009916674 -0.0478576 -0.030746484 -0.12018519
000140 08 e0 15 3e 41 32 05 3d 51 40 90 be d3 b3 87 bd
       0.14636242 0.03251863 -0.2817407 -0.066260956
000150 aa 5e 11 be cb 26 16 be 5c 8f a4 bd 82 8c 01 3e
       -0.14196268 -0.14663236 -0.08035156 0.12651256
000160 e7 6a ea bd 28 3c e3 bd fb 6e 0d 3d 4c 13 8a 3d
       -0.11446171 -0.11095458 0.034529667 0.06741962
000170 e1 27 86 3b 41 8a 05 3c ea 4a c6 3d 25 2c 5d be
       0.0040941094 0.008150638 0.096822575 -0.21598871
000180 cb 5b 29 be 5f 06 3b be ac 59 da bd ec 47 7f be
       -0.16538922 -0.18264149 -0.10661635 -0.2492978
000190 e7 80 a0 be 7d a5 04 bd 71 73 17 be a6 65 2c be
       -0.31348345 -0.032384384 -0.14790131 -0.16835651
0001a0 bb 8d 5f be 23 d2 96 bc 08 6e dd 3d fd 34 dd 3d
       -0.2183141 -0.018410748 0.108120024 0.10801122
0001b0 19 83 5d bd 5e a4 df 3d cb cf 5c be e0 82 02 be
       -0.054080103 0.109200224 -0.21563642 -0.12745237
0001c0 02 f9 bf be 3f 03 7a bd e5 54 49 3e cd ce c5 bd
       -0.37494665 -0.061038252 0.19661291 -0.09658585
0001d0 08 4e 18 bd 5c 66 1c bd cc 49 27 be dc 8a 53 be
       -0.03718379 -0.038183555 -0.16336745 -0.2065844
0001e0 83 0e a2 be 93 a3 62 be 2a 8d 81 bd 23 3e 4b bc
       -0.31651697 -0.22132711 -0.06325753 -0.012404951
0001f0 a0 7f 3e be 4c d4 52 3d ca 0a 81 bd 44 02 e0 3d
       -0.18603373 0.051471993 -0.06300886 0.10937932
000200 02 81 08 3e 9f 25 0a 3d 60 aa 40 bd a9 3d 18 3d
       0.13330463 0.033727285 -0.047037482 0.03716818
000210 78 5a 11 be 57 a0 b9 be 95 ec 9a be b6 61 1a 3d
       -0.14194667 -0.36255142 -0.30258623 0.03769084
000220 ae 12 df 3c be 63 1f be 74 bd cf be 39 13 c5 be
       0.027230587 -0.15565392 -0.4057423 -0.38491228
000230 f7 72 27 be fb 79 2b bd cf 03 45 3d 6f b7 84 bd
       -0.1635245 -0.041864377 0.048099335 -0.064803
000240 6d 59 b7 bd 89 61 aa be 65 26 42 be 8f b9 82 be
       -0.089526035 -0.33277538 -0.18959959 -0.25532195
000250 a0 e6 09 be 22 79 b3 be 5c 89 6e be e3 42 99 bd
       -0.13466883 -0.35053355 -0.23294586 -0.07483461
000260 8d be 05 be 31 54 d4 bd 36 54 a0 be bd ad 1b 3d
       -0.1306097 -0.10367621 -0.31314248 0.038007487
000270 36 e2 1b 3e 28 02 27 bd 5f 23 84 bd 9d 1b 6f be
       0.15223011 -0.04077354 -0.06452059 -0.23350377
000280 d6 2a 5e 3e bf 6f 1a 3e e3 94 01 3e e4 7f 5d 3d
       0.21696028 0.1508169 0.12654452 0.054077044
000290 b5 95 f2 bd 12 84 5a 3e 21 2c 04 3d 7e df 18 3d
       -0.118449606 0.21339443 0.032268647 0.037322514
0002a0 cf a9 37 3e 58 69 63 be 29 bd b8 3d 44 24 fc 3b
       0.1793587 -0.22208154 0.090204544 0.007694753
0002b0 be 23 c4 3d c0 f9 e0 3d 9d 18 8f bd 51 f9 a7 bd
       0.0957713 0.10985136 -0.069871165 -0.0820185
0002c0 5e bb ae bd 33 47 eb bb e6 00 4f bd 82 06 9f bc
       -0.08531831 -0.0071801185 -0.050537966 -0.019412283
0002d0 a0 82 37 bd 7e e3 dd 3c 37 7a 60 3d 82 14 c5 bd
       -0.044802308 0.027086016 0.054804053 -0.09623052
0002e0 bc 46 0f be 44 e0 24 bd a5 e3 34 3d 89 62 6f 3d
       -0.13991827 -0.04025294 0.04416241 0.05844358
0002f0 20 70 53 3d 80 17 7e 3d fd 4b 4d be f8 e5 33 3d
       0.051620603 0.06203413 -0.20048518 0.043920487
000300 46 5c 49 be 46 b0 48 bd c0 40 94 3e 39 55 10 be
       -0.19664106 -0.048996232 0.2895565 -0.1409501
000310 92 a7 a2 3c 36 a3 17 3e 7e 95 96 3d 2e 7e 68 3d
       0.019855294 0.14808354 0.07352732 0.05676096
000320 55 88 15 3e f0 17 c5 bb 6c d0 e2 bd 6e 5c 96 be
       0.14602788 -0.0060148165 -0.110749096 -0.29367393
000330 0b ee 6b be f0 0f 9a 3d c5 3c 2f 3c 52 45 97 bd
       -0.23040025 0.07522571 0.010695641 -0.07386269
000340 c5 c6 2d 3c e6 60 87 3c 84 86 e1 bd 8a c3 8e bc
       0.010606472 0.016525697 -0.11011985 -0.017427225
000350 ab 6f 5f 3d 1e 2b 87 bd 30 ff 61 3d 8e 8a 4e 3e
       0.054549854 -0.06600021 0.055175006 0.20170042
000360 ce 6c 52 3e b2 fa 37 be e3 ef a3 be ed f6 2f be
       0.20549318 -0.17966726 -0.32018957 -0.17184038
000370 45 2e 7b be 28 ce 58 be d0 0a 1f bd d5 4a ad 3d
       -0.24529369 -0.21172392 -0.03882867 0.08461539
000380 df f3 bb 3d f8 e9 40 3d 89 10 63 bd d7 75 11 be
       0.09177374 0.04709813 -0.05543569 -0.14205109
000390 20 ac 24 be 79 bc 1a be 4d 4a 7d be fc 17 03 be
       -0.16081285 -0.15110959 -0.24735375 -0.12802118
0003a0 77 de 41 be 65 bf 15 be 4e 53 00 be d4 26 ae be
       -0.1893252 -0.14623792 -0.12531778 -0.34013999
0003b0 c2 3d 6a be b3 a9 dd bd 7f 2c 03 bd 3a 73 bb be
       -0.22875121 -0.10823383 -0.032024857 -0.36611348
0003c0 8b d8 97 be 2e 62 0a bd c4 c0 9c bd e3 39 42 3d
       -0.29657397 -0.033785038 -0.076539546 0.047418486
0003d0 5e a8 33 3c 8b 4a 28 3e e4 7c 13 bd 6b 43 08 3e
       0.010965435 0.16434686 -0.036007777 0.13306968
0003e0 bb 59 15 bb 00 68 d7 3c 62 3e 4b be 38 60 7a bd
       -0.002278908 0.026294708 -0.19848016 -0.061126918
0003f0 c7 d1 0b 3d 7c cc a3 3d 21 73 41 3e 52 14 40 bd
       0.034135606 0.07997987 0.18891574 -0.04689438

model.after.2.bias f4 [16]
000000 2b 83 69 bd 3b a1 18 3e 79 5e 3b 3c b7 66 72 3d
       -0.057009857 0.14905255 0.011436098 0.059179988
000010 24 5c 60 bc 03 fb cd bc d2 7a 29 bd 33 12 96 3d
       -0.013693843 -0.025144106 -0.041376896 0.0732769
000020 82 b7 cc 3b 15 0f e1 3d 8f ff 4a 3d 57 a2 f5 ba
       0.006247462 0.10989205 0.049560126 -0.0018740398
000030 02 d5 ad bd 51 49 da 3d a3 51 43 3c 26 4f 2b bd
       -0.08487894 0.10658515 0.011921319 -0.04182353

model.after.4.weight f4 [8, 16, 5]
000000 5c 24 4b bd c9 e2 90 3e ac af 26 3e 2a e6 25 3e
       -0.049595222 0.28298023 0.16277951 0.16201082
000010 1f 7f d6 3d 1d 73 6b bd 4f 91 44 be bb b3 20 be
       0.10473465 -0.057482827 -0.19196056 -0.15693562
000020 2a 07 86 be 82 7d 9d be 17 45 4c be 9f d3 26 be
       -0.2617734 -0.30759817 -0.1994823 -0.16291665
000030 2a 7e 1e be dc af 4a 3c f4 29 02 be a0 50 b2 3e
       -0.15477815 0.01237103 -0.12711316 0.34827137
000040 fa 7f 50 3e 20 96 99 3d ee 6d d5 bd 2e d5 0b be
       0.20361319 0.07499337 -0.10421358 -0.1365554
000050 1a 14 ba bd 49 f5 c8 bd 09 61 db bd 2e 7e 12 be
       -0.09085865 -0.098124094 -0.10711867 -0.14305946
000060 8e bc b5 bd 4f a1 7d 3e d6 66 67 3e 0a 65 cd 3d
       -0.088738546 0.24768566 0.22597823 0.10029037
000070 89 13 0c be be 26 5a be fd 87 33 bd 73 70 9d bd
       -0.13679327 -0.21303841 -0.04383086 -0.076874636
000080 76 9c 5d be 7f 7a 59 be 07 c9 b4 bd 28 33 11 3d
       -0.21641716 -0.21238135 -0.088274054 0.035449177
000090 fe 55 f4 bd 4a 70 8f be 23 12 28 be 79 69 fc bd
       -0.11930464 -0.28015357 -0.16413169 -0.12324805
0000a0 ca 9d fe 3e 1c 64 8e 3e e4 2a 9c 3d 34 c1 c7 3c
       0.49729759 0.27810752 0.07625368 0.024384119
0000b0 45 24 26 bd f7 23 a8 be 56 8a 1e be 76 3b ab bc
       -0.040561933 -0.3283994 -0.15482458 -0.020902377
0000c0 77 2e 8e 3e 9b 04 94 3e 71 21 80 3d ce 7a be 3c
       0.27769825 0.28909764 0.062563784 0.023251917
0000d0 62 62 35 3c 82 34 ee bd e3 08 8a be f7 25 59 3e
       0.01107082 -0.11631109 -0.26959905 0.21205889
0000e0 42 89 97 3c 04 cc 57 3e 8a 94 bd 3e 49 8d f0 3e
       0.018498067 0.2107392 0.3702739 0.46982792
0000f0 0f 42 fd bd 16 0c cb be 52 b3 34 be dc 21 53 3e
       -0.12366115 -0.39657658 -0.1764653 0.20618385
000100 f0 2c 47 3e 7e 37 70 bd 71 82 41 be 1d 39 cf bd
       0.19450736 -0.05864667 -0.18897416 -0.10118315
000110 7b 6b f3 3d 34 0c ee bd dd 3e 92 3e 6a 88 76 3e
       0.11885735 -0.11623421 0.28563586 0.24075475
000120 dc 24 4b 3e 01 65 84 3e 0d 9e 41 3e 5f 69 7f bd
       0.1983828 0.2585831 0.18907948 -0.06235635
000130 8c 61 e9 3d 66 19 84 3e 2c 9d 5d 3c 46 eb 09 3e
       0.11395559 0.25800627 0.013526242 0.13468656
000140 2a 98 24 bd e8 d3 c6 bd c6 f9 6a be b3 c4 52 be
       -0.040184177 -0.09708387 -0.22946844 -0.20582847
000150 46 a7 16 be c3 29 1b 3e 50 1e a9 3d 3a cb 1e 3d
       -0.14712247 0.1515265 0.08257735 0.03876803
000160 cc d8 91 3d 2b 46 9c 3e da a7 33 3d 3d 92 d5 3d
       0.07121429 0.30522284 0.043861248 0.10428283
000170 a2 47 d2 3d 70 7b a4 3c 1c a2 a5 3d 96 43 a5 be
       0.10267569 0.02007839 0.080875605 -0.32278126
000180 82 a8 4d bd e0 e4 22 be a3 30 ca bd 22 c8 0c 3e
       -0.05020953 -0.15907621 -0.09872558 0.1374822
000190 9a ca cc bc 7e ca 23 3e 05 34 28 3e 9d b3 8c 3d
       -0.024998952 0.15995213 0.16426094 0.06870196
0001a0 8f c5 88 3d a4 df 40 be 7b 12 44 be ca 03 9f bc
       0.06678306 -0.18835312 -0.19147675 -0.019410986
0001b0 b5 ae 43 3c c4 0f 61 3e 82 54 0d 3e ba 7d 49 3d
       0.011943509 0.2197867 0.13801768 0.049192168
0001c0 9d 32 2f 3d 1d 02 58 3e fe 90 6e 3e 7b a3 33 bc
       0.042772878 0.21094556 0.23297498 -0.01096427
0001d0 0b b0 65 3e 74 c1 15 3e ba d5 a1 3d b0 fb 30 3d
       0.22430436 0.14624578 0.07902093 0.043208778
0001e0 db bc 00 bf 62 c0 ab be ee 3b 7e be 1a 3e 87 bd
       -0.5028817 -0.33545214 -0.24827549 -0.06603642
0001f0 d3 92 f0 3b b1 51 87 3e cb 91 41 3e 5d a8 36 bd
       0.0073417216 0.26429513 0.18903272 -0.044594157
000200 37 6d 62 be 90 83 b6 be 16 fc 80 3d 53 92 8e 3b
       -0.22111975 -0.3564725 0.062980816 0.0043509393
000210 b4 e9 ba bd dd b0 cf bc 18 79 78 3e b7 93 31 be
       -0.091266066 -0.02535289 0.24264944 -0.17341505
000220 19 d3 0b be fb dc 5c bd 2d 99 c1 be 57 27 d3 be
       -0.13654746 -0.05392168 -0.37812176 -0.4124095
000230 d6 6f 6f 3e cb 6d b5 3e ff b3 5d 3e 80 e0 00 be
       0.23382506 0.35435328 0.21650694 -0.1258564
000240 e2 d8 bc bd 7c 71 5c 3e d1 6e 14 3e 7f 3d 8b bd
       -0.092210546 0.21527666 0.14495398 -0.06798839
000250 d6 8f c0 3c 8b 13 25 bd 3e 5f 82 be f0 4b 42 be
       0.023506086 -0.04030184 -0.2546329 -0.1897428
000260 30 c6 a1 be 55 70 c7 be 7d aa 55 bd 31 64 95 3d
       -0.31596518 -0.3895289 -0.052164543 0.072945006
000270 15 35 78 bc 80 4d 86 be 35 22 a3 bc 59 58 15 bd
       -0.0151493745 -0.26231003 -0.019913772 -0.036461208
000280 97 01 3d 3d 4c 10 34 3e 05 e0 31 3e c8 0f 40 3e
       0.046144094 0.17584342 0.17370613 0.1875602
000290 9a d5 0b 3e 8f cd b3 bd 68 f9 55 bd 47 ee 6c bd
       0.13655701 -0.087794416 -0.052239805 -0.057844426
0002a0 79 9c 90 be 5b d0 8f be aa 30 0d bd 64 dc 28 be
       -0.2824438 -0.2808865 -0.034470238 -0.16490322
0002b0 b2 4c 99 bd 7b f1 c9 bd 45 1a c7 bd 48 03 68 3e
       -0.074853316 -0.09860512 -0.097218074 0.22657502
0002c0 67 15 2d 3e f8 96 30 3e 20 d9 3d 3d 79 08 a9 3d
       0.16902696 0.1724509 0.046349645 0.08253569
0002d0 b9 c2 9c bd 73 f5 49 be c3 6e bd bd d5 a6 dc bd
       -0.07654328 -0.19722538 -0.09249642 -0.10774008
0002e0 4e 36 0c be 82 83 9f 3d 8d 94 44 3e 70 93 c0 3d
       -0.1369259 0.07788755 0.19197293 0.094031215
0002f0 3f e4 05 be af 52 25 be 7d 74 16 be ec e6 59 be
       -0.1307535 -0.16144823 -0.14692874 -0.21279496
000300 7d 5e 32 be 26 cc 4a be 53 dd 00 be c9 f9 e8 bd
       -0.17418857 -0.19804439 -0.12584428 -0.11375768
000310 9a 73 96 be b7 bc 86 bd 93 bc 87 bd 5e 2a 6c be
       -0.29385072 -0.06578963 -0.066277646 -0.23063037
000320 c1 be d4 3e 12 e4 9c 3e d7 e9 5f 3e 87 e3 d2 3c
       0.41551784 0.30642754 0.21866547 0.02574326
000330 f3 f2 fd bc d6 b2 bd be 19 32 17 be 09 ea 8a 3c
       -0.030999636 -0.37050503 -0.14765204 0.0169573
000340 90 cd 8c 3e d9 04 94 3e 44 5c ba bd 41 b1 7e bd
       0.27500582 0.28909948 -0.090996295 -0.06218076
000350 85 a9 aa bb de 03 87 3b 56 64 63 be f5 13 dd 3c
       -0.0052081966 0.004120334 -0.22206244 0.026987055
000360 27 a4 6d 3e 51 89 2a 3e 2d 11 b9 3e c3 11 e6 3e
       0.2320715 0.16653945 0.36145917 0.44935426
000370 56 d4 64 be db 26 a8 be 84 6b ad bd 38 a1 89 3d
       -0.22346625 -0.32842144 -0.084677726 0.06720203
000380 76 88 44 3e 60 68 15 be 4d 2d fd bd 78 76 f4 3d
       0.1919268 -0.14590597 -0.12362156 0.119366586
000390 fa ac 96 3d 4e d3 31 be ae c6 ad 3e bb 67 38 3e
       0.073572114 -0.17365763 0.33940643 0.1800832
0003a0 96 be 13 3e be 58 c6 3e 5f 57 aa 3d 8c 78 21 bd
       0.14428172 0.3873958 0.08317446 -0.039421603
0003b0 c2 4b c9 3d f4 6c 98 3e 78 12 09 3e 7b 6c 85 3c
       0.09828903 0.29770625 0.13385952 0.01628708
0003c0 f4 0c 17 bd 38 4e ad bd 08 cd 80 be a9 f3 58 be
       -0.036877587 -0.08462185 -0.25156426 -0.21186699
0003d0 08 0c de 3a 3f ed 6b 3d c3 fe 2d 3e 9b 0f a3 3d
       0.0016940841 0.057599302 0.16991715 0.07961961
0003e0 91 b5 2b 3e 75 3e 9e 3e ce c4 68 bc d0 30 73 3e
       0.16768481 0.30907026 -0.014207078 0.23749089
0003f0 13 01 00 3e 3e f9 06 3e cc 29 07 3d f1 e4 81 be
       0.1250041 0.13181016 0.032998845 -0.2536998

model.after.4.bias f4 [8]
000000 e6 61 8f 3d 47 80 16 bb 3e 58 83 bb 66 d6 3b 3d
       0.070010945 -0.0022964643 -0.004008322 0.045858763
000010 0a 89 b1 bd 16 11 06 3d 2b 54 61 3d 8f c9 91 bc
       -0.08668716 0.03273114 0.05501191 -0.017796306
