models/lstm_X_91_48.onnx (onnx, 64297 bytes, 16 tensors)

model.before.0.weight f4 [16, 6, 5]
-0.27860773 0.17879824 0.18587174 0.011011222 0.14691935 -0.01773301 -0.051490147 -0.20942402
0.038174804 -0.18549554 0.16491422 -0.08630836 -0.14859366 0.04483845 0.21380977 -0.003794475
0.39857548 0.19324091 -0.09764653 -0.18001355 -0.057846855 -0.088501036 0.19672655 -0.18775815
-0.21929726 0.154365 0.29488578 -0.054158892 -0.3456156 -0.043612823 0.0033286097 -0.17568077
0.17095381 0.05018851 -0.01393854 0.040617026 0.031428244 -0.09294421 0.092261285 -0.022962479
0.24322723 -0.038397137 0.11379734 -0.27907655 -0.30996928 0.07506532 -0.0029120357 0.2636287
-0.04323142 -0.1581511 0.13765521 0.008287513 -0.12706739 0.1434964 0.12095784 -0.05472673
0.06770473 -0.05164334 0.11530372 0.170205 -0.059945837 0.10952603 0.01222025 0.17937438
-0.0059456476 0.12680385 -0.0645411 -0.27214676 -0.20636019 -0.15948081 -0.17822248 -0.17838176
0.022469275 -0.018090636 0.1757152 0.10881295 0.23320013 0.20453529 0.016651306 0.009106601
-0.08879689 -0.50093627 -0.3539768 0.018310241 0.18882377 0.09557486 0.17159936 0.12530176
-0.16929068 0.079309754 0.10691813 0.09343546 0.09106876 0.23394999 0.22129928 0.058993038
0.17373584 0.34238085 0.036393017 0.35971448 -0.1983165 -0.0693501 0.23670788 0.17119454
-0.04389602 0.19104834 0.37393546 0.3007051 -0.25124565 -0.1454714 0.11225609 0.5544026
0.19772609 -0.11086285 0.11304967 0.17126235 0.12420974 0.07011284 0.020054378 0.0038908282
0.14449559 0.28390688 0.30818194 0.44501168 0.21747448 0.039403174 0.109878436 -0.01839732
0.16996853 0.0753453 0.03108826 0.07007464 0.11497754 0.03767669 0.32712796 0.19752993
0.12068704 0.3103392 0.25704938 0.24201232 0.06652295 0.15930521 0.103169784 0.14526604
-0.023323132 -0.3029335 -0.028113188 -0.013105363 0.049374063 -0.20752703 0.30215457 0.22542238
-0.09247733 -0.11427431 -0.31710765 0.30574304 0.20940797 0.105135955 -0.20193544 -0.15679741
0.2759634 0.11095789 -0.07662484 -0.11930175 0.15060198 -0.048239555 -0.0009345084 -0.47027898
-0.6573172 -0.29393384 -0.07818671 -0.158191 -0.3077824 -0.11159732 0.05408357 -0.12527256
-0.043173995 0.08916299 0.054000817 -0.08414832 0.28958338 0.22123624 0.23273705 0.102432765
0.2339801 0.06376878 -0.09717656 0.0058332556 -0.056980476 0.08691977 0.12823091 0.16700214
-0.046097092 -0.06338503 -0.23658818 -0.27482346 -0.056003463 0.085153975 -0.17220502 0.20268206
0.16411608 0.048220083 0.07230458 0.09402529 -0.14764014 -0.049668398 0.27544326 0.01294435
0.085349 -0.20792077 -0.41529858 -0.19965537 -0.30327728 -0.22278985 0.22399142 0.115287445
0.23087505 0.11588348 0.039290983 -0.21960385 -0.15570766 0.041928478 0.14443423 0.16699375
0.17593949 0.13503632 0.15223324 -0.07923841 0.33321843 0.08061129 0.123714104 0.3336421
-0.22243753 -0.1030531 0.01844468 -0.09299935 -0.00465521 -0.17553115 -0.13899375 0.11365937
-0.074724436 -0.14550252 -0.18264048 0.035226345 0.008473848 -0.3651827 -0.32797965 -0.40476164
-0.29573628 -0.10378449 0.070375495 0.10006288 0.18069077 0.16613527 -0.16031963 0.21969414
00000000: aca5 8ebe e316 373e 2955 3e3e 6a68 343c
00000010: 0772 163e d144 91bc 55e7 52bd 4073 56be
00000020: 2f5d 1c3d 8bf2 3dbe 46df 283e 70c2 b0bd
00000030: f028 18be 86a8 373d f3f0 5a3e baac 78bb
00000040: 1612 cc3e f2e0 453e e7fa c7bd 7955 38be
00000050: d3f0 6cbd 0840 b5bd af72 493e ac43 40be
00000060: 768f 60be dc11 1e3e 45fb 963e b7d5 5dbd
00000070: 87f4 b0be 5ca3 32bd ce24 5a3b a9e5 33be
00000080: 840e 2f3e 7892 4d3d 795e 64bc 0a5e 263d
00000090: e7ba 003d 8959 bebd 7cf3 bc3d cf1b bcbc
000000a0: 8f10 793e 5146 1dbd 940e e93d 1fe3 8ebe
000000b0: 4bb4 9ebe d9bb 993d dad7 3ebb 57fa 863e
000000c0: 6e13 31bd 5df2 21be 7df5 0c3e 59c8 073c
000000d0: f41d 02be b8f0 123e beb8 f73d 2329 60bd
000000e0: c7a8 8a3d f887 53bd 5b24 ec3d 384a 2e3e
000000f0: c489 75bd 2f4f e03d 7237 483c ebad 373e
00000100: b5d3 c2bb ded8 013e 202e 84bd d256 8bbe
00000110: 1650 53be f04e 23be f47f 36be b5a9 36be
00000120: 7c11 b83c d032 94bc afee 333e 53d9 de3d
00000130: 04cc 6e3e b371 513e 5268 883c da33 153c
00000140: 25db b5bd 5c3d 00bf 723c b5be 5cff 953c
00000150: 055b 413e c1bc c33d beb7 2f3e 1b4f 003e
00000160: 895a 2dbe 276d a23d e4f7 da3d 175b bf3d
00000170: 4282 ba3d 9690 6f3e 479c 623e afa2 713d
00000180: cfe7 313e 8b4c af3e d810 153d 7f2c b83e
00000190: 7b13 4bbe 6d07 8ebd 8d63 723e 9f4d 2f3e
000001a0: 50cc 33bd 2da2 433e 7874 bf3e 05f6 993e
000001b0: 45a3 80be 74f6 14be 85e6 e53d 54ed 0d3f
000001c0: b578 4a3e 100c e3bd 9686 e73d 665f 2f3e
000001d0: ad61 fe3d 5297 8f3d 1449 a43c 44fd 7e3b
000001e0: a7f6 133e 3e5c 913e 06ca 9d3e 92d8 e33e
000001f0: a1b1 5e3e 3965 213d f207 e13d fab5 96bc
00000200: 3b0c 2e3e a34e 9a3d ceac fe3c 4b83 8f3d
00000210: 5879 eb3d df52 1a3d 517d a73e 4945 4a3e
00000220: c42a f73d c8e4 9e3e fa9b 833e 14d2 773e
00000230: 2f3d 883d e820 233e ae4a d33d 9fc0 143e
00000240: 2710 bfbc 1a1a 9bbe a14d e6bc e0b7 56bc
00000250: 753c 4a3d f781 54be 01b4 9a3e 20d5 663e
00000260: c164 bdbd a608 eabd ef5b a2be 5a8a 9c3e
00000270: 0b6f 563e 8551 d73d 2ac8 4ebe 808f 20be
00000280: 134b 8d3e e43d e33d 7ced 9cbd 7a54 f4bd
00000290: 6837 1a3e d796 45bd ccf9 74ba 68c8 f0be
000002a0: f145 28bf 7f7e 96be 5b20 a0bd d2fc 21be
000002b0: a895 9dbe 238d e4bd bc86 5d3d 7347 00be
000002c0: 37d7 30bd 169b b63d f62f 5d3d f455 acbd
000002d0: 4644 943e c18b 623e 9f52 6e3e 45c8 d13d
000002e0: 7b98 6f3e 3599 823d 8104 c7bd e524 bf3b
000002f0: 5c64 69bd fe02 b23d f74e 033e 9c02 2b3e
00000300: 4ed0 3cbd 03d0 81bd 2c44 72be a9b5 8cbe
00000310: e363 65bd 3565 ae3d 8356 30be e38b 4f3e
00000320: 0c0e 283e 6c82 453d 6c14 943d 5590 c03d
00000330: fa2e 17be 1771 4bbd e606 8d3e 8a14 543c
00000340: 75cb ae3d 2fe9 54be 04a2 d4be 7572 4cbe
00000350: 2947 9bbe 0623 64be 025e 653e d31b ec3d
00000360: 826a 6c3e 5154 ed3d 95ef 203d d5df 60be
00000370: d471 1fbe 32bd 2b3d 91e6 133e 6900 2b3e
00000380: 7b29 343e f646 0a3e 08e3 1b3e bf47 a2bd
00000390: 9b9b aa3e 8817 a53d d25d fd3d 23d3 aa3e
000003a0: aac6 63be 810d d3bd 4c19 973c 7176 bebd
000003b0: bb8a 98bb 70be 33be 6154 0ebe 3ec6 e83d
000003c0: 2009 99bd 9dfe 14be 1b06 3bbe 8049 103d
000003d0: e5d5 0a3c 3af9 babe f3ec a7be eb3c cfbe
000003e0: bf6a 97be f68c d4bd 0721 903d c4ed cc3d
000003f0: 0007 393e 5d1f 2a3e d42a 24be 80f7 603e

model.before.0.bias f4 [16]
0.06649489 0.029637609 -0.0070421123 0.07675475 0.031548083 0.07605618 0.05905454 -0.0014333072
0.024572002 0.0119154425 0.05521739 0.1063618 0.016545422 0.19440801 0.07709588 0.042015295
00000000: 792e 883d 92ca f23c 85c1 e6bb 9831 9d3d
00000010: 9038 013d 58c3 9b3d 2ce3 713d cfdd bbba
00000020: 394b c93c fd38 433c a12b 623d 37d4 d93d
00000030: 448a 873c e512 473e 72e4 9d3d 3b18 2c3d

model.before.2.weight f4 [16, 16, 5]
-0.08978241 -0.2703924 0.03386971 -0.24223416 -0.260935 0.09063755 0.1027668 -0.08171332
-0.0607431 -0.19372155 0.07023213 -0.07688248 -0.3203615 0.0021888053 0.098470345 0.08065125
-0.1767711 -0.06821238 0.15288757 0.06742637 -0.12147535 -0.355659 -0.03474467 0.049751043
0.03746582 -0.027457505 0.12887305 0.22745757 -0.011826118 -0.16367127 0.14276914 0.17996839
-0.08085056 -0.23586129 -0.008591991 -0.2627324 -0.1651223 -0.19616726 -0.021976126 0.13511975
0.014187918 -0.1710016 -0.20035192 -0.22071967 0.12524019 -0.21998827 0.022215217 0.120985575
0.07711677 0.1968394 -0.07461777 -0.22536236 -0.079337195 0.07011816 0.15129383 -0.13106239
-0.027138732 0.121980764 0.22625877 0.2081976 -0.07640182 -0.014990107 0.18045639 0.077860974
-0.04666669 -0.040683262 -0.06369573 0.09665719 0.27630454 0.2586067 -0.04670551 -0.1193791
0.026092187 0.02114944 0.1074552 -0.19142976 -0.009468885 -0.17621775 -0.07500405 -0.17415139
-0.20609361 -0.13190287 0.015096708 -0.02912026 -0.1572292 -0.21265043 -0.3253268 0.073197015
0.067862175 0.19930282 0.05323808 -0.020491818 0.05457279 -0.012700548 0.028160028 0.09872803
0.17228027 0.17794257 0.08464027 -0.03225637 0.042273056 -0.1005344 -0.027688883 -0.18396519
0.06200365 0.34805614 0.220464 0.06670952 0.1811071 0.20985615 -0.22212248 -0.33923084
-0.13666588 -0.33474308 -0.2619375 0.01664855 -0.07141843 -0.057929803 0.099212244 0.13362777
-0.10723277 -0.007254459 -0.024790075 -0.11124469 -0.20475972 0.013220186 -0.013717544 0.091963425
0.003489727 0.109371595 0.20412757 0.116944104 -0.06181183 0.0024178438 0.017830601 0.13308723
0.04499763 -0.07900675 -0.17424543 0.013108307 0.22231716 0.21007557 0.008196986 -0.093225054
-0.088450536 -0.055739973 0.17002241 -0.006486699 -0.119903736 -0.09078218 0.10986255 0.13001987
0.015025121 0.097493194 -0.09283899 0.057859197 0.08710278 -0.06952904 -0.179063 -0.11889294
-0.13903758 -0.399829 0.063484296 -0.012746668 -0.08324982 -0.0026861643 0.18121688 0.012174243
0.20171055 -0.22904232 -0.06824127 0.07216504 -0.13373926 -0.086294815 -0.36487997 -0.12867993
0.07620537 0.021683002 -0.083811864 -0.069079675 -0.2615157 -0.019795695 -0.06762821 0.044463113
0.039821964 0.15865609 -0.09402207 0.029216513 0.0058534425 0.12710744 0.024338441 -0.033890985
0.014386807 -0.080697045 -0.165893 -0.0042427983 -0.028471481 0.15337712 0.08051288 -0.035973128
-0.23417684 -0.15427703 -0.3938441 -0.42326912 -0.43787372 0.23663801 -0.103911884 -0.30748382
0.15385287 -0.20429368 0.23744102 0.011343729 0.08403809 0.10191644 0.17788163 0.06529133
0.11015648 0.077301875 0.19505866 0.19180168 -0.035740755 -0.26035833 -0.30806372 -0.29875442
-0.16031475 -0.062476374 0.12091984 0.2232521 0.10879989 0.12748273 0.1421017 0.09737368
0.07483467 -0.03356769 0.10211628 0.046398215 -0.030204533 -0.01036197 -0.020697823 0.13623495
-0.103626415 0.1388507 0.046589144 -0.035691 -0.30650187 0.08525765 0.11299873 -0.036465824
-0.020165738 0.20021406 0.04465486 -0.023827998 -0.04634816 -0.14479282 -0.01911635 -0.11264965
00000000: d7df b7bd df70 8abe f7ba 0a3d 3b0c 78be
00000010: 4699 85be 2ea0 b93d 6677 d23d 5059 a7bd
00000020: c2cd 78bd f15e 46be ddd5 8f3d 9074 9dbd
00000030: 6c06 a4be 0f72 0f3b d2aa c93d 7c2c a53d
00000040: 7c03 35be efb2 8bbd 8f8e 1c3e d616 8a3d
00000050: 11c8 f8bd f018 b6be 6d50 0ebd c0c7 4b3d
00000060: c275 193d 90ee e0bc 4cf7 033e a3ea 683e
00000070: 56c2 41bc 7199 27be 1332 123e a249 383e
00000080: fa94 a5bd 9f85 71be 6cc5 0cbc dc84 86be
00000090: d215 29be 12e0 48be 4707 b4bc d55c 0a3e
000000a0: 7174 683c 0b1b 2fbe 0e29 4dbe 5604 62be
000000b0: f73e 003e 9b44 61be b0fc b53c 49c7 f73d
000000c0: 66ef 9d3d 4590 493e 34d1 98bd 64c5 66be
000000d0: 8a7b a2bd 1c9a 8f3d c5ec 1a3e 3835 06be
000000e0: 0c52 debc 0dd1 f93d 61b0 673e c031 553e
000000f0: 8f78 9cbd 1199 75bc 8fc9 383e 9375 9f3d
00000100: 9225 3fbd 7ea3 26bd e872 82bd 34f4 c53d
00000110: ca77 8d3e 1968 843e 474e 3fbd 087d f4bd
00000120: 48bf d53c 9741 ad3c 7911 dc3d 2a06 44be
00000130: 6223 1bbc 6d72 34be b99b 99bd be54 32be
00000140: 340a 53be 8c11 07be 2f58 773c 9d8d eebc
00000150: b100 21be 09c1 59be 3c91 a6be 51e8 953d
00000160: 53fb 8a3d 0a16 4c3e 2c10 5a3d 75de a7bc
00000170: b887 5f3d f615 50bc dcaf e63c ec31 ca3d
00000180: 3d6a 303e 9436 363e e157 ad3d 411f 04bd
00000190: 8326 2d3d fbe4 cdbd ccd3 e2bc 5f61 3cbe
000001a0: 8af7 7d3d 6a34 b23e 51c1 613e 009f 883d
000001b0: 2474 393e 88e4 563e 1374 63be aaaf adbe
000001c0: 24f2 0bbe 7263 abbe ac1c 86be 8a62 883c
000001d0: d343 92bd cd47 6dbd ca2f cb3d b8d5 083e
000001e0: db9c dbbd d0b6 edbb 8e14 cbbc 42d4 e3bd
000001f0: 88ac 51be 7b99 583c 8dbf 60bc 5257 bc3d
00000200: e7b3 643b 37fe df3d d106 513e 6480 ef3d
00000210: 672e 7dbd b074 1e3b 7b11 923c 0548 083e
00000220: 6f4f 383d 4ace a1bd 656d 32be 39c4 563c
00000230: 1ca7 633e 0d1e 573e a74c 063c c7ec bebd
00000240: 8e25 b5bd 994f 64bd 5b1a 2e3e 608e d4bb
00000250: 1790 f5bd 02ec b9bd 9eff e03d ee23 053e
00000260: ed2b 763c 83aa c73d 5e22 bebd c4fd 6c3d
00000270: f162 b23d 3e65 8ebd 4b5c 37be 247e f3bd
00000280: de5f 0ebe 63b6 ccbe 0e04 823d 67d7 50bc
00000290: e27e aabd 5c0a 30bb eb90 393e 7a76 473c
000002a0: 368d 4e3e 128a 6abe 14c2 8bbd 44cb 933d
000002b0: f2f2 08be 56bb b0bd 8cd1 babe acc4 03be
000002c0: 9011 9c3d 8da0 b13c 8ea5 abbd a579 8dbd
000002d0: 63e5 85be 952a a2bc a980 8abd f41e 363d
000002e0: 5b1c 233d be76 223e a58e c0bd 7857 ef3c
000002f0: 3cce bf3b 7428 023e 6961 c73c 46d1 0abd
00000300: a4b6 6b3c 7e44 a5bd dbdf 29be 2c07 8bbb
00000310: 063d e9bc e40e 1d3e f0e3 a43d 8f58 13bd
00000320: 0ecc 6fbe ccfa 1dbe efa5 c9be bbb6 d8be
00000330: fc30 e0be 3c51 723e c1cf d4bd 856e 9dbe
00000340: 9b8b 1d3e 5d32 51be bd23 733e 0cdb 393c
00000350: 2a1c ac3d 91b9 d03d 9a26 363e 76b7 853d
00000360: b899 e13d 7250 9e3d 75bd 473e a967 443e
00000370: e664 12bd b04d 85be 87ba 9dbe 57f6 98be
00000380: 8d29 24be 3ae7 7fbd d2a4 f73d 339c 643e
00000390: 7ad2 de3d d58a 023e 1c83 113e da6b c73d
000003a0: eb42 993d 467e 09bd 5722 d13d 0e0c 3e3d
000003b0: 7f6f f7bc 41c5 29bc 7b8e a9bc 2d81 0b3e
000003c0: 163a d4bd e12e 0e3e 42d4 3e3d ba30 12bd
000003d0: d0ed 9cbe 909b ae3d e16b e73d 305d 15bd
000003e0: 9e32 a5bc ea04 4d3e 04e8 363d ef32 c3bc
000003f0: 91d7 3dbd 9244 14be e499 9cbc dcb4 e6bd

model.before.2.bias f4 [16]
0.11279548 0.119865455 0.007091156 -0.013912522 0.013689579 0.06671979 0.058185425 0.05588378
0.021043085 -0.0060627046 0.07233343 0.015859859 0.016948536 0.10512938 0.13741535 0.028314264
00000000: 5101 e73d 057c f53d ee5c e83b 59f1 63bc
00000010: 424a 603c 63a4 883d d753 6e3d 64e6 643d
00000020: 8c62 ac3c a7a9 c6bb 8d23 943d 89ec 813c
00000030: a8d7 8a3c 134e d73d 9cb6 0c3e 51f3 e73c

model.before.4.weight f4 [32, 16, 5]
-0.06304056 0.06491431 -0.031459626 -0.058115378 0.10904955 -0.12536527 -0.12963784 -0.024887057
-0.02913173 -0.04331044 -0.007566249 0.0941372 0.16722894 0.09613691 -0.107188396 -0.0027362572
0.01900716 0.09053143 0.105903395 -0.04090382 -0.047957703 0.03919508 0.12206946 0.029859908
-0.007881137 0.06766744 0.1461009 -0.10709229 -0.09678162 0.22255057 -0.01544605 0.12615815
0.083494574 0.14958762 0.2878003 0.18943636 0.1985542 -0.013204984 -0.040342595 -0.1426434
0.19184466 0.16576381 0.1301411 -0.021670839 -0.05013331 -0.026045881 -0.08228451 -0.16598167
-0.19958903 -0.18051948 0.27773398 0.015510617 0.070025556 -0.072944105 -0.06688541 0.08692342
0.020233404 -0.053269446 -0.09527121 -0.19044438 0.09625876 0.06994635 -0.05128701 0.0029186804
-0.14189059 -0.020789849 0.09593489 -0.01787259 0.028570479 0.031758007 0.16552529 -0.03313586
-0.102128595 -0.18342291 -0.26864964 0.115466185 -0.057576157 -0.020062169 0.020619541 -0.10845903
-0.09767855 -0.040725157 -0.148537 -0.5406628 -0.38488713 -0.09354423 -0.2431455 -0.2346228
0.0007167907 -0.06546232 -0.07928948 -0.048035033 -0.16941993 0.037472103 0.0290543 0.11708813
0.0037346703 -0.084602565 -0.1142471 0.082159966 0.17244594 0.09826185 0.12698933 0.015749546
0.1405882 -0.18714516 -0.031265683 -0.09136607 -0.3632693 -0.17306586 -0.07335878 -0.09095349
-0.09065606 0.021864342 -0.017782368 -0.11336343 -0.0166259 -0.07168021 -0.10321987 0.03247371
-0.052885205 0.07431485 0.058708813 0.08935567 -0.017668977 -0.07540319 0.113449015 0.091997474
0.041238837 0.18731895 -0.023997737 0.027862443 0.0829463 0.17412362 0.31543013 0.06497606
-0.034748506 0.1585246 0.016629847 0.12157027 -0.07912472 0.059658818 -0.08956084 0.01609149
0.088499226 0.11607068 0.05402301 0.04664451 -0.0129888 -0.17189951 -0.054237936 0.017138476
-0.09845059 0.042056948 0.15705353 -0.022865422 0.0034737454 0.09382885 -0.010392983 -0.029212499
-0.21775293 -0.21648806 -0.16308403 0.15500522 0.1459762 0.19513139 0.1623276 0.10503707
-0.14944328 -0.046525657 -0.06908107 -0.0787007 -0.1965583 -0.18490562 -0.16755848 -0.0043454175
-0.08088103 -0.12154171 -0.16172181 -0.22970463 -0.030351343 -0.28810695 -0.36638892 -0.23361744
-0.07283037 -0.086763695 -0.004264472 0.032289475 0.2519617 -0.116771825 -0.033505954 0.09250321
0.06351719 -0.01707398 -0.06099802 0.13002296 0.20652 0.17055517 0.19778526 0.040336978
0.15912071 0.007238005 -0.04364033 0.044364046 -0.030065896 0.046933323 0.06996584 -0.025445888
0.030622808 0.14628382 0.12647428 -0.061174084 0.017281761 -0.13233906 -0.052295655 0.031542104
-0.09254788 -0.07135353 0.023712365 0.14703535 0.18839468 0.054957416 0.05025914 0.038342416
0.06586457 0.012399894 0.0060469187 -0.0295772 -0.14063683 -0.19875757 -0.008752998 0.11959148
0.11950343 -0.032617602 0.092141815 0.02698106 0.082709834 0.023410833 -0.003231643 -0.073273696
0.067222804 -0.086990274 -0.00023073067 0.2278472 -0.123854436 0.0698265 -0.00046142715 -0.18281093
-0.0558555 -0.21964183 0.0030359358 -0.012254927 -0.14792427 -0.12368306 -0.018949373 -0.035279803
00000000: 691b 81bd cbf1 843d cfdb 00bd 640a 6ebd
00000010: 5f55 df3d c15f 00be c8bf 04be f1df cbbc
00000020: aaa5 eebc 4a66 31bd 4cee f7bb 01cb c03d
00000030: 103e 2b3e 6ee3 c43d 9785 dbbd c752 33bb
00000040: e7b4 9b3c 8b68 b93d e1e3 d83d c48a 27bd
00000050: 4c6f 44bd 058b 203d 8eff f93d c49c f43c
00000060: e21f 01bc 3a95 8a3d 799b 153e 3453 dbbd
00000070: 7135 c6bd 4ce4 633e 6e11 7dbc 9a2f 013e
00000080: 34ff aa3d 7f2d 193e 905a 933e 9bfb 413e
00000090: cb51 4b3e b859 58bc 473e 25bd 1d11 12be
000000a0: ed72 443e fdbd 293e b543 053e 0b87 b1bc
000000b0: 9658 4dbd 2c5e d5bc c884 a8bd 19f7 29be
000000c0: 1161 4cbe 19da 38be 2633 8e3e 3e20 7e3c
000000d0: 8f69 8f3d b863 95bd 38fb 88bd e804 b23d
000000e0: 86c0 a53c 1031 5abd 8d1d c3bd da03 43be
000000f0: 5023 c53d 0840 8f3d 5412 52bd 5547 3f3b
00000100: c44b 11be 794f aabc 8379 c43d 8a69 92bc
00000110: a30c ea3c af14 023d 767f 293e 78b9 07bd
00000120: cc28 d1bd 37d3 3bbe 728c 89be 8979 ec3d
00000130: fad4 6bbd 6b59 a4bc 50ea a83c c51f debd
00000140: b10b c8bd 6ccf 26bd 151a 18be e168 0abf
00000150: ed0f c5be 1e94 bfbd 22fb 78be f640 70be
00000160: 02e7 3b3a 1c11 86bd 8662 a2bd 62c0 44bd
00000170: 6b7c 2dbe 597c 193d 4903 ee3c e7cb ef3d
00000180: 5fc1 743b 1c44 adbd 62fa e9bd 7c43 a83d
00000190: ab95 303e 823d c93d 7e09 023e 3105 813c
000001a0: 5af6 0f3e fba2 3fbe 7210 00bd 221e bbbd
000001b0: 6ffe b9be 2d38 31be 213d 96bd d345 babd
000001c0: e2a9 b9bd d91c b33c 54ac 91bc 162b e8bd
000001d0: 0a33 88bc 13cd 92bd f064 d3bd 2703 053d
000001e0: 289e 58bd 6232 983d a778 703d 1b00 b73d
000001f0: 88be 90bc fd6c 9abd f557 e83d 2c69 bc3d
00000200: 0eea 283d 8ad0 3f3e e796 c4bc c73f e43c
00000210: c0df a93d 764d 323e 0f80 a13e 2b12 853d
00000220: 7354 0ebd 4654 223e 513b 883c d5f9 f83d
00000230: 240c a2bd ce5c 743d ac6b b7bd 4dd2 833c
00000240: 153f b53d 77b6 ed3d 3b47 5d3d 500e 3f3d
00000250: face 54bc 6d06 30be 9928 5ebd fd65 8c3c
00000260: 77a0 c9bd e843 2c3d a4d2 203e 4450 bbbc
00000270: c7a7 633b 5729 c03d 5547 2abc 0d4f efbc
00000280: a0fa 5ebe 0caf 5dbe 80ff 26be b0b9 1e3e
00000290: c97a 153e 86d0 473e 3539 263e ad1d d73d
000002a0: a907 19be b091 3ebd 607a 8dbd d52d a1bd
000002b0: 9446 49be e657 3dbe 7394 2bbe 0164 8ebb
000002c0: f4a4 a5bd dcea f8bd 679a 25be b137 6bbe
000002d0: 61a3 f8bc c182 93be 5497 bbbe 6939 6fbe
000002e0: 1728 95bd 2ab1 b1bd fcbc 8bbb f841 043d
000002f0: 2001 813e 1126 efbd 8a3d 09bd 5372 bd3d
00000300: 4d15 823d bbde 8bbc 0fd9 79bd bd24 053e
00000310: fb79 533e 04a6 2e3e 3888 4a3e 6338 253d
00000320: 8af0 223e c92c ed3b 34c0 32bd 13b7 353d
00000330: c14c f6bc 283d 403d 404a 8f3d e573 d0bc
00000340: afdc fa3c 6dcb 153e 7982 013e ad91 7abd
00000350: 7b92 8d3c e483 07be f833 56bd 4b32 013d
00000360: be89 bdbd cd21 92bd 6f40 c23c 6f90 163e
00000370: 89ea 403e 071b 613d 87dc 4d3d f00c 1d3d
00000380: 01e4 863d ed28 4b3c 3b25 c63b e24b f2bc
00000390: 1a03 10be 1b87 4bbe bc68 0fbc 61ec f43d
000003a0: 37be f43d 099a 05bd d9b4 bc3d 6207 dd3c
000003b0: c663 a93d 13c8 bf3c f9c9 53bb 8510 96bd
000003c0: 1cac 893d f527 b2bd 4bf0 71b9 c750 693e
000003d0: 65a7 fdbd 3201 8f3d b4eb f1b9 ca32 3bbe
000003e0: bdc8 64bd cae9 60be 8df6 463b e4c8 48bc
000003f0: 7679 17be 8b4d fdbd b73b 9bbc 8e81 10bd

model.before.4.bias f4 [32]
0.06308799 0.080152094 -0.12536797 -0.097410105 0.116174676 0.005218148 0.07798308 -0.093172856
-0.019554794 0.17519979 0.03589459 0.016177624 -0.041695412 0.028674493 -0.05564652 -0.008608492
-0.019118356 -0.07675126 0.031683225 -0.05063126 0.07397258 -0.102597594 -0.12552913 0.052825823
0.019873908 0.014725267 0.046873473 -0.057373345 0.08653135 -0.14008604 -0.18113929 -0.012136388
00000000: 4734 813d c826 a43d 7660 00be f37e c7bd
00000010: fdec ed3d 00fd aa3b 98b5 9f3d 69d1 bebd
00000020: 6031 a0bc 9367 333e 3506 133d f086 843c
00000030: cfc8 2abd c5e6 ea3c 9bed 63bd a20a 0dbc
00000040: 199e 9cbc c42f 9dbd 45c6 013d b962 4fbd
00000050: f07e 973d b01e d2bd b58a 00be e45f 583d
00000060: 9bce a23c 3f42 713c 66fe 3f3d 5000 6bbd
00000070: 5937 b13d b772 0fbe 947c 39be b3d7 46bc

model.after.0.weight f4 [16, 32, 5]
-0.0731739 0.04175594 0.1708315 0.069094606 -0.036967866 0.12532297 -0.098727696 -0.03186505
-0.0027156377 -0.1345104 0.088926814 -0.08803434 -0.15624878 0.092743084 0.2621406 0.124292925
0.1154509 0.08450895 0.015671302 -0.008836746 -0.07423901 -0.12473749 -0.09160784 0.06779633
0.025463577 0.016846325 -0.05683208 0.11645111 0.09622112 0.20090544 -0.13669387 -0.03176176
-0.10744437 0.020332124 -0.08502829 0.049560755 0.046144605 0.17078094 0.07111241 -0.011974276
-0.034193974 0.13692649 -0.06818722 -0.093324326 0.014578252 -0.13124001 0.17590326 0.023321288
-0.13055016 -0.26031122 0.08928887 0.06866334 -0.09449551 -0.19351298 -0.08689617 -0.012906035
0.04475273 0.004155154 0.02135431 -0.053610094 -0.13734992 -0.012027114 -0.04586657 -0.07734178
-0.08711062 0.046309374 -0.20230465 -0.08124382 0.13373144 0.16746923 0.005805754 -0.18251523
-0.16860838 0.087615184 0.0885189 -0.06048925 -0.15195067 -0.10233258 -0.0037612882 0.14039443
0.022632636 0.13357794 0.021400461 0.15846993 0.056653835 0.12212125 0.15977278 0.21788113
0.10729328 0.19222163 0.07427711 0.06308784 0.049861398 0.05342339 -0.057881303 -0.22889504
0.036261335 0.18470392 0.13859636 -0.09735613 -0.09889668 0.2894977 0.305545 0.17771557
-0.025340484 -0.19323145 -0.20712702 -0.22673209 -0.054245833 0.113698155 0.14504877 0.055547677
-0.015752416 0.061878037 0.074696235 0.2102119 0.1365793 0.006675472 -0.2007916 -0.063207716
0.08189724 0.074487954 0.15214182 0.18606581 -0.0054879864 -0.18345413 -0.05028038 0.09679581
0.13067923 -0.052178282 -0.003561166 0.099797815 0.16783185 0.044202957 -0.1405026 -0.20788667
-0.16496803 -0.12440407 0.041668568 0.12678164 0.055405717 -0.032888353 -0.11087105 -0.11625139
-0.19751915 0.03623956 -0.07257044 -0.05260456 0.0846738 0.2668138 -0.17797041 0.029428741
0.047933724 -0.041755944 -0.105723344 0.045159105 -0.10513577 -0.08633723 -0.095680185 0.030900292
0.06351896 0.16678809 0.18730517 -0.055987913 -0.058395606 -0.13028967 0.02769132 0.14977407
0.060551114 0.12622748 -0.07163305 -0.13286315 -0.0073573533 -0.0740294 -0.089928634 0.15859936
0.038499635 0.0568779 -0.08123975 -0.020969858 -0.06452517 0.076448694 -0.004577569 -0.05365132
0.050329756 0.0048132767 -0.0010959653 0.044391572 0.031430867 0.06345268 -0.09111629 -0.026924679
-0.08689991 0.047649987 -0.16431223 0.01931391 0.010011486 -0.032209467 0.027944364 -8.4328385e-05
0.0953215 0.113882445 0.023432309 -0.024687015 -0.04817067 -0.20252109 -0.06711877 0.009384661
-0.049453583 -0.09783935 -0.033185564 -0.027279126 -0.13776644 0.045725163 0.2308766 0.15067403
0.06594709 0.06679639 0.026685903 -0.03822778 0.06667951 -0.12104611 -0.0392671 -0.14474924
-0.045527358 0.11884606 0.14881518 0.010964417 0.006378897 -0.21493262 0.037676234 -0.007076785
0.03738091 -0.028001426 -0.15443833 0.16857968 0.15158625 0.16072848 0.113633916 0.084212296
0.12752646 0.06528204 -0.069578595 -0.099461734 -0.13666244 -0.13043395 -0.057600997 -0.0009722869
0.024494609 0.114938214 0.05470038 0.051330835 -0.18919359 -0.36391696 -0.30816174 0.07916999
00000000: 33dc 95bd 4708 2b3d 74ee 2e3e 7981 8d3d
00000010: 9e6b 17bd aa54 003e bf31 cabd ed84 02bd
00000020: d7f8 31bb 18bd 09be 431f b63d 594b b4bd
00000030: aeff 1fbe 16f0 bd3d 4b37 863e 4a8d fe3d
00000040: 8571 ec3d 0713 ad3d 1a61 803c 00c8 10bc
00000050: 9f0a 98bd 5f76 ffbd e49c bbbd cdd8 8a3d
00000060: fe98 d03c 4e01 8a3c c1c8 68bd eb7d ee3d
00000070: 940f c53d 28ba 4d3e 7af9 0bbe 9f18 02bd
00000080: cb0b dcbd 8e8f a63c 5023 aebd 3800 4b3d
00000090: 2002 3d3d 33e1 2e3e 62a3 913d c12f 44bc
000000a0: fb0e 0cbd 7536 0c3e bea5 8bbd d320 bfbd
000000b0: 9fd9 6e3c c863 06be fc1f 343e 490c bf3c
000000c0: f1ae 05be 8347 85be 15dd b63d 5d9f 8c3d
000000d0: dd86 c1bd 4428 46be 9ff6 b1bd d673 53bc
000000e0: a34e 373d f527 883b 3cef ae3c 4296 5bbd
000000f0: 75a5 0cbe 5f0d 45bc 96de 3bbd 5e65 9ebd
00000100: 0e67 b2bd e6ae 3d3d f328 4fbe 2963 a6bd
00000110: e5f0 083e 0e7d 2b3e 323e be3b 46e5 3abe
00000120: ada7 2cbe 976f b33d 6649 b53d 93c3 77bd
00000130: f598 1bbe be93 d1bd f27f 76bb 8fc3 0f3e
00000140: 1468 b93c a8c8 083e 0550 af3c f145 223e
00000150: da0d 683d b51a fa3d 7a9b 233e 3b1c 5f3e
00000160: 94bc db3d bfd5 443e 991e 983d 3334 813d
00000170: 773b 4c3d 7cd2 5a3d f214 6dbd 7663 6abe
00000180: c486 143d 0623 3d3e 34ec 0d3e a762 c7bd
00000190: 588a cabd 0b39 943e 6570 9c3e 12fb 353e
000001a0: d996 cfbc 77de 45be 1b19 54be 752c 68be
000001b0: e130 5ebd 94da e83d aa87 143e f685 633d
000001c0: 360b 81bc d373 7d3d 57fa 983d ca41 573e
000001d0: 72db 0b3e ebbd da3b 509c 4dbe 0c73 81bd
000001e0: bdb9 a73d 248d 983d 11cb 1b3e 0988 3e3e
000001f0: 91d4 b3bb 66db 3bbe cdf2 4dbd e23c c63d
00000200: c7d0 053e e5b8 55bd 7462 69bb cc62 cc3d
00000210: 1ddc 2b3e 290e 353d eadf 0fbe 3ee0 54be
00000220: 61ed 28be 90c7 febd a9ac 2a3d 0cd3 013e
00000230: 1bf1 623d f0b5 06bd 5c10 e3bd 3515 eebd
00000240: 7642 4abe ef6f 143d d09f 94bd e177 57bd
00000250: 7569 ad3d d29b 883e e03d 36be 8b14 f13c
00000260: 2756 443d 4808 2bbd 7b85 d8bd c1f8 383d
00000270: 6c51 d7bd 93d1 b0bd f9f3 c3bd 9c22 fd3c
00000280: 3a16 823d 7fca 2a3e edcc 3f3e 9553 65bd
00000290: 3b30 6fbd a86a 05be e8d8 e23c 605e 193e
000002a0: 7204 783d c741 013e 59b4 92bd 470d 08be
000002b0: f415 f1bb ba9c 97bd 812c b8bd df67 223e
000002c0: cbb1 1d3d cdf8 683d 0761 a6bd fbc8 abbc
000002d0: c625 84bd 2291 9c3d 6fff 95bb 7dc1 5bbd
000002e0: 9326 4e3d b1b8 9d3b 7ea6 8fba f0d3 353d
000002f0: a7bd 003d 7bf3 813d 2d9b babd 2591 dcbc
00000300: 94f8 b1bd a22c 433d 7741 28be 3438 9e3c
00000310: 3707 243c 13ee 03bd 94eb e43c 75d9 b0b8
00000320: eb37 c33d 333b e93d 1df5 bf3c 6c3c cabc
00000330: 9c4e 45bd b061 4fbe 9175 89bd 1fc2 193c
00000340: d78f 4abd ff5f c8bd 96ed 07bd 7978 dfbc
00000350: a512 0dbe 4f4a 3b3d ea6a 6c3e 4b4a 1a3e
00000360: 450f 873d 8ccc 883d 659c da3c bc94 1cbd
00000370: 448f 883d 06e7 f7bd 8ad6 20bd 2539 14be
00000380: e57a 3abd 9065 f33d 0263 183e 19a4 333c
00000390: 1106 d13b 4c17 5cbe 6552 1a3d 60e4 e7bb
000003a0: ba1c 193d 3f63 e5bc 1525 1ebe 27a0 2c3e
000003b0: 6d39 1b3e 0296 243e e6b8 e83d 7f77 ac3d
000003c0: 4c96 023e 97b2 853d 397f 8ebd 98b2 cbbd
000003d0: 3df1 0bbe 7a90 05be 06ef 6bbd 12e1 7eba
000003e0: eba8 c83c ba64 eb3d 810d 603d 4840 523d
000003f0: f7bb 41be 5353 babe 60c7 9dbe e023 a23d

model.after.0.bias f4 [16]
-0.04251892 -0.0021183658 0.0066181296 0.006759081 0.013131675 0.015526428 0.051458307 -0.008179026
0.07790786 -0.07378466 0.05488777 0.07550578 -0.13083504 0.014879491 -0.040573098 -0.028799301
00000000: 5228 2ebd 48d4 0abb e5dc d83b 487b dd3b
00000010: 3d26 573c 8f62 7e3c f2c5 523d 5201 06bc
00000020: 288e 9f3d 691c 97bd 00d2 603d c6a2 9a3d
00000030: 9ff9 05be 1cc9 733c fa2f 26bd 83ec ebbc

model.after.2.weight f4 [16, 16, 5]
0.08111277 -0.038118687 0.115061045 0.00657244 0.11290011 -0.13437036 0.067282714 -0.01723475
0.23758511 0.12661217 0.1236686 0.026720684 0.15485643 0.17916706 0.22961785 -0.004243309
0.029193278 0.114864774 -0.15322232 -0.069555424 -0.07171798 -0.0032122543 -0.14756359 -0.06344615
-0.18518694 -0.07560337 -0.047396015 0.013515342 0.03617603 0.070541486 0.09570982 -0.024532609
-0.0900577 0.08821118 -0.096758775 -0.11023238 -0.12317401 -0.08838895 0.08589048 0.05103059
-0.14707117 -0.050984114 0.15143931 -0.068402074 0.038959887 0.20442203 0.09496027 0.052388057
0.12078259 0.08978293 -0.017157393 0.078402214 0.11995837 0.037489094 -0.16241159 0.039916217
0.106037706 0.10064065 0.22443032 0.11072419 -0.058310565 -0.12570964 -0.06663772 0.027250994
0.12530047 -0.25549716 -0.18451394 0.038262747 0.08186711 -0.0007919886 -0.22728771 0.10506754
0.44891152 0.5014277 0.3351554 -0.063836575 0.09748433 0.11284898 0.14617689 0.029787479
-0.11739842 -0.17225458 -0.3289667 -0.17610222 -0.196468 -0.022194833 -0.045375656 0.14211372
-0.12154069 -0.09038885 0.0944833 0.14839536 0.028759386 0.0052600475 0.11014302 0.022207461
0.0396353 -0.16016474 -0.24538392 -0.45063847 -0.37311897 -0.005871171 -0.14060454 -0.20067509
-0.11918295 0.062350873 0.10671668 0.088177584 -0.024413183 0.21090469 0.07965334 0.02295293
-0.14336683 0.12729838 0.27792704 -0.1394361 -0.049293905 -0.029302165 -0.15884627 -0.25007704
-0.06281013 -0.04418823 0.029115034 0.1305181 0.17071338 0.10169274 -0.058693357 0.10912192
0.1367091 0.06974401 0.11212476 0.13252942 -0.05572228 -0.24418421 -0.16756892 -0.30657044
0.13745452 0.2596441 0.10916466 -0.14463015 -0.06310543 -0.10916127 -0.065515995 -0.16933839
-0.15835427 0.009202428 0.07190608 -0.15381864 -0.18377894 -0.44890055 -0.108486734 0.007161929
0.08121189 -0.075328186 -0.5680911 -0.045151804 0.21195436 0.06501567 -0.13583614 -0.61493963
0.09041273 0.07283779 0.17681451 0.06948534 -0.11632548 0.24413669 0.17401052 0.018461704
0.18488733 -0.01530602 0.21389121 0.019927679 0.03736485 -0.05021171 -0.33546323 -0.044088818
-0.13144223 -0.018347668 -0.07943258 -0.27258062 0.15893728 0.13441737 0.064480476 0.0333981
0.06950775 0.13823725 0.15181763 0.08868872 0.004770351 -0.06620309 -0.06491302 0.032492977
-0.1733334 -0.18602039 0.040972948 -0.08385014 -0.049008366 0.103501424 -0.12712973 -0.26397216
0.30030948 0.15689024 0.030202396 -0.18272258 -0.25203305 -0.016036533 -0.09281974 -0.1658437
-0.05167432 -0.03831846 0.19333738 0.13211901 0.21621771 0.13238044 0.15825768 0.46999627
0.358153 -0.017522719 -0.30027542 -0.40141043 0.070782945 -0.1345755 -0.18240786 -0.12135053
-0.21665405 0.29250395 0.08230127 -0.0764796 -0.06943075 0.13603443 -0.0706759 0.16403003
-0.0070665856 -0.22869219 -0.34951818 0.011784964 0.027455995 -0.051661525 -0.17009814 -0.531302
-0.27928045 0.045466926 -0.025188487 0.06557687 0.07587662 -0.010784051 -0.23860787 0.033252165
0.016799355 -0.037377894 -0.18104322 -0.0075855614 0.055563387 0.13207948 0.237387 -0.05509472
00000000: 741e a63d 5722 1cbd 20a5 eb3d 9f5d d73b
00000010: 2c38 e73d 6298 09be 85cb 893d e42f 8dbc
00000020: 8349 733e 9fa6 013e f745 fd3d 56e5 da3c
00000030: af92 1e3e 9277 373e f120 6b3e 750b 8bbb
00000040: be26 ef3c 393e eb3d 50e6 1cbe 1373 8ebd
00000050: e0e0 92bd af84 52bb e91a 17be 0ef0 81bd
00000060: a5a1 3dbe f1d5 9abd 5322 42bd 746f 5d3c
00000070: 512d 143d 0e78 903d 8303 c43d 9cf8 c8bc
00000080: 2c70 b8bd 10a8 b43d 7729 c6bd 84c1 e1bd
00000090: a842 fcbd 4405 b5bd 59e7 af3d 7405 513d
000000a0: d399 16be b8d4 50bd e812 1b3e 6316 8cbd
000000b0: 6794 1f3d 0254 513e 887a c23d dc94 563d
000000c0: dd5c f73d 1de0 b73d a98d 8cbc 5791 a03d
000000d0: bcac f53d 2a8e 193d 394f 26be 307f 233d
000000e0: 4c2a d93d af1c ce3d 10d1 653e 5dc3 e23d
000000f0: 0fd7 6ebd 07ba 00be 5b79 88bd 7a3d df3c
00000100: c44e 003e 86d0 82be 39f1 3cbe 66b9 1c3d
00000110: f2a9 a73d 759d 4fba 1cbe 68be a72d d73d
00000120: bbd7 e53e 915d 003f 7d99 ab3e c0bc 82bd
00000130: dda5 c73d 5e1d e73d 65af 153e df04 f43c
00000140: 956e f0bd 8163 30be 536e a8be 2454 34be
00000150: e82e 49be f0d1 b5bc d3db 39bd 4286 113e
00000160: 53ea f8bd ca1d b9bd 7680 c13d f4f4 173e
00000170: ce98 eb3c 7a5c ac3b aa92 e13d 6cec b53c
00000180: a058 223d 3a02 24be ec45 7bbe 16ba e6be
00000190: 7309 bfbe f462 c0bb a3fa 0fbe c57d 4dbe
000001a0: 3116 f4bd a163 7f3d 468e da3d 7396 b43d
000001b0: 28fe c7bc 66f7 573e 4a21 a33d c807 bc3c
000001c0: c1ce 12be 825a 023e 744c 8e3e 56c8 0ebe
000001d0: 68e8 49bd 180b f0bc 99a8 22be 190a 80be
000001e0: 99a2 80bd b8fe 34bd a782 ee3c 89a6 053e
000001f0: 7dcf 2e3e 4944 d03d 7268 70bd 507b df3d
00000200: 78fd 0b3e f3d5 8e3d aba1 e53d cbb5 073e
00000210: 0c3d 64bd 6d0b 7abe 3097 2bbe cdf6 9cbe
00000220: e1c0 0c3e 12f0 843e b991 df3d ed19 14be
00000230: 6b3d 81bd f28f dfbd 402d 86bd 0b67 2dbe
00000240: 9f27 22be c8c5 163c 7f43 933d a282 1dbe
00000250: 8c30 3cbe 4bd6 e5be 4b2e debd 9dae ea3b
00000260: 6b52 a63d aa45 9abd 6b6e 11bf 19f1 38bd
00000270: 900a 593e f026 853d a118 0bbe af6c 1dbf
00000280: 4f2a b93d fb2b 953d dd0e 353e 544e 8e3d
00000290: 0e3c eebd f8fe 793e d02f 323e 003d 973c
000002a0: 1b53 3d3e 1ac6 7abc 4c06 5b3e 5f3f a33c
000002b0: e30b 193d cbaa 4dbd d6c1 abbe 7a96 34bd
000002c0: cb98 06be d94d 96bc 8cad a2bd b08f 8bbe
000002d0: 74c0 223e b5a4 093e 570e 843d 72cc 083d
000002e0: 145a 8e3d 118e 0d3e 1576 1b3e 6ea2 b53d
000002f0: 9b50 9c3b 7c95 87bd 1ef1 84bd 5b17 053d
00000300: 507e 31be 217c 3ebe 40d3 273d 9fb9 abbd
00000310: ffbc 48bd 8ef8 d33d 4c2e 02be 5c27 87be
00000320: 2ac2 993e d6a7 203e 046b f73c a11b 3bbe
00000330: 7a0a 81be 0c5f 83bc 4718 bebd eed2 29be
00000340: 74a8 53bd d1f3 1cbd 3cfa 453e 354a 073e
00000350: 2d68 5d3e bd8e 073e 4d0e 223e 5aa3 f03e
00000360: d45f b73e ce8b 8fbc b3bd 99be ab85 cdbe
00000370: a6f6 903d 29ce 09be 20c9 3abe a086 f8bd
00000380: 8fda 5dbe 14c3 953e 918d a83d 56a1 9cbd
00000390: b631 8ebd 9c4c 0b3e 87be 90bd 7df7 273e
000003a0: d18e e7bb 492e 6abe 0cf4 b2be b915 413c
000003b0: 65eb e03c 099b 53bd 352e 2ebe 6803 08bf
000003c0: d9fd 8ebe 873b 3a3d 1658 cebc 2b4d 863d
000003d0: 3465 9b3d 97af 30bc 9f55 74be 6c33 083d
000003e0: cd9e 893c 9019 19bd 6563 39be 4d90 f8bb
000003f0: 6f96 633d d83f 073e 9415 733e 00ab 61bd

model.after.2.bias f4 [16]
-0.10975893 0.15045902 -0.09793946 0.18128328 0.009516142 -0.25544664 -0.009357145 0.10562808
0.07718577 0.15358487 0.093218304 -0.05797608 -0.09649033 0.060750823 -0.02365038 -0.1473754
00000000: 4ac9 e0bd ee11 1a3e 7c94 c8bd 53a2 393e
00000010: 98e9 1b3c e7c9 82be b64e 19bc 8953 d83d
00000020: 9313 9e3d 5a45 1d3e 3de9 be3d 5378 6dbd
00000030: b99c c5bd dbd5 783d 71be c1bc 94e9 16be

model.after.4.weight f4 [8, 16, 5]
-0.23367305 0.13411969 0.11564021 0.13131383 0.1104253 -0.08563888 -0.06258814 -0.08810899
-0.2570572 -0.43711805 -0.48933613 -0.2314007 -0.25235128 0.13182653 0.11396431 0.3908627
0.18979205 0.045788374 -0.14444575 -0.22188942 0.059746098 0.01609425 -0.060945034 -0.10029765
-0.15119308 0.3401724 0.22078863 0.12374183 -0.13378851 -0.3893009 -0.0686534 -0.15334386
-0.1696003 -0.1691103 -0.09980967 -0.12092351 -0.34112328 -0.48163944 -0.2572936 -0.32682428
0.41364774 0.24010342 0.37544543 0.22761546 0.24026453 0.103244044 0.17640825 -0.017304897
0.13816571 0.12717728 0.058692206 0.08932495 0.08977982 -0.11072396 -0.22812764 0.15955357
0.02771356 0.26068938 0.42526427 0.3740357 0.0014547899 -0.35812557 -0.3682973 -0.22714938
0.05553063 -0.14982933 -0.3550518 -0.107294045 0.1105298 -0.20918612 0.38224247 0.55026317
0.17776474 0.0020853218 0.1723112 -0.11755668 0.064295195 0.25589582 0.075646 0.15500821
0.14578083 0.053884123 -0.18062104 -0.17388658 -0.1520018 0.17945178 -0.04733266 -0.030342765
0.06679985 0.4357121 0.33728644 0.17524992 0.20219196 -0.09866289 -0.16018975 -0.3647215
-0.035447113 -0.1287139 -0.057330873 0.22409199 -0.176111 0.045533247 0.11831089 0.026322154
0.1303983 -0.2807265 -0.18599573 -0.042512033 0.009468825 0.39738923 0.16280426 0.12625383
-0.003992119 0.16786657 0.24523824 0.1460087 0.44701833 0.34889522 0.17307538 0.24797541
-0.41773155 -0.2960405 -0.54768246 -0.26947784 -0.27450928 -0.16831648 -0.14252745 -0.046778638
-0.07940438 -0.19224156 0.06685645 -0.06185385 -0.16993095 -0.030336061 0.20189151 -0.11996972
-0.14520061 -0.104161695 -0.43307522 -0.31514263 0.10757379 0.31545097 0.40940222 0.31021172
0.04870848 0.30660987 0.3117666 -0.061414104 0.032657582 0.054076638 -0.3500463 -0.49766695
-0.29419824 -0.13125911 -0.034138832 0.12927626 0.03541967 -0.25957608 -0.08178768 -0.0562837
-0.13906968 0.025721636 0.12573896 0.15644202 0.14206444 -0.11521678 0.07851267 0.011722881
-0.27763534 -0.41081145 -0.3280353 -0.23620777 -0.17472333 0.019746438 0.14344434 0.26933727
0.1553288 0.14307143 0.005527114 -0.0037803778 0.07481187 -0.08293753 -0.04691109 -0.06540404
-0.20039923 0.16995504 0.18580422 0.11644993 -0.12896416 -0.33961198 -0.17093916 -0.28925723
-0.12702481 -0.15419985 -0.13737077 -0.27073076 -0.5163602 -0.26901442 -0.16062082 -0.4355678
0.33056256 0.26754037 0.5180972 0.22891358 0.25033575 0.061462373 0.18346064 0.018741427
0.13284464 0.12434275 -0.09451171 0.004444766 0.07375277 0.009371042 -0.18091887 -0.027237331
0.2400781 0.21598355 0.41551888 0.3515254 -0.09747256 -0.289286 -0.27711478 -0.36828557
0.05124151 -0.23755595 -0.29067647 0.11298425 0.064712785 -0.26773933 0.43559435 0.48765302
0.12224631 0.12922229 0.06478136 -0.09563472 0.04776109 0.2949381 0.19558226 0.036039576
0.14715095 0.06428092 -0.20449007 -0.18147509 -0.004582199 0.08474014 0.039507926 0.010362354
0.16289793 0.43864116 0.27784967 0.3075334 0.22350456 0.012601859 -0.20811981 -0.2970564
00000000: fd47 6fbe ac56 093e c6d4 ec3d 2277 063e
00000010: a926 e23d 7063 afbd 362e 80bd 7c72 b4bd
00000020: 009d 83be f0cd dfbe 448a fabe 4ef4 6cbe
00000030: 3034 81be 89fd 063e 1f66 e93d 281f c83e
00000040: d958 423e 978c 3b3d 96e9 13be fb36 63be
00000050: 53b8 743d 17d8 833c 80a1 79bd db68 cdbd
00000060: 5cd2 1abe 142b ae3e 6a16 623e 5b6c fd3d
00000070: dbff 08be 7352 c7be 279a 8cbd 2c06 1dbe
00000080: b3ab 2dbe 402b 2dbe 0369 ccbd bfa6 f7bd
00000090: b6a7 aebe 7299 f6be fdbb 83be 8355 a7be
000000a0: a3c9 d33e acdd 753e 623a c03e 0714 693e
000000b0: e807 763e 9d71 d33d 5da4 343e 00c3 8dbc
000000c0: 507b 0d3e c33a 023e 3d67 703d 00f0 b63d
000000d0: 7bde b73d 3ec3 e2bd 4b9a 69be 0362 233e
000000e0: 8c07 e33c 1479 853e 3dbc d93e 9b81 bf3e
000000f0: a6ae be3a 3c5c b7be 7791 bcbe d999 68be
00000100: 1674 633d dc6c 19be 59c9 b5be fbbc dbbd
00000110: 735d e23d e334 56be 49b5 c33e 0cde 0c3f
00000120: f607 363e e5a9 083b 5972 303e 8fc1 f0bd
00000130: 33ad 833d c704 833e 4aec 9a3d 79ba 1e3e
00000140: 9247 153e 99b5 5c3d b9f4 38be 530f 32be
00000150: 5ca6 1bbe 35c2 373e e4df 41bd 6491 f8bc
00000160: 5cce 883d a815 df3e cfb0 ac3e b774 333e
00000170: 690b 4f3e c50f cabd c808 24be c7bc babe
00000180: fe30 11bd 94cd 03be c7d3 6abd 5f78 653e
00000190: 7156 34be 1281 3a3d fb4c f23d 8fa1 d73c
000001a0: 2287 053e 62bb 8fbe aa75 3ebe 1921 2ebd
000001b0: 2123 1b3c 9a76 cb3e 29b6 263e af48 013e
000001c0: 52d0 82bb 37e5 2b3e bc1f 7b3e 4e83 153e
000001d0: 96df e43e 65a2 b23e ac3a 313e 44ed 7d3e
000001e0: e9e0 d5be 9f92 97be eb34 0cbf 00f9 89be
000001f0: 7b8c 8cbe 285b 2cbe b7f2 11be f59a 3fbd
00000200: c39e a2bd f9da 44be 09ec 883d 765a 7dbd
00000210: 6102 2ebe 5583 f8bc a6bc 4e3e afb2 f5bd
00000220: 78af 14be ba52 d5bd 09bc ddbe 605a a1be
00000230: a64f dc3d ca82 a13e 2b9d d13e 12d4 9e3e
00000240: 8b82 473d f8fb 9c3e df9f 9f3e 5b8d 7bbd
00000250: f5c3 053d 777f 5d3d 4539 b3be 34ce febe
00000260: 27a1 96be ca68 06be 29d5 0bbd ff60 043e
00000270: 3714 113d 28e7 84be 4d80 a7bd bd89 66bd
00000280: 4868 0ebe 2eb6 d23c b7c1 003e 5632 203e
00000290: 5779 113e c6f6 ebbd 40cb a03d 5411 403c
000002a0: 3826 8ebe e155 d2be 3ef4 a7be 73e0 71be
000002b0: acea 32be 48c3 a13c 13e3 123e 93e6 893e
000002c0: 830e 1f3e 5181 123e cb1c b53b 37c0 77bb
000002d0: f736 993d 27db a9bd d825 40bd 8ef2 85bd
000002e0: 7535 4dbe b208 2e3e 7643 3e3e 4d7d ee3d
000002f0: 2e0f 04be 9fe1 adbe ad0a 2fbe 8619 94be
00000300: cb12 02be 91e6 1dbe ecaa 0cbe 399d 8abe
00000310: 2f30 04bf 42bc 89be c979 24be be02 dfbe
00000320: 7f3f a93e 0dfb 883e 05a2 043f 5268 6a3e
00000330: 022c 803e f8bf 7b3d 1bdd 3b3e 9f87 993c
00000340: 6d08 083e 69a7 fe3d 5b8f c1bd 66a5 913b
00000350: b10b 973d 0089 193c cc42 39be d320 dfbc
00000360: 09d7 753e cb2a 5d3e e4be d43e 23fb b33e
00000370: b29f c7bd 4b1d 94be fde1 8dbe ed8f bcbe
00000380: 9ee2 513d de41 73be 8cd3 94be 4964 e73d
00000390: 2388 843d 2115 89be 3906 df3e a8ad f93e
000003a0: 465c fa3d d952 043e 17ac 843d 23dc c3bd
000003b0: 22a1 433d 2002 973e b746 483e 3c9e 133d
000003c0: bdae 163e b7a5 833d d865 51be 9bd4 39be
000003d0: 4526 96bb 3d8c ad3d 10d3 213d ddc6 293c
000003e0: b7ce 263e 9395 e03e 5042 8e3e 0575 9d3e
000003f0: 61de 643e 0778 4e3c 5c1d 55be c717 98be

model.after.4.bias f4 [8]
0.06849666 -0.00020927594 -0.0059623364 0.04699881 -0.08558764 0.033208188 0.055745095 -0.01777476
00000000: fa47 8c3d 1571 5bb9 b45f c3bb d381 403d
00000010: 9348 afbd 4f05 083d f854 643d 609c 91bc

158 f4 [2, 128]
0.1502067 -0.07648355 0.1942885 0.28539714 0.018495556 0.28642008 0.20785882 -0.24633129
0.11330673 -0.13911419 -0.19489554 0.095219545 -0.11337093 -0.07605482 -0.02543639 -0.3034782
0.2605127 0.27269313 0.16509046 -0.060199417 0.16629858 0.32085112 0.012844979 0.1608423
0.12642144 -0.042160843 0.14239685 0.3162085 -0.1985074 0.059990693 0.083003946 0.060851436
0.2316507 0.3342481 0.11341569 0.19208674 0.25311598 0.44409668 0.32155702 0.017353395
0.10309508 0.18188298 0.38884273 0.32331952 -0.008037917 0.3286606 0.27112213 -0.04515808
0.063296854 0.13088027 -0.033332124 0.20040378 -0.31514168 -0.19212325 -0.044880126 0.2749172
-0.1891487 -0.056653135 -0.09973066 0.14065254 0.18571386 -0.005476263 -0.10027448 -0.07994329
-0.14731766 0.1504026 -0.1642193 0.15069333 0.23935848 -0.03726849 -0.21457522 0.029744873
-0.07336855 -0.06588741 -0.31584957 -0.27075103 -0.10921291 -0.11252899 -0.025160003 -0.2918939
0.28127944 0.059639722 -0.16451032 0.20955488 0.2539175 0.23606905 -0.070687026 -0.024461541
-0.15145345 0.027106432 -0.14193408 -0.112636246 0.19235155 0.055509467 -0.15550826 0.052280378
-0.048849653 0.35788926 0.13912565 0.116115116 0.13624007 0.120655864 0.3874442 0.2553472
0.30083302 0.22977445 0.14940208 0.15179205 0.16241647 0.11518397 0.24657272 0.32737893
0.0022163722 -0.014394493 0.13325267 0.0330742 -0.3045855 0.087977186 0.012338606 -0.047607
0.13825911 -0.09897437 0.122238375 -0.16420478 0.05129045 0.20779985 0.09225517 -0.042818356
0.021254875 0.2691792 0.05442065 -0.1117551 0.24249147 -0.2763667 -0.26361796 0.15889373
-0.008262296 -0.07193001 0.10170127 -0.3577482 0.062276408 -0.07269412 0.2660508 -0.1938045
-0.018576501 0.31220227 0.111052096 -0.16810209 0.21264988 -0.050059166 0.01856758 0.053565614
0.20204718 -0.06567519 0.3478222 -0.2823419 0.26388678 -0.13497442 -0.11415419 -0.093543865
0.092738725 0.35529277 0.24108246 0.14184216 0.07877602 0.33286512 0.1945176 0.43939805
-0.10274387 0.26800317 0.09607336 0.14005284 0.07754776 0.22857292 0.09232385 0.13800476
0.18927675 -0.21020643 0.08590306 0.08003827 -0.11704037 0.039483603 0.076660134 -0.16126445
-0.17265677 -0.012545812 -0.024558522 0.19832397 -0.11813174 0.10978317 -0.1594616 0.16158712
0.05671642 -0.025056537 0.12911269 -0.10779929 0.20597993 -0.08625576 0.03626467 0.130911
-0.29720786 0.0033097055 -0.014958284 -0.058487576 0.080106184 -0.12700656 0.24833547 -0.28041527
-0.095891505 -0.063563175 -0.06822473 0.20354661 0.22988859 0.10008163 -0.009970438 -0.025227493
-0.14314307 0.104697086 -0.035988398 -0.06370444 -0.07307052 -0.012419196 0.11902115 -0.084553756
0.12564018 0.15992302 -0.10054192 -0.038499348 0.306196 -0.057297178 0.17220642 0.33034578
0.34271 -0.021409197 0.25807586 0.2582142 0.275348 0.14218788 0.037239324 -0.1688836
0.17657086 0.028127858 0.019758241 -0.09538881 -0.080231346 -0.047890935 -0.025761059 -0.017766273
-0.18898115 -0.24136381 -0.035504617 -0.12965989 0.05901416 0.11630285 0.15258743 0.08521891
00000000: c9cf 193e 68a3 9cbd 91f3 463e 931f 923e
00000010: fe83 973c a7a5 923e f1d8 543e 453e 7cbe
00000020: 5c0d e83d f373 0ebe b292 47be 7702 c33d
00000030: 052f e8bd a1c2 9bbd fa5f d0bc 7f61 9bbe
00000040: ec61 853e 6f9e 8b3e 790d 293e aa93 76bd
00000050: 2d4a 2a3e 9946 a43e bf73 523c d8b3 243e
00000060: 9f74 013e d9b0 2cbd 7bd0 113e 15e6 a13e
00000070: 8645 4bbe cdb8 753d f9fd a93d 5b3f 793d
00000080: d735 6d3e 9122 ab3e 7c46 e83d 63b2 443e
00000090: 6b98 813e a460 e33e 1fa3 a43e b528 8e3c
000000a0: 8323 d33d 883f 3a3e 6516 c73e 238a a53e
000000b0: 78b1 03bc 3446 a83e 85d0 8a3e aef7 38bd
000000c0: c8a1 813d 7a05 063e 4487 08bd a636 4d3e
000000d0: 405a a1be f5bb 44be 39d4 37bd f2c1 8c3e
000000e0: 32b0 41be 1e0d 68bd 973f ccbd 3807 103e
000000f0: c62b 3e3e 3972 b3bb b55c cdbd 4fb9 a3bd
00000100: 71da 16be 2403 1a3e 1b29 28be 5a4f 1a3e
00000110: 641a 753e d8a6 18bd 9bb9 5bbe 85ab f33c
00000120: 4042 96bd faef 86bd 09b7 a1be e19f 8abe
00000130: 05ab dfbd 9975 e6bd 5a1c cebc 1e73 95be
00000140: dc03 903e c848 743d 6575 28be 8e95 563e
00000150: 7901 823e 16bc 713e 5cc4 90bd 9263 c8bc
00000160: 9d16 1bbe 4f0e de3c 2b57 11be d5ad e6bd
00000170: cef7 443e e55d 633d 8f3d 1fbe f323 563d
00000180: 9316 48bd 433d b73e f476 0e3e c3cd ed3d
00000190: 8482 0b3e 6c1a f73d 165f c63e debc 823e
000001a0: c906 9a3e fe49 6b3e dcfc 183e 606f 1b3e
000001b0: 8150 263e 93e5 eb3d 8f7d 7c3e 369e a73e
000001c0: 8e40 113b e1d6 6bbc 6373 083e d078 073d
000001d0: a1f2 9bbe 622d b43d dd27 4a3c 8fff 42bd
000001e0: cc93 0d3e 13b3 cabd 1d58 fa3d 4c25 28be
000001f0: ef15 523d 7cc9 543e 47f0 bc3d 4d62 2fbd
00000200: b41e ae3c dbd1 893e 30e8 5e3d dcdf e4bd
00000210: af4f 783e f07f 8dbe eff8 86be 0ab5 223e
00000220: 955e 07bc 0b50 93bd c148 d03d c62a b7be
00000230: 8c15 7f3d a8e0 94bd cf37 883e b074 46be
00000240: bf2d 98bc fad8 9f3e 486f e33d f422 2cbe
00000250: e4c0 593e d70a 4dbd 0a1b 983c 9e67 5b3d
00000260: 75e5 4e3e b780 86bd c015 b23e 1e8f 90be
00000270: 2b1c 873e bc36 0abe acc9 e9bd ed93 bfbd
00000280: cded bd3d efe8 b53e 52de 763e 123f 113e
00000290: 5255 a13d 4c6d aa3e 9f2f 473e c8f8 e03e
000002a0: 616b d2bd b637 893e 1cc2 c43d 036a 0f3e
000002b0: 5cd1 9e3d 050f 6a3e 4914 bd3d 1f51 0d3e
000002c0: c4d1 413e 5b40 57be f2ed af3d 1beb a33d
000002d0: ddb2 efbd 8fb9 213d fdff 9c3d 8222 25be
000002e0: f0cc 30be f38c 4dbc f42e c9bc 7015 4b3e
000002f0: 0eef f1bd 00d6 e03d e749 23be 1877 253e
00000300: 7a4f 683d 5e43 cdbc 1e36 043e e0c5 dcbd
00000310: 67ec 523e dca6 b0bd 438a 143d 880d 063e
00000320: a12b 98be a5e7 583b 9713 75bc ab90 6fbd
00000330: b60e a43d 020e 02be a74b 7e3e 9792 8fbe
00000340: c462 c4bd 692d 82bd 68b9 8bbd 866e 503e
00000350: ea67 6b3e 99f7 cc3d 0c5b 23bc e3a9 cebc
00000360: 1994 12be 6d6b d63d 9268 13bd 7977 82bd
00000370: ffa5 95bd e279 4bbc 5cc1 f33d 852a adbd
00000380: d2a7 003e dcc2 233e ece8 cdbd 7eb1 1dbd
00000390: b9c5 9c3e 72b0 6abd e156 303e 1523 a93e
000003a0: af77 af3e 5762 afbc 8522 843e a734 843e
000003b0: 6afa 8c3e b399 113e 4388 183d d3ef 2cbe
000003c0: fece 343e 656c e63c 09dc a13c 355b c3bd
000003d0: 5550 a4bd 4929 44bd db08 d3bc 938a 91bc
000003e0: 4684 41be 1328 77be 4a6d 11bd 90c5 04be
000003f0: d5b8 713d 3030 ee3d e13f 1c3e 4087 ae3d
